model/oldModel/3.30keypointModel/keypoint_classifier.tflite (tflite, 6592 bytes, 6 tensors)

sequential_4/dense_12/BiasAdd/ReadVariableOp/resource f4 [20]
00000000: 51bd 77bf 3858 0abf f4d1 4ebf be68 40bf
00000010: 7d02 13bf f0f5 eebe 5dcd 02bf 34ff 3ebf
00000020: c460 43bf ce20 b9be 46c3 5ebe 9a2c d0be
00000030: 6eb3 49bf d108 d9be 1171 f6be 7031 a6bf
00000040: e1d2 3bbf bd86 d8be 7925 d1be b8a1 77bf
-0.9677325 -0.5404086 -0.80789113 -0.75159824 -0.5742567 -0.4667201 -0.5109461 -0.7460816
-0.7631953 -0.3615784 -0.21754178 -0.40659028 -0.7878941 -0.4238954 -0.48133138 -1.2983837
-0.7336865 -0.42290297 -0.40848902 -0.9673114

sequential_4/dense_13/BiasAdd/ReadVariableOp/resource f4 [10]
00000000: 98b4 da3e 8032 143e ee4d 403e 2496 763e
00000010: 6718 503f 3e0c f3bd a161 e3be f940 8d3f
00000020: 735d 0b3e 4cbf b83b
0.42715907 0.14472389 0.18779728 0.24080712 0.81287235 -0.118675694 -0.44410422 1.1035453
0.13609867 0.0056380387

sequential_4/dense_14/BiasAdd/ReadVariableOp/resource f4 [8]
00000000: 7c28 bb3d 8c74 053f 79a8 96bf 4d03 f8be
00000010: 5937 843f b4bf 083f 8599 61bc c6cf 13be
0.09138581 0.5213096 -1.1770164 -0.48440018 1.0329391 0.53417516 -0.013769512 -0.14434728

sequential_4/dense_12/MatMul f4 [20, 42]
00000000: fd3f 06be eadd 123e 7426 74bf 0617 20be
00000010: d10a 09bf a4b1 07be 31bf 2fbf 1087 173e
00000020: 40d7 2ebf c156 5b3d 6b79 89bd 1a76 20be
00000030: a3d3 fc3c 128f d4bd 6c13 483d ffd2 02bd
00000040: 4f7f 723d 38c6 873c 9757 ff3a 4923 b9bd
00000050: 6d24 2fbd 24b1 9ebd 3545 cd3d c69d 643d
00000060: 7427 323e 4e1d 493d fe29 273e 7f13 2fbe
00000070: c856 11be e7d9 8bbd 704f 233d 56dc fd3c
00000080: c064 2d3e 43dd 9a3d 978a f13e c415 05be
00000090: 033c 113b ac03 67be 53e0 1fbd 8210 24be
000000a0: 2bd1 10be 536d ebbc 6808 4f3d 70c5 90be
000000b0: efe6 ca3d c2fb 3f3e 8c4e c23d e92a 303e
000000c0: 264d d93d a59c 083e af85 d43d 14f8 2a3d
000000d0: 54ae 8e3c 232b 363e 80b1 2b3d a854 a43d
000000e0: 54f5 a53d 3840 5c3d a74f b53d 2e85 f73c
000000f0: 1cfd 613d 3e3d 0d3e f3d0 273d 22de 15bd
00000100: 6f42 dfbd b074 5ebf ad7d b4bf 988f 03bf
00000110: 2428 393e 6f2b 243e ab15 2b3e 6b4f 153d
00000120: f12b 6dbd 39ed 1c3e 7352 21be 1918 543e
00000130: 3179 6c3e 9b92 123e 2772 433e bc7c 0f3c
00000140: fa2e 8fba 23ed ddbe 26aa b0be 63db 86bd
00000150: 1cd0 993d a866 8cbe ca40 8b3f 7425 ae3e
00000160: c7f4 1b3f a7ae b5bc 5004 f13e bbd0 7b3d
00000170: 35f9 d03e 4294 c2bd cf85 9d3e e526 ab3c
00000180: 52f9 9c3d 95d9 88bb 7cb9 6e3c e665 873c
00000190: 2ff4 2f3c 1bf3 86bd 4dc5 613e 6ec1 06be
000001a0: e32f 2fbc 3cb7 8e3c 4392 62be a582 c53d
000001b0: 4656 83be aa16 6f3d 2730 553e 2f61 d8be
000001c0: fdab 3f3e ef3b 8cbc d286 adbd a211 df3d
000001d0: 67dd 20be 0c1b 233e f1ac 6fbd 6dcf 95be
000001e0: b396 753e 19e3 96bd f6d7 6e3b 6781 043d
000001f0: 472f d5bd 5da3 5f3d 7877 3a3e 8049 d0bd
00000200: 0b92 6f3f 18e8 96be d7b8 463f ada6 b3be
00000210: ec7e 453f c75f b7be becc 1b3f 7b34 a3be
00000220: 3ea3 fb3d 8e1f 47bd 202d aebd 5463 163d
00000230: e1d8 2cbe 3ad5 b73d 8d37 49be e44a 473d
00000240: 2ea8 8c3c 8cc1 8abd 26a5 143c 2922 013d
00000250: 6e21 6f3c d551 8a3d 39db e83c caa1 663d
00000260: e3b6 13be 01b3 90bd 3608 15bd 19dd 4a3c
00000270: 44ea 303d 5b52 443d 3e92 383e a26d 313d
00000280: f4a9 c7be a5dd 45bd d3a9 81be 8064 24bd
00000290: d12a dabe b78b 4cbe 2e4e 14be 1077 e9bd
000002a0: dc32 bf3d 9e27 97bd eb1d f03e 5f37 e3bd
000002b0: 9d18 b03e 7ca2 15be a305 993e 17ab 6bbe
000002c0: ec6b 923e a21f 99be 66ce 6c3d 7793 3ebc
000002d0: a3d0 933d 9b72 643d 7740 973d b006 db3d
000002e0: af97 6b3d 95f9 b43d 5093 b13d f203 23bd
000002f0: 4085 873d 6010 1d3d f1f1 a93c a5e7 933d
00000300: 7ad4 3d3c f305 5e3d b446 dc3d 757a 363d
00000310: 2d42 6fbc c867 3f3c 160e 66be fc3c 863a
00000320: 5b41 dcbe 5611 89bd a578 313e 1826 ee3d
00000330: 7f44 d1bd 74f5 e53d 0adf f0be 0ec8 663d
00000340: 302f 7bbf e2cd 4a3e 7c46 7ebd 604f 503d
00000350: 77cb 9bbd 3a88 943e bdfb 61be d7b3 313e
00000360: aff8 c3bd 0bb8 863e 5127 21bd 351e d63e
00000370: 960c 54bd f743 00bf 0e31 e63c 28e5 0cbe
00000380: 3ad9 ce3c 940f 093e fc6a 2d3d 7b20 0a3e
00000390: 0bb1 993c 9285 17bf ece7 cf3c db71 f43d
000003a0: c3f0 253d 2137 883e 3b31 0a3d d0bf 333e
000003b0: 3ea4 843d 0848 f2be 0ca4 f6bc 490e e53c
000003c0: 4969 15bd 6623 6a3e d0d8 d2bc afda 1e3e
000003d0: a715 a53d 3929 a1bf 75e5 ff3c 1ead 5fbe
000003e0: cec5 2abe b83b 933d 4446 81be 440c a73b
000003f0: 944d ba3d 1597 52be 4a15 193e eccd 4d3e
-0.13110347 0.14342466 -0.95371175 -0.15633783 -0.5353213 -0.13251358 -0.6865111 0.14797616
-0.68297195 0.05354953 -0.06712612 -0.15670052 0.030862635 -0.10378851 0.048846647 -0.031939503
0.059203442 0.01657401 0.001948106 -0.09039933 -0.042759348 -0.07748631 0.10022966 0.055814527
0.17397863 0.049100213 0.16324612 -0.17097281 -0.1419326 -0.06828671 0.03987068 0.030988853
0.16932964 0.075617336 0.47176048 -0.12996584 0.0022161014 -0.22559994 -0.03903229 -0.16021922
-0.14142291 -0.028738653 0.050545126 -0.28275633 0.09907328 0.18748382 0.09487638 0.17203869
0.10610418 0.13341005 0.103770606 0.041740492 0.01741711 0.17789893 0.041917324 0.080239594
0.08103433 0.05377218 0.08853083 0.030214872 0.055173025 0.13792893 0.040970754 -0.036588795
-0.10901343 -0.868968 -1.4100853 -0.5139098 0.18081719 0.16032194 0.16707484 0.036452692
-0.057903234 0.15324868 -0.15754108 0.20712318 0.23093106 0.14313738 0.19086514 0.008757766
-0.0010924034 -0.43344983 -0.34504813 -0.065848134 0.07510397 -0.2742207 1.0879147 0.3401295
0.60920376 -0.022178007 0.47073603 0.061478358 0.4081513 -0.09500934 0.3076615 0.02089257
0.076647416 -0.0041763284 0.01457059 0.016528081 0.01073937 -0.065893374 0.2204792 -0.13159725
-0.010692569 0.017421357 -0.22126107 0.09644059 -0.2565176 0.058371224 0.2081915 -0.42261645
0.18717952 -0.017118422 -0.084729806 0.10892035 -0.15709458 0.15928286 -0.05851454 -0.29259816
0.23983268 -0.07367534 0.003644464 0.03234997 -0.10409408 0.054599155 0.18209636 -0.10170269
0.9358222 -0.29473948 0.77625793 -0.350881 0.7714679 -0.3581526 0.60859287 -0.31875977
0.12286995 -0.048614077 -0.08504701 0.03671582 -0.16879608 0.089762166 -0.19650097 0.048655406
0.017170038 -0.067751974 0.009072578 0.03152672 0.014595373 0.067538895 0.028424846 0.056306638
-0.14425234 -0.07065392 -0.036384784 0.012381815 0.043192163 0.047930103 0.18024537 0.043317445
-0.3899685 -0.04830708 -0.25324878 -0.040134907 -0.4261079 -0.19975172 -0.14482948 -0.113996625
0.093358725 -0.07380603 0.46897826 -0.110945456 0.34393778 -0.14612764 0.29887113 -0.23014484
0.28597963 -0.29906946 0.057814024 -0.011631838 0.07217529 0.05577336 0.073853426 0.10694635
0.057517704 0.088366665 0.08670676 -0.039798684 0.06617212 0.038345695 0.02074525 0.07221917
0.011586303 0.054204892 0.10755673 0.044550378 -0.01460318 0.011682458 -0.22466311 0.0010241563
-0.43018612 -0.0669276 0.17331178 0.116283596 -0.10218143 0.11228457 -0.47045165 0.05634313
-0.9811888 0.198051 -0.062078938 0.050856948 -0.07607167 0.29010183 -0.22068687 0.1735376
-0.09568917 0.2631229 -0.039344136 0.4181992 -0.051769815 -0.50103706 0.028099563 -0.13759291
0.025250066 0.13384849 0.042338356 0.13488953 0.018761178 -0.5918819 0.025379144 0.11935779
0.04051281 0.2660456 0.033738356 0.1755364 0.06476639 -0.4732058 -0.03010752 0.027960913
-0.03647736 0.22865066 -0.02573815 0.15513109 0.080607705 -1.2590705 0.031237343 -0.21843383
-0.16677019 0.07189125 -0.2524892 0.0050978977 0.09096828 -0.20565446 0.14949527 0.20098084

sequential_4/dense_13/MatMul f4 [10, 20]
00000000: bdfa 223d eace 843e 4f94 0bbe a7a8 5fbd
00000010: 3fdd 863e e9da 98bd e92d 8abd c2c5 283e
00000020: cc43 453e 65b0 a93f 19a8 093f 0273 a33e
00000030: e047 a13e 31ab c33e 3b95 b7bd f3d2 a4be
00000040: 9a24 ff3f f92c c33e b56f 743e 9a9a 4e3d
00000050: b382 b3bf 8fc4 fa3e 5dab 5abe fb1a 71bf
00000060: c634 d0be 19d1 393f 2238 c3bd 5d7e e73e
00000070: 47ba d6be 4fc9 9d3e 12aa c63e 5f54 093f
00000080: f1db dcbd b3d8 173e c3b6 f3be 60f8 643f
00000090: 1509 0e3f 1094 e93e 9642 a83d 6db3 dcbe
000000a0: 31f1 013e b702 0f3e 1d5a 87be d051 0b3e
000000b0: dcf9 c6bd 71b0 ce3e 2069 573d 1ce7 263e
000000c0: b2e6 0c3e 1f85 e5bf a703 193f a949 c13c
000000d0: 04bf 873e 0c75 1c3c 49a3 373f 07c2 f7be
000000e0: 76a4 ffbf a4c1 ad3e 2659 da3e fad7 363e
000000f0: 9c5e a13f 7393 ca3e 8aa3 303f 8254 0a3f
00000100: 9b56 083e ece8 623f 4ea6 0e3d bb25 b73e
00000110: 0558 203f 7ad6 f8bd 9e43 aabe f0f5 903e
00000120: 548b 3b3f d9eb 783c 3b35 d7bc 3ebd 873f
00000130: f2c3 23be cd6b 613e b1f8 96be 24c8 463f
00000140: fbb0 273f 99e5 cfbe ed58 683f fe2f 573f
00000150: ae9f 83be 4ed5 843f 30fd b03d d44d ec3d
00000160: b3c3 1a3f 714d f53e 5489 24bf 95ae 2abf
00000170: 9e38 4c3c 5429 3bbf 3170 a83d 8057 833f
00000180: 982f 403f 0289 d1bc 9b39 f13d 586a 863f
00000190: 0657 25bc 9d95 8d3e 6306 a83e dcb6 793f
000001a0: 8a52 d73f 7398 663e fd3c a93e 268f 473f
000001b0: 6c05 913f 5a2f 1abe 52a7 24bd 96b2 10bd
000001c0: 9fce b93f 63ea 463f 8ca7 1a40 2fb9 8a3f
000001d0: e363 24be a848 393f 4406 9c3e 5e3c 1e3f
000001e0: d56f 973e ab6f 553f d2c6 9e3c 1734 f53e
000001f0: 49de acbd f5a5 d43e 9c7b 833e 47e9 933e
00000200: b7ca 4c3e e0a2 c73c af85 843f 4256 783f
00000210: 0ea2 3a3e 67e9 24bf 5a12 f03f b33a e33e
00000220: 4d7c 2f3e 423a 233f 325a 413f fac1 a63e
00000230: ef8d 4cbf 3ec6 283f 8664 fcbe fc90 91be
00000240: bc77 9f3e 080c c0b9 bb1e 7cbe 0b15 683e
00000250: 1728 20bf 283a 153e 535a 623f fb08 bd3e
00000260: ec97 cdbd 42fe 943e b9e6 65bf 2f6e 0dbf
00000270: 30a7 c83d ad5f 3dbd 9fd3 c03c 4737 e6be
00000280: d017 513e 36cb f43e 1ca4 333d b473 e4be
00000290: c8de 92bd cb0e 10be c53b 9e3f 7ba8 b63f
000002a0: c5c9 bbbe 9a4c 743d 176c b23e 4035 663e
000002b0: 2f51 223f 1747 cfbe 6278 613f a54f a13f
000002c0: 625e 1bbc 5d22 e53f 2cbe ee3f 13b2 7b3e
000002d0: 720c 7b3e 0e91 0fbd 6111 6ebc f1a0 0c3e
000002e0: bac1 2e3f 3019 e43d 8872 853f 23e3 4a3f
000002f0: 32f6 123f fc6e 993c cec3 923e bf11 743e
00000300: 65af 1c3f a644 bf3e 5cb4 213f 14e9 c7be
00000310: 48ca ec3b b787 713f f853 933f c14d b7bd
0.039789904 0.25939113 -0.13630794 -0.0546042 0.26340672 -0.07463629 -0.06747038 0.16481689
0.19264144 1.3256956 0.5377212 0.31923681 0.3150015 0.38216546 -0.0896401 -0.3219219
1.9933045 0.3812025 0.23870738 0.05044041 -1.4024261 0.48978087 -0.21354432 -0.94181794
-0.40665263 0.7258468 -0.09532191 0.45213595 -0.41938993 0.3081765 0.38801628 0.53644365
-0.10784138 0.14828758 -0.47600374 0.8944149 0.5548261 0.45620775 0.08215825 -0.4310564
0.12689663 0.1396588 -0.26435938 0.13605428 -0.09715626 0.4036899 0.05259049 0.16299099
0.13759878 -1.793125 0.597712 0.023594694 0.2651292 0.0095493905 0.7173353 -0.4839022
-1.9972064 0.339368 0.4264614 0.17855826 1.2606997 0.3956562 0.6899954 0.540352
0.13314287 0.8863666 0.03482657 0.35770974 0.6263431 -0.12150283 -0.33254713 0.28312635
0.7325947 0.015192949 -0.0262705 1.0604627 -0.15992716 0.22013779 -0.2948661 0.7764914
0.65504426 -0.40604857 0.9076069 0.84057605 -0.25707763 1.0377595 0.08642042 0.11538282
0.60454863 0.47910646 -0.64272046 -0.6667264 0.01246467 -0.73109937 0.08224524 1.0261078
0.7507262 -0.025578026 0.117785655 1.0501204 -0.010091549 0.27653208 0.32817373 0.97544646
1.6822064 0.22519092 0.33054343 0.779528 1.132978 -0.15057126 -0.04019863 -0.035326563
1.4516181 0.77701396 2.4164762 1.0837764 -0.16053729 0.7237649 0.3047353 0.61810863
0.2957751 0.83373517 0.019381914 0.47891304 -0.08440835 0.41532865 0.25680244 0.28888914
0.19999205 0.024369657 1.0353297 0.9700662 0.18225881 -0.64418644 1.87556 0.4438072
0.1713726 0.6376077 0.7552825 0.32569867 -0.79904073 0.65927494 -0.49295443 -0.28430927
0.31146038 -0.00036630058 -0.24621098 0.22664277 -0.6256117 0.14572966 0.88419074 0.36920914
-0.100387424 0.29100233 -0.8980518 -0.5524625 0.097975135 -0.04623382 0.023538409 -0.44964048
0.2041924 0.47811288 0.04385768 -0.44619524 -0.071713984 -0.14068143 1.236199 1.4270166
-0.36677375 0.059643365 0.3484809 0.22481251 0.63405126 -0.40483925 0.88074315 1.260243
-0.009482952 1.7901112 1.8651786 0.24579649 0.24516466 -0.035050444 -0.014530511 0.1373327
0.68264353 0.11137617 1.0425577 0.79252833 0.57406914 0.01872968 0.28665012 0.23834895
0.6120513 0.37357062 0.6316583 -0.39045012 0.0072262622 0.9434771 1.151 -0.08950377

sequential_4/dense_14/MatMul f4 [8, 10]
00000000: 6cbb 603f 555f 86bf bf26 28bf 8032 bebe
00000010: a565 c3be b30d 203f 821f 103f f227 babe
00000020: 20dd efbd 0280 9d3d 31da 883e 3814 883d
00000030: f194 62bf effc 693f c7fa 5f3f d42f 8abe
00000040: 33ed 90bf 9f78 44bf 4621 ccbf fe4d e3be
00000050: cec7 873e 6cc6 6f3e 4cb8 60bf 72fc 813e
00000060: 51b8 333e 2f1b cc3e aad5 683f 6c75 a8bf
00000070: cf7f 3f3d d541 72be 56ca edbe 99b5 1dbf
00000080: 3c2e 513f 297e 06be 8344 21bf 6a54 fa3e
00000090: 4d10 e73e 9a24 8fba 7850 adbe 76dc 1b3f
000000a0: c434 323f 148f 9ebf bedd 473d f363 f1be
000000b0: 339e cf3f 05b0 bbbf 9dd8 ffbf 4403 003e
000000c0: c7c1 2dc0 e04d 28c0 1690 3f3f 09e6 333f
000000d0: 7a19 cabc 1164 3dbf 1f92 6fbf 99b3 08c0
000000e0: 5d22 c9be 0d35 d23f c5ad f3bf c3b3 06c0
000000f0: c2a0 523f 7b4e 513f 3a0e 243e 6041 92bf
00000100: 92ba 40bf 333b 36bf 774c 3fbf e282 ae3d
00000110: 52de dc3e f62e fb3d c64c 8abf 086d b63d
00000120: 4e8b 74be 25db 663f 7333 cb3e e7b0 443f
00000130: 9eb9 93bf 4a38 27bf 55c6 96be 2b08 0dbf
0.87785983 -1.0497843 -0.6568412 -0.37147903 -0.38163486 0.62520903 0.5629808 -0.363586
-0.11712098 0.07690431 0.26728967 0.066444814 -0.88508517 0.9140157 0.8749203 -0.26989615
-1.1322387 -0.76746553 -1.5947654 -0.4439544 0.26519626 0.23415536 -0.87781215 0.25387913
0.1755078 0.3986449 0.90951025 -1.3160834 0.046752747 -0.23657925 -0.46443433 -0.6160522
0.81711173 -0.13134064 -0.62995166 0.48892528 0.45129624 -0.0010920942 -0.33850455 0.6088327
0.69611764 -1.2387414 0.048795454 -0.47146568 1.6220154 -1.4663092 -1.998798 0.12501246
-2.7149522 -2.629753 0.7482923 0.7027288 -0.024670351 -0.73980814 -0.9358234 -2.1359618
-0.3928403 1.642244 -1.9037405 -2.1047218 0.82276547 0.81760377 0.16021052 -1.1426201
-0.75284684 -0.7118408 -0.7472605 0.08521058 0.43138367 0.122648165 -1.0804679 0.08907515
-0.23881266 0.9017814 0.3968769 0.7683243 -1.1541021 -0.65320265 -0.2944819 -0.5509059
