model/oldModel/3.28keypointModel/keypoint_classifier.tflite (tflite, 6400 bytes, 6 tensors)

sequential/dense/BiasAdd/ReadVariableOp/resource f4 [20]
000000 fe 03 4b bf 70 67 3b bf 1e 01 b0 be e1 d2 eb 3d
       -0.79302967 -0.7320471 -0.34375852 0.11514831
000010 6b 5d 1c bf 74 f3 8a bf 73 dd 49 bf 36 01 bb be
       -0.61080045 -1.0855546 -0.7885353 -0.3652436
000020 36 73 d8 be d0 9c ce be 1d 14 8a be 5c 41 7d bf
       -0.422754 -0.40354013 -0.2696847 -0.98927855
000030 f3 4e c1 bd 89 44 29 bf b3 80 d5 be 04 4f cf be
       -0.094388865 -0.661202 -0.41699752 -0.40489972
000040 71 59 0a bf 5a 23 8a bf ed 1a b6 be 30 c8 35 bf
       -0.54042727 -1.0792038 -0.35567418 -0.71008587

sequential/dense_1/BiasAdd/ReadVariableOp/resource f4 [10]
000000 6f f7 15 3f b8 47 09 3e 7a 33 90 3e 17 ca 53 bd
       0.5858068 0.13406265 0.28164274 -0.0517064
000010 dc bf ef 3e 8b 43 b9 3e c1 d2 cf 3c 1f ba 63 3f
       0.46826065 0.36184344 0.02536905 0.88955873
000020 6a 36 1e 3f b3 6e 0a bc
       0.6180178 -0.008449244

sequential/dense_2/BiasAdd/ReadVariableOp/resource f4 [5]
000000 78 66 a7 be d5 4b 27 3d ba 85 20 3f 45 d8 bc 3e
       -0.32695365 0.040843803 0.6270405 0.3688375
000010 9b 8e 3b bf
       -0.73264474

sequential/dense/MatMul f4 [20, 42]
000000 20 99 a4 bc 9c 8f 7d be 9f c3 97 3d cb 8c b6 3e
       -0.020092547 -0.24761814 0.07410359 0.35654292
000010 12 98 ed 3a fd 7d 36 3e e7 88 b4 bc 4e 79 96 bd
       0.0018126986 0.17821498 -0.022037936 -0.07347356
000020 e4 b5 4d 3e 2e d7 8f be 1f 1f 1f be 2e 80 bd be
       0.20088917 -0.28093857 -0.15539216 -0.37011856
000030 7c e3 91 bd aa 16 67 be 37 60 7a bd 48 0b e0 3c
       -0.07123467 -0.2256724 -0.061126914 0.02734913
000040 96 2a 18 3d 2f e2 1f 3e b4 0d f1 bd 5b bb af be
       0.037149988 0.15613626 -0.11770192 -0.34322628
000050 28 50 f2 bd 19 9e 46 bd 90 b1 8a 3c eb f3 ff 3d
       -0.11831695 -0.048490617 0.016930372 0.124976955
000060 43 10 ff 3c 90 31 4c 3e ec eb 90 be 63 88 09 bf
       0.031135684 0.19940782 -0.28304994 -0.53723735
000070 a9 e2 e0 3c 8f ca 31 be 2d a3 f8 bc 03 28 fa 3d
       0.02745183 -0.17362426 -0.030351246 0.12214663
000080 99 f5 10 3d 75 95 05 3e 0b 4a 37 3e 94 57 64 bf
       0.03539047 0.13045295 0.17899339 -0.89196134
000090 1e 7b 93 3e ac 61 55 be 54 a1 03 3e 64 62 30 3d
       0.28804868 -0.2083804 0.1285451 0.043062583
0000a0 fc 72 74 3d d6 cb 10 3e 7e a3 58 be 14 96 4a be
       0.05967997 0.14140257 -0.21156117 -0.19783813
0000b0 2e fe ae bd b3 47 28 3d 6b e2 76 bb 8f 8a 25 3e
       -0.08544575 0.041084003 -0.0037671577 0.16166137
0000c0 ee 68 38 bd 33 7e d1 3d 3e 9f 81 bd ee ce 91 3d
       -0.045021944 0.10229149 -0.06329201 0.07119547
0000d0 2e b0 31 3e 90 65 ce 3d 6c e1 60 3d 08 88 22 bc
       0.17352363 0.10077965 0.05490248 -0.009920128
0000e0 b3 45 b3 bd 7b c9 33 3d be 7e b9 bd 67 26 16 3e
       -0.087535284 0.04389332 -0.09057377 0.14663087
0000f0 fe 1f 8e 3e 7c b5 c1 3d 16 e0 2f 3d a3 a0 8e bd
       0.27758783 0.094584435 0.042938314 -0.06964233
000100 bc e4 62 3d 69 cf 99 be 98 0d ee 3d 6b 2d 03 bf
       0.05539392 -0.30041054 0.116236866 -0.5124118
000110 e6 9b 68 3e 5c b3 e8 3d 88 af 7e 3b 4f f6 ac bd
       0.2271572 0.11362335 0.003886195 -0.08445417
000120 19 5b 38 3d 59 d0 42 bf ac cc 84 3d 4b 22 b7 be
       0.045008752 -0.76099163 0.064843506 -0.3576835
000130 1e 6a b7 3d cd 55 e3 3d d0 6c cd bd 80 de 2d bd
       0.08955787 0.111003496 -0.1003052 -0.04244852
000140 b3 43 ae bd 10 03 9d be 2f b6 f7 3d 99 36 ae bd
       -0.08509006 -0.306664 0.12095296 -0.085065074
000150 40 bd dd 3d 69 19 22 be ce 8f 13 3c 1f cf 08 3e
       0.10827112 -0.15830006 0.009006454 0.1336026
000160 a7 50 c6 3c a4 e8 72 3c 28 e2 c9 3c 54 7f a2 3b
       0.02420838 0.014825974 0.024643973 0.0049590264
000170 ed 1b 87 3c df cb c7 3b 96 8a 77 bc 8d 1c 4c 3d
       0.016492808 0.0060973014 -0.015108725 0.049831916
000180 83 2f ad bc 2d 4f d6 3c a8 16 df bb 46 9a f6 3c
       -0.02114082 0.0261608 -0.0068081208 0.03010286
000190 a9 2a 46 bc 43 9f 01 3d fc e4 07 3c 49 a1 4b 3d
       -0.012095132 0.031646024 0.00829434 0.04971436
0001a0 ef 93 35 bb f9 1d ed 3c bb 0e e9 bc ce 3f df 3d
       -0.0027706583 0.028944956 -0.028449407 0.10900842
0001b0 cc 2a ce bc 6a e9 e4 3d 6f 30 3a 3d 4b e8 1e 3d
       -0.025166892 0.11177333 0.045456346 0.03879575
0001c0 d5 5e 0d 3d 8f 45 61 3d 87 6f 8a bd 82 fb 11 3e
       0.034514267 0.054997977 -0.067595534 0.14256099
0001d0 f6 26 8d bd 09 d1 c2 bf 49 63 cd 3d 75 74 29 3d
       -0.06892197 -1.5220042 0.10028703 0.041370828
0001e0 b3 48 9d 3d 08 17 22 3d 7d 8c 04 be 65 40 fb 3d
       0.07679882 0.039572746 -0.12944217 0.12268142
0001f0 57 62 67 be 09 e5 19 3e 42 50 13 be 48 84 9e 3e
       -0.22596107 0.15028776 -0.14386085 0.30960298
000200 3b 3a 09 bf c6 7b 74 bf 77 1c 9c be 5f 23 14 bf
       -0.5360448 -0.95501363 -0.30490467 -0.5786647
000210 f8 98 b2 3b e1 c3 10 be e9 3d 03 3e c4 07 4f be
       0.005450364 -0.14137222 0.12816586 -0.20217806
000220 f7 11 e7 be b1 95 94 be 39 be 4b be 3b a1 7c be
       -0.45130894 -0.29020455 -0.19896783 -0.2467088
000230 4e d2 8a bc 9c be bf bc 9d 82 45 3d f7 88 d6 3d
       -0.016945984 -0.02340632 0.048220266 0.10475343
000240 1f c2 3a be a7 5f f1 bd 9a b2 44 3c c0 a8 91 3d
       -0.18238114 -0.11785822 0.012005473 0.07112265
000250 04 eb a3 3d 28 fd 9e 3d 7a af 73 be e7 e0 8b 3d
       0.0800381 0.077631295 -0.23797408 0.06830006
000260 12 d3 c5 3e 73 00 b6 3d 14 8c ef 3d 13 c8 2d 3e
       0.38637596 0.088868044 0.1169664 0.16970854
000270 84 a5 cb 3d bf f9 86 3e f3 53 07 be 69 e0 82 3e
       0.09943679 0.26362416 -0.13215618 0.25561836
000280 39 33 96 3e bf bd 50 3e 72 f0 b8 3e fe 8f af 3e
       0.29335955 0.20384882 0.36120945 0.34289545
000290 e5 61 71 3e 34 53 e9 3e d6 05 5b 3d 3b 10 d7 3e
       0.235725 0.4557129 0.053472362 0.4200457
0002a0 f0 78 9a 3e 3a 39 bd bd 60 ef 45 3d 8d 4c 1b 3f
       0.30170393 -0.09239431 0.04832399 0.6066368
0002b0 9a ba 81 3d c9 8e 85 3e 9d b3 21 bd 1f f4 7d 3e
       0.063344195 0.260855 -0.039477933 0.24800156
0002c0 dd f6 0b 3e de 8f 8d 3e 74 22 7b 3d 63 78 20 bc
       0.1366839 0.27648824 0.061312154 -0.009794327
0002d0 fc 96 70 bc 4c c8 be 3c d0 24 94 3c 31 2d dd 3c
       -0.014684435 0.023288868 0.01808396 0.026999088
0002e0 a6 e6 24 3d b8 99 c2 3d 82 77 b1 3d b1 d2 bb 3c
       0.040259026 0.09501976 0.086653724 0.022927614
0002f0 4a c6 a1 bb 3a 0e 77 bd e5 30 12 bd 76 44 cc be
       -0.004936968 -0.060316302 -0.03569116 -0.39895982
000300 4b c0 e7 bd 75 58 fd bd c0 3c 95 3d d5 ae b8 3c
       -0.11315974 -0.123703875 0.07286978 0.022544304
000310 63 96 04 be 3b 56 23 bd f9 9e e3 bd f0 bb dd be
       -0.12947993 -0.039877158 -0.11114306 -0.43307447
000320 72 b4 3f be 86 90 58 be 4a 96 8e 3c f1 09 07 3c
       -0.18721178 -0.21148881 0.017405648 0.008242116
000330 a6 dd d7 bd df fd b6 bd 13 1d a0 be e9 91 bf be
       -0.10540323 -0.08935141 -0.31272182 -0.37416008
000340 37 d0 cb be be f6 1a bf 68 3d e1 3d 5e 3a 37 3e
       -0.39807293 -0.6053275 0.109980404 0.17893359
000350 98 0d 11 bf 96 0c 2b 3e 5a b5 eb be 07 f0 ab be
       -0.5666137 0.1670402 -0.46036798 -0.33581564
000360 90 ab 66 be 3e 8c 7e be ff 36 88 be fb 91 4b be
       -0.22526383 -0.24858186 -0.2660446 -0.19879906
000370 de 81 49 be 59 68 80 bb ed 0f 50 bd 10 a1 3d bd
       -0.19678447 -0.003918689 -0.050796438 -0.04629618
000380 28 df 21 3d e3 c6 6c 3d 5f c8 b2 3d ec 1a d8 3d
       0.03951946 0.05780686 0.08729624 0.1055201
000390 29 f6 61 be f2 8c ae 3c 7f 7d da bd 6e 11 77 be
       -0.22066559 0.021307442 -0.10668468 -0.24127743
0003a0 5a f7 ef bc fa b3 fc 3b e1 6f ea 3d b3 77 7a 3d
       -0.029292751 0.0077118846 0.114471205 0.06114931
0003b0 e8 6e 43 be e7 49 87 3b c0 e9 22 be b5 99 30 be
       -0.19085276 0.004128683 -0.15909481 -0.17246135
0003c0 1a 49 91 bd e3 6b 12 3c 53 b4 24 3e d7 3a ae 3d
       -0.07094021 0.008936855 0.16084413 0.085073166
0003d0 02 15 c6 3d a5 5f 21 be eb 39 68 be 7f ad 69 be
       0.09671976 -0.15759142 -0.22678344 -0.2282009
0003e0 22 63 0d be c7 0c 33 bd bc 57 22 3c 6d 3d a4 3d
       -0.13807347 -0.043713357 0.009908613 0.080195285
0003f0 9c b8 69 3e d2 e0 46 be c4 12 13 3f 73 7e 8e be
       0.22824329 -0.194217 0.5745051 -0.27830848

sequential/dense_1/MatMul f4 [10, 20]
000000 48 d9 64 3c 32 a5 e5 3d d3 c4 40 bd bb 14 77 3f
       0.0139678195 0.11213149 -0.047062706 0.9651601
000010 b9 28 b2 bc 78 31 93 3e ba 90 97 3b 1e 04 6b 3f
       -0.021747934 0.2874868 0.004625407 0.9180316
000020 dd f6 b3 be cc a2 ba 3d 89 ce 51 3f 0e 3b 4f bd
       -0.3514928 0.09113082 0.8195577 -0.05059343
000030 86 9c 33 3f 66 e1 6e 3f 60 fc bf 3e 8d 21 47 3f
       0.7016071 0.9331268 0.37497234 0.7778557
000040 ea ef f1 3e b1 d7 ca bd c2 38 a7 3e af fd 67 3e
       0.47253352 -0.09904421 0.3266049 0.22655366
000050 0e 3e 48 3e 67 dc 4c 3f 80 8a 3d 3f 03 54 5c 3e
       0.19554922 0.8002381 0.7403946 0.21516423
000060 77 52 37 bf e0 80 cb 3d ba ca 8d be 48 de e1 3e
       -0.71610206 0.0993669 -0.2769373 0.441149
000070 0e 79 9a 3e ba 71 40 be fd 37 c1 3e eb 60 20 bf
       0.30170482 -0.18793383 0.37738028 -0.62647885
000080 4d 24 91 3e 1c 90 6d 3d 47 50 20 3f 48 23 6f 3e
       0.28348008 0.05799876 0.62622494 0.23353302
000090 bc b5 4f 3d 87 56 17 3d c5 42 65 bf 22 f5 27 3d
       0.050710425 0.036947753 -0.8955501 0.04100526
0000a0 98 ae 62 3e a5 80 ba 3e 3d c2 a0 3f fb ac 84 be
       0.22136915 0.36426273 1.2559277 -0.25913224
0000b0 33 ec be 3e 26 dd 17 3e ec eb c5 3d cd de 89 be
       0.3728958 0.14830455 0.09664139 -0.26927796
0000c0 7a 3a 12 3e f3 14 72 3f 67 fb 59 be 04 54 0a 3f
       0.1428012 0.94563216 -0.21287309 0.5403445
0000d0 eb 1f e7 be d3 e3 bd be 1a 7a d1 3e f1 50 21 bf
       -0.4514154 -0.3708788 0.4091347 -0.6301413
0000e0 24 68 84 3f de 91 3f 3e 41 0b 84 be 57 1c 02 3c
       1.0344281 0.18707988 -0.25789836 0.007941327
0000f0 51 ce fb 3d d5 38 0e 3f 49 b7 a1 3f 53 7d 75 3e
       0.12295211 0.5555547 1.2634059 0.23973589
000100 f9 e1 fb 3e c6 93 54 3c e0 3c 79 3e 94 0a 2f 3f
       0.4919584 0.012974685 0.24339628 0.68375516
000110 b1 e5 90 3f f5 01 61 be 42 69 ba 3e 03 87 11 3f
       1.1320096 -0.21973403 0.3640843 0.56846637
000120 d7 bc 3a 3e 9b 1f dc 3c 98 18 35 3e 75 04 2d 3e
       0.18236099 0.02687054 0.17685163 0.16896231
000130 c2 a6 53 3f e8 d5 b1 3e f3 1a 8e 3e 23 73 ca be
       0.8267633 0.3473351 0.27754936 -0.39540967
000140 16 4b ec 3e 19 b4 16 3e e6 d6 b0 bb 0c 65 c4 3e
       0.46151036 0.1471714 -0.0053967116 0.38358343
000150 b9 89 80 bd e7 80 89 be e4 00 f5 3d dd f0 a2 be
       -0.062762685 -0.26856157 0.119630605 -0.3182439
000160 86 af a8 3d 82 d9 8e be a6 f8 b1 3e b0 2f a3 be
       0.082366034 -0.2790032 0.34760016 -0.3187232
000170 fa 9b 81 3e d3 d5 8f 3f 47 c4 23 bf a4 a6 89 be
       0.25314313 1.1237129 -0.6397137 -0.2688495
000180 75 56 06 be ec 27 b4 3e 33 96 cb be 4c ce 21 3f
       -0.13118918 0.35186708 -0.3976303 0.6320541
000190 a6 11 5b 3f c6 08 b2 3d 74 0d 16 be 55 30 9a 3c
       0.85573804 0.0869308 -0.1465357 0.018821875
0001a0 e6 60 bd 3d 7a 7e a7 3f ec 70 9e 3f db 8b 0e bd
       0.092469975 1.3085473 1.2378211 -0.034801345
0001b0 2d 1c b3 3c 8c 6e 9f be 44 c2 84 3e 38 d6 ad 3e
       0.021864021 -0.31139028 0.25929463 0.33952498
0001c0 3e eb 5d be a6 45 0c 3f 46 9b 38 be 92 be e4 3c
       -0.21671769 0.54793775 -0.18027982 0.027922902
0001d0 da 1b 67 be 06 79 67 3f af cf 15 be cf 66 01 3f
       -0.22569218 0.9041904 -0.14630006 0.505475
0001e0 d5 63 c3 3b 6f 95 e4 3d 58 9b f6 be 48 0e 36 3e
       0.0059628286 0.11161315 -0.48165393 0.17778885
0001f0 42 de ba 3e 7b be 87 3e e9 17 6d 3e 7e 38 b4 bd
       0.36497694 0.26512513 0.23153652 -0.087998375
000200 0c 81 10 3f 8c 05 c2 3e 6d 38 1d 3d 3b e5 85 3d
       0.5644691 0.37894857 0.03838389 0.06537863
000210 c8 b8 fa 3d b3 0f a0 3e 16 d9 85 3f bd d0 7e 3f
       0.122422755 0.31261978 1.0456874 0.9953726
000220 61 56 df be 14 2c ee 3e e5 73 94 3f 3c 17 3a 3f
       -0.4362059 0.46518004 1.1597868 0.726917
000230 89 14 a4 3e e1 13 c4 bf 5b 21 a7 bf 8c 03 24 3e
       0.32046917 -1.5318567 -1.3057054 0.16016978
000240 dc 9a 9c be 75 7d 9a bd 14 49 0d be 6d 15 46 bf
       -0.30586898 -0.0754346 -0.13797408 -0.77376443
000250 62 b9 bc bf 77 cf 78 3e 59 a8 c8 bd b0 16 ec be
       -1.4744074 0.24297892 -0.09797735 -0.4611106
000260 e5 7d 77 3e e8 2b 34 be 97 22 01 3f be 95 1e 3f
       0.24169119 -0.17594874 0.50443405 0.6194724
000270 99 ee 67 bf 6a c7 c9 be 35 d2 39 be c9 81 93 bd
       -0.90598446 -0.39409953 -0.18146594 -0.07202489
000280 cf a5 84 bd 74 af 95 3b fc 06 f4 3e c1 62 cd 3e
       -0.06476938 0.004568035 0.4766158 0.40114406
000290 c1 f5 fc 3c f0 f8 e5 be ca 11 0b bf 25 95 4f 3e
       0.030878903 -0.44916487 -0.5432402 0.20271738
0002a0 21 25 08 3e e8 03 5f be 73 71 83 3e b7 32 d5 3c
       0.13295414 -0.21778834 0.25672492 0.02602516
0002b0 09 59 11 3f 7e dc 32 3e cb 87 be 3e 46 c6 02 be
       0.5677648 0.17466924 0.37212977 -0.12770948
0002c0 ec 2e 86 bf 82 1b cb be 63 6c ff 3e c6 db ca be
       -1.048307 -0.39669424 0.4988738 -0.396208
0002d0 a5 40 6f b8 32 15 29 be 2a 36 f1 3e 8d 40 a4 3a
       -5.7042245e-05 -0.16511992 0.47111636 0.0012531445
0002e0 67 25 73 3f 75 3f c2 3e 2f f6 db 3e 8a 03 36 bf
       0.94978946 0.3793904 0.4296126 -0.7109915
0002f0 a3 5c 00 bf a9 ca 3d 3f cd b8 cb 3d f9 a5 83 bf
       -0.5014135 0.7413736 0.09947357 -1.0285026
000300 cb 79 2b bb 59 7f e2 3d d9 d8 08 bf 3f b5 67 3f
       -0.0026165124 0.11059446 -0.53455883 0.90510935
000310 9f 88 86 3e b7 bc 11 3f 35 f9 cb be 2d ab db be
       0.2627611 0.5692858 -0.39838567 -0.42904034

sequential/dense_2/MatMul f4 [5, 10]
000000 75 09 f9 3e cb e5 0c 3f 2e fa 22 3f a8 24 44 3f
       0.48640028 0.55038136 0.63662994 0.76618433
000010 ef 02 86 bf 25 fd a0 bf 51 68 46 3e d5 f8 ee be
       -1.0469645 -1.2577254 0.19375731 -0.4667422
000020 d9 2b 0c 3f e5 46 08 3e 40 a5 26 3f 9c af 12 bf
       0.54754406 0.13308294 0.650959 -0.5729921
000030 6c c1 0b bf d8 6f 68 3e 62 11 3b 3f 12 72 2f 3f
       -0.54592013 0.22698915 0.730734 0.6853343
000040 32 27 db 3e 24 e4 92 bf fe ff d9 be be 59 18 bf
       0.4280334 -1.1475873 -0.4257812 -0.59511936
000050 4f 11 77 3e 01 a0 d5 be 31 01 3e bf 73 4e 9c be
       0.24127696 -0.41723636 -0.7422057 -0.30528602
000060 19 82 5b 3f 65 15 63 be 2a ca 93 bf 82 50 30 3f
       0.8574539 -0.2217613 -1.154607 0.68872845
000070 75 e4 04 3f 56 39 1e c0 7b ba 8c 3d 6c 09 9d bf
       0.519111 -2.4722495 0.06871506 -1.22685
000080 b6 16 5f be b4 39 96 bf ff a5 ef be bd fc 5c 3f
       -0.21786007 -1.173636 -0.46806332 0.8632315
000090 19 31 cf 3e 04 5a f7 3e ef 63 a0 be 77 50 05 bf
       0.40467146 0.48310864 -0.31326243 -0.52075905
0000a0 1b fd 24 bf ac 5d f5 3e c7 ac 06 3f f1 58 1a 3f
       -0.6444871 0.47923028 0.5260739 0.60291964
0000b0 09 28 c6 3e e1 e7 25 3f 90 08 7d be de f1 b6 bf
       0.3870242 0.64806944 -0.24710298 -1.4292562
0000c0 14 1b 3a bf d2 1b b1 3e
       -0.7269757 0.34591538
