model/oldModel/4.13point_history_classifier/point_history_classifier.tflite (tflite, 6304 bytes, 6 tensors)

sequential_7/dense_21/BiasAdd/ReadVariableOp/resource f4 [24]
000000 0b 22 75 bc 5d e5 ca bd e2 82 9e bd ff 42 31 bd
       -0.01496173 -0.09907029 -0.07739808 -0.043276783
000010 4d 2a f8 bd 66 d8 aa bc fa f7 a6 bd 81 49 22 be
       -0.12117443 -0.02085514 -0.081527665 -0.15848352
000020 ab 06 94 bd c9 35 e2 bd ae 6e 54 bd 0d 91 e3 bc
       -0.07227834 -0.11045415 -0.051863365 -0.027779127
000030 56 64 34 bd 7b c7 dc bc b6 6b 02 be e1 c2 64 bd
       -0.044041 -0.026950588 -0.12736401 -0.055849914
000040 4f ad b3 bd d5 1f 7b bd 61 2d 47 bd e9 c2 92 bd
       -0.0877329 -0.061309654 -0.04862726 -0.071660824
000050 d1 64 b7 bd d4 7c 90 bd b3 8a e2 bd e3 7e 34 be
       -0.08954776 -0.07055059 -0.11061611 -0.17626528

sequential_7/dense_22/BiasAdd/ReadVariableOp/resource f4 [10]
000000 ec 83 c1 3e db dd 61 3f ea 2f 06 ba d2 29 28 3e
       0.3779596 0.8822915 -0.0005118834 0.16422203
000010 02 5f 12 3f 25 d7 2f 3f b5 25 45 3e d6 f3 b7 3d
       0.5717622 0.6868766 0.19252665 0.08982055
000020 49 26 1b 3f 31 94 80 3b
       0.60605294 0.003923916

sequential_7/dense_23/BiasAdd/ReadVariableOp/resource f4 [4]
000000 04 b3 03 3e 04 5f 01 3f 05 e3 e6 3c b7 34 2b bf
       0.12861258 0.5053561 0.028184423 -0.6687731

sequential_7/dense_21/MatMul f4 [24, 32]
000000 c0 9c e3 3b f0 61 78 be ad 9b 31 3f 7a 51 24 be
       0.0069461763 -0.2425611 0.6937817 -0.16046706
000010 fd d4 ef 3e 70 59 ef be 03 a2 a1 bc d6 41 5c bf
       0.46842185 -0.46747923 -0.019730574 -0.8603796
000020 98 81 d5 be 70 9c ec be e5 98 4e bf 24 0a 0f bf
       -0.41700435 -0.46213102 -0.8070205 -0.5587485
000030 fa a5 3e bf b7 da bb 3d 93 34 5c bf 1e 65 b7 bb
       -0.7447201 0.09172576 -0.8601772 -0.005596771
000040 ba ce 85 bf 70 4d 54 3d 6f a0 48 bf 39 8b b2 3e
       -1.0453713 0.051831663 -0.783698 0.34871843
000050 21 d0 4a bf 4d 1c cd 3e ca 9e 03 be dc 37 2d 3e
       -0.7922383 0.40060654 -0.12853542 0.1691584
000060 b6 ce 11 3f 2c 89 94 3e f0 2c 84 3f 98 10 64 3d
       0.5695604 0.29010904 1.0326214 0.055679888
000070 bf c6 5c 3f df a3 42 be 4c 57 48 3f 1b 03 61 be
       0.8624076 -0.19007824 0.78258204 -0.21973841
000080 f4 23 77 3e 8e ca a2 3e 6f d3 85 bf 54 5c af 3f
       0.24134809 0.31795162 -1.045515 1.3700051
000090 c9 ad 5c bf 5d 54 9d 3f cc a7 3c bf 27 25 93 3f
       -0.86202675 1.2291371 -0.7369354 1.1495713
0000a0 3b 80 23 be 69 df 74 3f 23 a9 6e 3e 96 b1 29 3f
       -0.15966885 0.95653397 0.23306708 0.662866
0000b0 7b 05 c4 3e e9 20 0e 3f f5 2a b7 3e 96 4a 46 3e
       0.3828543 0.55518967 0.3577496 0.1936439
0000c0 4a 19 f8 3e de 1f e7 ba e6 6e 26 3f c7 ef 6a 3d
       0.48456794 -0.0017633399 0.6501297 0.057357576
0000d0 f0 15 d7 3e 49 f1 46 be 6a 7d c8 3e 04 57 5d be
       0.42008924 -0.1942798 0.39158183 -0.21615225
0000e0 ce 92 18 3f ea 80 53 be 7f 21 4e 3f be c4 5d 3d
       0.59599006 -0.20654646 0.8051986 0.054142706
0000f0 05 67 26 3f 4e 54 a0 3e 48 1c 5e 3f 6a 76 c5 3e
       0.65000945 0.3131432 0.86761904 0.38566905
000100 72 14 86 be cc c9 41 be 28 e3 e2 3f d3 cb 13 3f
       -0.26187474 -0.18924636 1.7725573 0.57732886
000110 ca 7f dd 3f 0e f8 bb bc c8 48 bd 3f 4d 82 13 3e
       1.7304623 -0.02294543 1.4787836 0.14405175
000120 f2 b3 62 3f e1 a7 c2 be b6 06 69 3f f8 59 ba be
       0.88555825 -0.38018706 0.91025865 -0.36396766
000130 4b 2e 01 3f 93 5d e8 be 57 ac 66 3e 8c 48 a8 be
       0.5046126 -0.4538389 0.2252668 -0.3286785
000140 09 8b 86 be 8f 4c c7 be e6 b6 ca be cd 35 8c be
       -0.2627795 -0.38925597 -0.39592665 -0.27384797
000150 09 ae cc be fb 8d 61 be 93 38 d2 be 2a c7 f0 bc
       -0.39976528 -0.22026818 -0.41058788 -0.029391844
000160 ca 32 02 bf 26 ca 28 be 2a eb 61 be 9f a6 ca bd
       -0.5085875 -0.16483364 -0.22062364 -0.09895062
000170 d3 bd da be 00 9e 6c be 36 9a 5f be fe fa bf be
       -0.4272295 -0.23107147 -0.2183617 -0.3749618
000180 6a 7b a0 3e 0e 53 de bd ff 98 81 3f 83 8e 8e bf
       0.31344157 -0.10855685 1.0124816 -1.1137241
000190 12 c0 86 3f f2 2e c4 bf 38 ae b6 3e 54 27 a0 bf
       1.0527365 -1.5326827 0.35679793 -1.2512002
0001a0 92 c8 42 3e aa a4 42 bf e1 53 61 bd b9 51 4b bf
       0.19021824 -0.7603251 -0.055011634 -0.79421574
0001b0 37 58 59 be f7 c5 8d be 0f 48 f7 be 01 7e b8 be
       -0.21225058 -0.27690098 -0.48297164 -0.36033633
0001c0 b3 63 08 bf 75 43 0c 3e 4d 74 ea be 18 16 cd bd
       -0.5327713 0.13697608 -0.45791855 -0.1001398
0001d0 7d 8d 22 bf a6 41 ac 3d aa 93 01 bf ef 43 cb 3d
       -0.63497144 0.08410959 -0.5061594 0.09925067
0001e0 85 61 14 bf ab 7e 65 3e 78 00 39 bf 24 70 81 3e
       -0.57961303 0.22411601 -0.7226634 0.2528087
0001f0 62 98 14 be 94 83 5d 3e c7 87 bc be 96 0e fa be
       -0.14511254 0.21632224 -0.3682234 -0.48839253
000200 aa c3 88 be 6d 33 2f be dd 42 ac be 93 12 8d bf
       -0.2671178 -0.17109461 -0.33644763 -1.1021293
000210 55 ad 33 bd 2a a5 74 bf a7 96 80 3e 12 a9 13 bf
       -0.043866474 -0.9556452 0.2511494 -0.57679856
000220 32 e1 af 3e 1c 63 0d bf 42 65 98 3e e3 30 ce be
       0.34351498 -0.55229354 0.29764754 -0.40271673
000230 15 cb bb 3e 6c 61 7d be 17 61 2c 3f 50 5b 3a bd
       0.36678377 -0.24744195 0.6733565 -0.04549724
000240 e4 38 18 3f a2 f3 20 3e b9 0a 0c 3f 31 ad f8 3d
       0.5946181 0.15717939 0.5470386 0.12142409
000250 2e fc e3 3e c6 0c b1 3e 21 c0 cf 3e 16 7a d4 3e
       0.44528335 0.34580058 0.4057627 0.41499394
000260 b7 ae 0b 3e 0d e3 76 3e 7f 99 96 be a7 9d f5 3e
       0.13640867 0.2411005 -0.29413983 0.47971842
000270 6a b8 b9 be 73 3c 82 3e 02 ea fc be 31 85 db 3e
       -0.3627351 0.25436744 -0.49397284 0.42875054
000280 3e d7 a6 3e 65 4e 9b be aa 81 99 3f 0f e8 36 bd
       0.32586092 -0.30333248 1.1992695 -0.044654902
000290 d9 c8 cd 3f ba 86 c1 be 06 4b 8b 3f 8f 1b 42 bf
       1.6076919 -0.377981 1.088227 -0.758233
0002a0 60 d6 b9 3f fa f3 1d bf f1 a3 5f 3f 2e 2d 38 bf
       1.4518547 -0.61700404 0.8735953 -0.7194394
0002b0 90 46 14 3f 5e 59 42 bf e7 fe 94 3e 52 38 25 bf
       0.5792017 -0.75917614 0.29100725 -0.6453906
0002c0 5d 47 7b 3d 7b 3f f6 be 0b a2 6e be 06 a8 08 3e
       0.061347354 -0.48095307 -0.23304002 0.13345346
0002d0 cd 33 1a bf 97 ad a7 3e cf 34 ee be ca 18 60 3e
       -0.6023529 0.32749626 -0.46524665 0.21884456
0002e0 ba a0 e2 be 85 77 e7 3e 10 24 97 be 5c 55 f8 3e
       -0.4426325 0.45208374 -0.295197 0.48502624
0002f0 5d fa be bd 39 a4 0e 3e 78 8c 46 3d e1 87 87 bd
       -0.09325097 0.13929833 0.048473805 -0.06617714
000300 e0 4d 57 bc d8 0b 2b 3e 3a 70 15 bf 1e ac b1 3e
       -0.013141125 0.16703737 -0.5837437 0.34701627
000310 96 28 53 bf 2f 24 28 3f 33 6c 6f bf 28 b4 91 3f
       -0.82483804 0.6568021 -0.93524474 1.1383104
000320 f7 d8 6f bf de 0e 44 3f cf 96 6b bf 6e 70 47 3f
       -0.9369044 0.76585186 -0.9202699 0.7790593
000330 bc dd 40 bf 0a 54 70 3f 48 a5 e7 be 05 47 2d 3f
       -0.7533834 0.93878233 -0.45243287 0.6768649
000340 1f 94 7c be 05 22 e2 3e 65 8e 09 3d 9d 22 72 3e
       -0.24665879 0.4416658 0.033583064 0.23646016
000350 fa 69 4e 3d a7 6e f4 bd 57 79 d5 3d 26 c3 9b be
       0.050394036 -0.11935168 0.10423534 -0.30422324
000360 cb bc eb 3e 8a 66 1d bf 65 00 7f 3e d5 88 e5 be
       0.46042475 -0.6148459 0.24902494 -0.44830957
000370 b5 f5 ae 3e cc 5e f8 be 9a ea 9f 3e c6 cd 6a be
       0.34171835 -0.48509824 0.31233674 -0.22930059
000380 26 4f 92 3e d1 60 40 be b0 a3 7f bf 12 35 f9 be
       0.2857601 -0.18786933 -0.9985914 -0.48673302
000390 96 d0 83 bf 49 10 f0 be f4 07 89 bf a7 d1 d5 be
       -1.029803 -0.46887425 -1.0705552 -0.41761515
0003a0 10 33 ce be 2c e7 35 be 6e 70 5f bf a4 4c 37 be
       -0.40273333 -0.17763966 -0.8728093 -0.1790033
0003b0 29 e0 3c bf 7d df 78 be 0f 0b aa be fb 15 60 bd
       -0.7377954 -0.24304004 -0.33211562 -0.054708462
0003c0 ba 99 6c be 4e e3 d3 bc 0a 40 94 bd e4 68 5b 3d
       -0.23105517 -0.025865223 -0.07238777 0.05356683
0003d0 25 a7 d0 bb 96 74 fa 3d 0d ef 46 bd 1f 6c 43 3e
       -0.0063675814 0.12229268 -0.04856782 0.19084214
0003e0 8f b1 4b be 75 b1 a0 3e 6e 7b bf be c0 2c 1b 3f
       -0.19891952 0.3138539 -0.37398857 0.6061516
0003f0 bc 63 eb be ac 55 35 3f f3 bd 24 bf d9 a8 6e 3f
       -0.4597453 0.7083385 -0.6435234 0.9322639

sequential_7/dense_22/MatMul f4 [10, 24]
000000 02 a9 8e bf 03 a8 1f 3f a3 b5 31 3d d6 32 19 bf
       -1.1145327 0.6236574 0.043386113 -0.59843194
000010 f0 98 1a bf 32 00 85 bf 04 bc d5 3e 6a ff fd 3c
       -0.60389614 -1.0390685 0.41745007 0.03100558
000020 88 fb 86 be 95 38 34 be d5 1c 57 bf f8 82 5d be
       -0.26363778 -0.1759971 -0.8402837 -0.21631992
000030 9e a9 53 bf de 17 66 3f 6f b9 73 3f 33 89 da bd
       -0.8268069 0.8988017 0.95204824 -0.106707
000040 51 4c b8 be 69 ad e4 3e 55 0d 00 bf a8 1b 06 bf
       -0.35995725 0.4466355 -0.50020343 -0.5238595
000050 13 7f dd be 45 c8 dc be ff 1c 15 bf 80 e0 c7 3e
       -0.43261012 -0.43121544 -0.5824737 0.39038467
000060 10 27 88 bf 1d 85 ad be 1d 4c bc bf d9 e4 81 bf
       -1.0636921 -0.3389062 -1.4710728 -1.0147964
000070 46 95 12 bf 1f 56 79 bf 6e 31 84 bf 4d 95 6a be
       -0.57259023 -0.97397035 -1.0327585 -0.22908516
000080 8c cc 80 be a1 94 46 3f 39 07 a8 be 80 d4 7b be
       -0.25156057 0.7757054 -0.3281801 -0.24592781
000090 e7 2e 45 bf c9 56 d4 bf 0e 1b 6d bf 32 b9 cb bf
       -0.7702469 -1.6588985 -0.9261941 -1.5915892
0000a0 db 4a 03 bf 84 84 6d be 1a 9a d7 be ca af 61 be
       -0.51286095 -0.23195082 -0.42109758 -0.22039714
0000b0 3f c8 b7 bf 64 5f ba be 10 38 80 be 87 76 bd be
       -1.4357985 -0.36400902 -0.25042772 -0.37004492
0000c0 31 98 a2 be 89 a7 31 3e aa 1d b3 3f 8e 6d 8f 3f
       -0.31756738 0.17349066 1.3993428 1.1205308
0000d0 36 7f b0 be b8 2d f8 3e 9d 56 9e be 2f bc b2 3f
       -0.34472054 0.4847238 -0.30925456 1.3963679
0000e0 f7 a4 2c 3f f0 9c 06 be d1 e3 4e 3f 12 3e 9f be
       0.67439216 -0.13145804 0.8081637 -0.31102043
0000f0 e8 86 45 3e 99 1d 81 3f c6 8d 32 3f f2 48 70 be
       0.19289744 1.0087157 0.6974758 -0.23465326
000100 eb c6 4b bd 6f ec 3b bf 08 82 9f 3e 85 4c 2d bf
       -0.04975025 -0.73407644 0.31153893 -0.67694885
000110 fb 75 91 3f 75 3f c6 bd 49 31 00 bf d8 05 55 3f
       1.136413 -0.09680072 -0.50075203 0.8321204
000120 cb c0 9a 3f 98 6f 33 3f af 65 62 3f d4 27 60 3f
       1.2090086 0.70092154 0.88436407 0.8756077
000130 1c 43 5a bf cd 23 93 3f a7 18 ad 3e 9a 85 5e 3f
       -0.8525865 1.14953 0.3380787 0.8692261
000140 5c 55 e6 3d f3 cd 47 3f 30 ff 4c 3f 1e 17 c9 bd
       0.1124675 0.7804863 0.80076885 -0.098188624
000150 23 70 ae be e5 7e 27 3f 1d 08 40 3f be 72 9e 3e
       -0.3406993 0.65428 0.7501238 0.30946916
000160 eb 61 bd be b0 5c 53 3e 3e 4f 07 be 9d f9 92 be
       -0.36988768 0.20640826 -0.13213822 -0.28706065
000170 71 1c 4b 3f 60 16 63 be 9c d9 8e be 73 de 65 3f
       0.79340273 -0.22176504 -0.27900398 0.89792556
000180 38 1d c3 bf ed 93 c8 bf 33 de 28 bf e1 cd 3b bf
       -1.5243292 -1.5670143 -0.6596405 -0.7336102
000190 bf 7d c9 bf 7d 6a d1 bf 9b f0 ad bf 5a e3 55 bf
       -1.57415 -1.6360623 -1.3589052 -0.83550036
0001a0 bf 10 56 be c4 64 6d bf 4a cc 8f bf 68 e3 e8 bf
       -0.20904826 -0.9273188 -1.1234219 -1.8194399
0001b0 ef 1f c2 bf ba b9 eb bf 62 05 b5 bf 38 a6 5f bf
       -1.5165995 -1.8416054 -1.4142268 -0.87363005
0001c0 60 1f bc be 6c 9c af bf 70 12 0b c0 1e 11 df bf
       -0.36742687 -1.3719611 -2.1730003 -1.7427099
0001d0 d9 e9 da bf 93 62 b4 bf d2 8c ab bf 33 31 96 bf
       -1.7102615 -1.4092582 -1.340235 -1.1733764
0001e0 98 99 f5 bf 56 87 03 c0 10 b0 ba bf 36 04 0d c0
       -1.9187498 -2.0551353 -1.458498 -2.203382
0001f0 4b fb b1 bf 1c e6 0f c0 62 ef 21 c0 b9 b4 dc bf
       -1.3904814 -2.2484198 -2.5302358 -1.7242652
000200 34 33 da bf ab 9d 1c bf 94 8e d6 bf 02 20 f4 bf
       -1.7046876 -0.6117808 -1.6762261 -1.9072268
000210 dc 74 db bf 75 1a 04 c0 e5 3c 05 c0 ef ce 0d c0
       -1.7145038 -2.0641148 -2.0818417 -2.2157552
000220 0a 47 ce bf 0f 74 f0 bf 95 2e 05 c0 bc 3f c9 bf
       -1.6115429 -1.8785418 -2.0809681 -1.5722575
000230 42 53 06 c0 2d e3 b1 bf c9 ee b0 bf d0 aa f8 bf
       -2.0988317 -1.3897454 -1.3822871 -1.9427128
000240 54 62 e3 3e 4b 08 d5 3e 17 76 5b be ed 0f a8 3e
       0.44410956 0.4160789 -0.21431766 0.3282465
000250 8a 23 a2 3f c6 c1 1d be 93 99 07 3f 30 8b 02 3e
       1.2667096 -0.1540595 0.5296871 0.12748408
000260 cb 3e 86 3f 7d ce 34 3e cf 76 2d 3f 2b 2e 7a 3f
       1.0487913 0.17656894 0.6775941 0.97726697
000270 e1 15 47 3f fa 68 8d 3c f4 fd 91 3c c5 4d 6d 3f
       0.7776776 0.01726197 0.01782129 0.9269679
000280 03 d3 60 3f a1 4c 53 3f 23 5a 93 3f a0 f9 9d 3f
       0.8782198 0.825388 1.1511883 1.2341805
000290 eb 47 ee 3e 39 dd 81 3f fc 1c 9e 3f 53 42 da 3e
       0.46539244 1.0145637 1.2352595 0.42628726
0002a0 65 2d 0e be 18 05 10 3f 5b 90 fd 3d 0b f2 3f 3d
       -0.13884504 0.5625777 0.12381049 0.04686169
0002b0 aa 2d 53 3f 42 96 e9 bd 45 6d bc be c9 f5 11 3f
       0.8249155 -0.114056125 -0.36802116 0.57015663
0002c0 a9 d6 74 bf b4 34 1a 3f 25 07 ca 3e 08 6d b7 3e
       -0.95640045 0.6023667 0.39458576 0.35825372
0002d0 68 15 40 3f 53 28 7f 3c 65 b1 c6 3d b0 78 1c 3f
       0.75032663 0.015573579 0.09701804 0.61121655
0002e0 a6 ec 20 3f c5 ec e6 3d 30 f0 83 3e 87 4d 4c 3f
       0.62861097 0.11275629 0.25769186 0.798058
0002f0 20 40 81 bd 2e 3f 25 3f 80 75 71 3f bd 75 ac 3e
       -0.06311059 0.6454953 0.94319916 0.33683577
000300 2b 01 3a 3f 83 e0 06 be 80 c2 b1 3d 07 97 5b 3e
       0.7265803 -0.13171582 0.08679676 0.21444331
000310 17 e4 89 3f bf a9 a3 3f 26 f9 b3 3f 03 6e 81 be
       1.0772732 1.2786177 1.4060409 -0.25279245
000320 ff c9 1d 3f f4 85 92 be 89 85 b8 3d 73 79 85 3f
       0.61636347 -0.28617823 0.09009845 1.0427688
000330 77 b2 2b 3f 5f 35 24 3f 29 ed b4 be 1d a1 73 3e
       0.6706919 0.6414394 -0.3533719 0.23791929
000340 e1 45 31 3f a3 da 8e 3e d1 5b 59 3f 20 b0 13 3f
       0.6924725 0.27901182 0.84905726 0.5769062
000350 29 5a 7e 3e a7 a6 22 3f 42 47 6d 3f df 6f 1d bf
       0.24839081 0.6353554 0.92686856 -0.61498827
000360 68 23 ca 3e bb d8 be 3f a6 24 b1 3f a9 40 2e 3f
       0.39480138 1.4909891 1.3839309 0.68067414
000370 5b 1f 6b be 4c 7a 43 bf 34 53 de bd cd ec d7 3f
       -0.2296118 -0.76358485 -0.108557135 1.6869141
000380 c1 f8 46 be 1b 93 92 3f 8e 5c 89 3f 52 ad bc 3e
       -0.1943083 1.1451143 1.073137 0.36850983
000390 3e 85 c5 be ce 39 59 3f f8 9e c6 3f d4 9a c8 3e
       -0.38578218 0.8485383 1.5517263 0.39180624
0003a0 6f 6f fe 3d e9 1d 8f 3f df 1c 7f be b9 36 0c bd
       0.12423598 1.1181003 -0.24913357 -0.034231875
0003b0 c9 18 80 3f 1f 0d eb 3d e8 4e 07 3d 11 bc d3 3f
       1.0007564 0.11477112 0.033034235 1.6541768

sequential_7/dense_23/MatMul f4 [4, 10]
000000 9c 1a 9f 3d c3 2f e9 3f 88 29 03 c0 13 ef 24 c0
       0.07768747 1.8217701 -2.0494099 -2.577092
000010 c9 4a a9 3f d7 0a 19 40 9e 0f 13 c0 13 4f 13 c0
       1.3225948 2.3912866 -2.2978282 -2.3017013
000020 db d0 ff bf 35 e5 09 c0 62 bb bc bf 2a 9b da bf
       -1.9985613 -2.1546147 -1.4744685 -1.7078602
000030 05 d3 72 bf d0 c1 9f bf 24 1c 9e bf 08 a0 4c bf
       -0.9485324 -1.2481022 -1.2352338 -0.7993169
000040 ce 7a 82 3f 6d ea 52 3e b2 a8 82 3f 37 cc 58 bf
       1.0193727 0.20597239 1.0207732 -0.8468661
000050 69 2a 86 3f ec d5 b4 bf a2 b3 37 3f 3f b7 7f 3f
       1.0481693 -1.4127784 0.7175847 0.99888986
000060 da 27 d8 bf 2a dc 5b bf b9 09 4a be 88 91 6e bf
       -1.6887162 -0.8588282 -0.19730271 -0.93190813
000070 e5 2a ac 3d d7 25 60 3f aa fe 3b bf 1e 78 dc bb
       0.08406619 0.8755774 -0.7343546 -0.0067281863
000080 09 95 80 3f 8a d6 ce be 91 83 5e bf 6d 51 b1 be
       1.0045482 -0.40398055 -0.86919504 -0.34632435
000090 f8 67 73 3f c5 9c 53 3f 57 c3 56 be 57 3a 83 3f
       0.9508052 0.82661086 -0.20972954 1.0252179
