model/keypoint_classifier/keypoint_classifier.tflite (tflite, 6528 bytes, 6 tensors)

sequential/dense/BiasAdd/ReadVariableOp/resource f4 [20]
00000000: 6d28 9c3e dd1c 8bbf 5dd3 6bbf 955a a93e
00000010: c60b 07bf 217f 39bf 994c 29bf 5d78 18bf
00000020: 0ea7 dbbe 6976 9fbf daaf 6ebf eefc cbbe
00000030: 8c9e b6be 278e 173f f5fa 44bf c560 d3be
00000040: 9ea9 d4bd 56c0 18bf b931 44bf 0db7 2cbf
0.30499592 -1.0868183 -0.9211939 0.3307692 -0.5275234 -0.7245961 -0.66132504 -0.5955866
-0.4290089 -1.2458011 -0.9323708 -0.39841408 -0.35667837 0.5920128 -0.7694543 -0.41284767
-0.103839144 -0.5966848 -0.7663837 -0.67466813

sequential/dense_1/BiasAdd/ReadVariableOp/resource f4 [10]
00000000: 317e 993f e0a1 d43e 9d63 943e b6af 88be
00000010: 2da0 623f 346a 593e 515e d53d 3e31 6fbe
00000020: 2034 923e ab2c 18be
1.1991636 0.4152975 0.2898225 -0.26696557 0.8852566 0.2123192 0.1041838 -0.23358628
0.28555393 -0.1486079

sequential/dense_2/BiasAdd/ReadVariableOp/resource f4 [8]
00000000: 0fc5 afbe ff8f d73e 424a 6bbf 8d0d 373d
00000010: 82eb 103f 336a 233e 449d ea3c 033d 7f3e
-0.3433003 0.42102048 -0.91910183 0.044690657 0.56609356 0.1595848 0.028639443 0.24925618

sequential/dense/MatMul f4 [20, 42]
00000000: 3613 903e 2035 e63d ab98 813e 5b3d abbe
00000010: b4e6 bd3d 51ea 7e3d e735 363e 23bf 4dbd
00000020: bdcd 613e 0100 0bbd 2034 3dbe 7e13 a63d
00000030: 757e 6dbe 79b2 993b a3c2 32be 789c 293d
00000040: 8c46 2abe 90a7 62bf 2521 44be dee2 f53d
00000050: e4c0 0cbd 1528 d53d 50c5 6fbd 0d77 3a3c
00000060: 0915 72be ca2f 9c3d a1d1 07be 1f6c 5e3e
00000070: 34a8 a63d 0f16 583e 78bf f53d d46b 823e
00000080: 1d10 473d 36e1 803e 5990 d93c 2cdf 823e
00000090: 02ee d63d 2c08 983e fad2 943d fe12 b83e
000000a0: 6047 193c 6c96 c43e a80f 1f3e 14d4 363e
000000b0: 231e 923a 8b7b ab3e 5826 983d 42e7 05be
000000c0: a09e b4bd 6ac8 13be 0870 81bd 0aed 83be
000000d0: de62 28be 1665 82be 835d 11be 2138 64be
000000e0: 840f f2bb 00a8 13bd 2fbd 6b3d 16db 0c3d
000000f0: 4983 babe 59e4 a5be 1010 d9bc a36c e3bd
00000100: ceca 433e 72f2 8e3d 96e4 7c3e 5117 ac3d
00000110: 2433 2cbf b10f abbe 99de 56bd 6587 50be
00000120: db63 1c3e 88f1 033d 6762 5f3e 89e5 d33d
00000130: 5fd8 01bf b030 b1be a1f0 0ebe db3b 8dbd
00000140: 21ae 573d 8e82 2fbe 46de b13d dcf2 713d
00000150: 3641 1e3e 103f c93d 5f13 27bf 8be8 07be
00000160: 6091 eabe 53e3 67be a627 d5be cf8e 07be
00000170: a205 d5be 8081 c2bd ca22 77be b30c 39be
00000180: b3ce e83b 1697 f4bd 7e34 ba3a f578 24be
00000190: d151 973c a577 8dbd e5d9 08be 8972 23bd
000001a0: 47ce 59bd d6ba ccbc 00bb fe3d af98 503d
000001b0: f534 453e 72ac f43c e8b3 f93d 8e0d afbd
000001c0: c3e2 e1bd a9ac 68bd 0ab6 793c 854a 883c
000001d0: f6cb d73d 84dc 533d 8103 ea3e b96b 08be
000001e0: 2849 1cbd 908c c0bc c94c 48be 2a44 1f3d
000001f0: 3e83 63be 0f5e 9d3d b2bb 933e 6025 68bd
00000200: ea24 b63e 51cf b3be b43b 013e f8e9 84bc
00000210: f87d 1c3e 68ed abbd 6d88 383e 38b4 0fbe
00000220: 3273 cfbd fe3e 893d 16a3 f1bd e892 50bd
00000230: 2899 13be 4d19 c7be 13a7 3abe 2ff7 9b3e
00000240: 537b f5bd f682 fc3d 1770 a1bb 9ff1 1ebc
00000250: afb9 ebbd cc92 5bbe 9192 69be 88d1 d0be
00000260: dc90 f1bc 2b2d 773e 9364 843d 8615 703e
00000270: bd4d b23b 517f c93e b7a7 26bc ab47 b93e
00000280: 6807 4fbc 10ff 763e ade8 4c3d e45c 773e
00000290: 75a7 de3c 185d ab3e 8e62 afbd 0203 f13e
000002a0: 7035 483d 6fe1 04be aedf 9c3c 9f89 f4bd
000002b0: 6de3 c5bc ebc2 4e3e 48a9 aabc 8d43 243e
000002c0: 045e 6f3c ee98 d43d 16f7 d0bc 3536 d93d
000002d0: 7c28 563c 9629 183d 16d0 283c 480e 6e3d
000002e0: eabd 7a3b 9a78 4a3d 62dd 9039 1fd4 c83d
000002f0: fe1f 57bc 7bfb 593d d790 593c 54de b13b
00000300: 9c8d 863c cd72 383d e9d9 2f3c fe42 ad3d
00000310: 3025 313c 72cb 453d 5081 fb3c 5084 183d
00000320: 8bed 913d 92e4 3b3e 8c38 943d 8187 aa3d
00000330: 9bc8 6d3d c1bf 5f3d adf9 963c 953c c63d
00000340: e455 b0be 5962 07c0 b576 07be 80d6 52bd
00000350: d58e 5fbf 9c6d 383f 137d 14bf 94fb 2a3f
00000360: 81c1 e5be 2e4a 2c3e 8eac 01be 093c d2bd
00000370: ff43 47be ce2b bebe 3432 9dbd e4cc 30be
00000380: 1268 753d 4d47 3e3e 1062 9a3d 0b40 ce3b
00000390: 6540 01be 7fdf 8cbe a27f 61bd a73e 2ebc
000003a0: ff11 123e 9428 053e 200e 3a3e 1b74 f13c
000003b0: e439 a3bd 000a 08be 0a24 01be f25d e8bc
000003c0: b75b eb3d ea6d bd3d 9140 3e3e f18f 76b9
000003d0: c356 7a3d 7dcd 9bbd 0043 89be aabd b33c
000003e0: f2f9 933c 72fc e23d a9d5 1e3e 9424 da3d
000003f0: 001c d53c 8aff f7bd 7d29 203f c458 99bd
0.28139657 0.112406015 0.2531179 -0.33445248 0.09272519 0.06223518 0.17794 -0.05023111
0.22051139 -0.03393555 -0.18476915 0.081091866 -0.23192771 0.004690465 -0.1745706 0.041408986
-0.16628474 -0.8853693 -0.19153269 0.12006162 -0.034363642 0.10408036 -0.05853778 0.011380923
-0.23640837 0.076263025 -0.13263561 0.21720932 0.08137551 0.21102165 0.119994104 0.2547289
0.04859935 0.25171822 0.026558088 0.25560892 0.10494615 0.29693735 0.07266803 0.3595199
0.009355396 0.38396013 0.15533316 0.17854339 0.0011147897 0.33492693 0.074291885 -0.13076499
-0.08819318 -0.1443192 -0.063201964 -0.25766784 -0.16443965 -0.25467747 -0.14195828 -0.22287036
-0.0073871035 -0.03604889 0.057553466 0.034388624 -0.36428288 -0.32400778 -0.026496917 -0.11104705
0.19120333 0.069798365 0.24696574 0.08402885 -0.67265534 -0.3341041 -0.05245838 -0.20364149
0.15272467 0.032212764 0.21814881 0.10346515 -0.5072078 -0.34607458 -0.1395898 -0.06896182
0.052656297 -0.17139646 0.086849734 0.0590695 0.15454563 0.09826481 -0.6526393 -0.13272302
-0.45814037 -0.22645311 -0.41631812 -0.13238071 -0.4160586 -0.094973564 -0.24134365 -0.1807125
0.0071047186 -0.1194288 0.0014206318 -0.16061766 0.01847163 -0.06907586 -0.1336437 -0.03990415
-0.053175237 -0.024991434 0.12438011 0.05092686 0.19258483 0.029867385 0.121925175 -0.08547507
-0.110295795 -0.056805287 0.015241155 0.016637096 0.10536949 0.051723972 0.45705798 -0.13322343
-0.038155705 -0.023504525 -0.19560541 0.038883366 -0.22218034 0.07683956 0.28854138 -0.05667627
0.35575038 -0.35119107 0.12620431 -0.016224846 0.15282428 -0.08394891 0.18020792 -0.14033592
-0.10129394 0.06701468 -0.11798684 -0.05092135 -0.14413893 -0.3888649 -0.18227796 0.30462024
-0.11986413 0.12329666 -0.004926692 -0.009701162 -0.11510026 -0.21442717 -0.22809817 -0.4078486
-0.02948802 0.24138324 0.064644955 0.2344571 0.005441396 0.39354947 -0.010171822 0.3618749
-0.012636043 0.24120736 0.050026584 0.24156529 0.02717946 0.33469462 -0.0856372 0.47072607
0.048879087 -0.12976621 0.019149628 -0.11940312 -0.024156297 0.20191543 -0.020832673 0.16041394
0.014609817 0.103807315 -0.025508445 0.10606042 0.013071176 0.037149034 0.010303518 0.05811909
0.003826017 0.04943142 0.00027630763 0.09806084 -0.013130186 0.053218346 0.013279161 0.005428115
0.016424946 0.045031358 0.010733106 0.08460043 0.010812089 0.048289724 0.03070131 0.037235558
0.07125386 0.18348911 0.07237348 0.083266266 0.05805264 0.05462623 0.018429602 0.09679524
-0.3444053 -2.1153777 -0.13228877 -0.051474094 -0.8732732 0.7204225 -0.5800335 0.6679013
-0.44874194 0.16825172 -0.1266348 -0.10265357 -0.19459532 -0.37142795 -0.07675591 -0.1726566
0.059913702 0.18581887 0.07538235 0.0062942556 -0.12622221 -0.27514264 -0.05505336 -0.010635055
0.14264677 0.1300376 0.18169451 0.029474309 -0.07970026 -0.13285065 -0.12611404 -0.02836511
0.114921026 0.0924948 0.18579318 -0.0002351401 0.0611179 -0.07607553 -0.2680893 0.021941025
0.01806352 0.11083306 0.15511192 0.10651508 0.026014328 -0.12109287 0.62563306 -0.07487634

sequential/dense_1/MatMul f4 [10, 20]
00000000: 0940 0e3f ea86 0e3f 8748 dfbe 3b87 f33e
00000010: 7312 17bf cf4e 98bf ffe5 3abf 5eb4 5bbf
00000020: 932f 233f c155 6cbe fb3c 8a3e c650 88bd
00000030: 776f 923e 857d 483e 70c7 613e 427f 24bf
00000040: b629 9cbd ff90 d9bf 9e6b 43bf 81e0 ad3f
00000050: 20db a4bd 35a1 8c3f b3ca 963f 1e4b 29be
00000060: 44a2 563d a2d8 6a3f b847 2cbe e540 383c
00000070: 5c15 b2bc 8ed6 1240 9b2b a63f 6a6e 20be
00000080: 8546 28be 3392 523e c344 943c 7474 123f
00000090: d9ff b5bd ac39 b03e 08a9 813e a558 5a3f
000000a0: d852 eebd 59f4 743e 6ab3 87bb 1bd5 7bbe
000000b0: 393c 1140 5b1b b3bd 81b2 503f 84d6 19be
000000c0: 7630 893e 817d 463f 1aa9 c13b 2aa1 1440
000000d0: c01a 883d f510 0cbf e188 d13f effb f73d
000000e0: 7292 cebd f36d 63be 507e d83f 6fe9 b23e
000000f0: 78c9 5c3f 6338 303e c3d5 703c 824c 3f3f
00000100: 159f 363f 07aa 2fbf 31bd 293f ec3f 323f
00000110: 1df1 9f3e 02e9 a3be 7227 aa3e d908 433d
00000120: f7cb 953c 733f 313f 3d68 9cbe b314 0e3f
00000130: e6c6 dd3d c138 c93e dc12 45bd d8dd 01bf
00000140: cde2 d93e 35e2 4a3d b146 8c3e 44b2 833e
00000150: b8d0 1bbe 4725 3e3e d097 19bf f033 e13d
00000160: 483d 86be 467d 06bf 9d2d ed3e 3aa3 3bbf
00000170: cdc1 183e 4dcc 853e adcc 2bbf fd57 0f3f
00000180: 1d11 b43e d7be 8c3e 1e82 9a3d 8a35 503f
00000190: f0d1 1fbf 6c55 323f 1370 283f a00b debe
000001a0: 0234 b63f 4a37 073f 3b2b 493e 01ff a23f
000001b0: 5072 483e fd22 9c3f c699 143f 90fb a13d
000001c0: e2dd 263d 68c5 6abd 9c6f 423f dd7d 873e
000001d0: c39b ccbe 59b4 643f 5260 4d3f 05cd 85be
000001e0: dc09 a73d 8cf0 edbe bd34 8cbd d016 763e
000001f0: 3a6e 193f d9e0 0bbf c5b6 fd3e e152 2f3f
00000200: 9bc4 363f 2ea9 bfbe d200 823e 9a6e 333f
00000210: 9375 763f 4a67 713d 4f73 2d3f c8f1 e3bc
00000220: 5928 553f b929 b53d f3c9 8f3e 9c6d 963f
00000230: 48e8 473f 1568 3abf 509a 87be be28 213f
00000240: 1d7b 343d 330d 0e3f cc0b dabd 3612 edbe
00000250: 91cc ec3d 8010 e6bd aeb5 b93d ef6b aabe
00000260: 00f7 84be da34 103f e263 ff3c b2d2 a03e
00000270: 698a 5dbe 2b27 da3d 5868 11be 1b6c 3dbf
00000280: dbb0 1b3c 50fb 5d3d e847 6bbe 034f 84bd
00000290: f441 c63e 893a fabe a889 96bd 5c8e 3d3d
000002a0: 0a98 9f3f 1138 c23e 325f 643c 7097 733f
000002b0: 5498 cd3f 0a4f da3d 93c8 343f 482d 01bd
000002c0: 605d 81be 8c3b 03bd 98d9 ee3e 6b30 cc3c
000002d0: 342a 63bf e7ee 123f 106d 003f c8f7 2b3e
000002e0: 8a07 5a3f 9e8e 93bc b9f0 a2be 430a 11be
000002f0: db9f f73e 91ed 573f 580d 273e fed5 993d
00000300: b574 973e c989 ecbe 0060 cbbc bccc 49bd
00000310: 964a 50bf 6aef e63e 3fa9 d63e a639 353f
0.5556646 0.5567461 -0.4361002 0.4756411 -0.59012526 -1.189905 -0.73007196 -0.85822093
0.6374447 -0.23079588 0.2699965 -0.06656031 0.28600666 0.19579132 0.22048736 -0.6425668
-0.07625143 -1.6997374 -0.76336086 1.3584138 -0.08049607 1.0986696 1.1780609 -0.16532561
0.052400842 0.91736805 -0.16824234 0.011245941 -0.0217387 2.2943454 1.2982057 -0.1566712
-0.16433151 0.20563583 0.018099194 0.57208943 -0.0888669 0.34419 0.25324273 0.8529151
-0.11636895 0.23921336 -0.004141261 -0.24593012 2.2693007 -0.08745452 0.81522375 -0.15023237
0.26794785 0.77535254 0.005910051 2.3223367 0.06645727 -0.54713374 1.6369897 0.121085994
-0.10086526 -0.22209911 1.6913548 0.3494372 0.86244917 0.1720901 0.014699402 0.74726117
0.7133649 -0.68618816 0.6630431 0.6962879 0.31238642 -0.32013708 0.3323322 0.04761586
0.018285735 0.6923744 -0.30548277 0.55500335 0.108289525 0.39301112 -0.04811369 -0.5072913
0.42555848 0.049532134 0.27397683 0.25721943 -0.15216339 0.18568908 -0.5999727 0.109962344
-0.2621863 -0.525349 0.46323863 -0.7329594 0.14917679 0.26132432 -0.67109185 0.55993634
0.35169306 0.2748935 0.07544349 0.81331694 -0.62429714 0.69661593 0.6579601 -0.43368244
1.4234622 0.5281874 0.19645397 1.2734071 0.19574857 1.2198178 0.5804714 0.0790931
0.040738948 -0.057317168 0.7595155 0.26463214 -0.39962587 0.8933769 0.802251 -0.2613298
0.081561774 -0.46472585 -0.068459965 0.2403214 0.5993382 -0.54639965 0.49553505 0.6848584
0.71393746 -0.3743376 0.2539125 0.7009064 0.96273154 0.058936395 0.6775407 -0.027825251
0.8326469 0.088458486 0.28083763 1.17522 0.7808881 -0.72815067 -0.2648492 0.6295279
0.044062722 0.5548889 -0.10646781 -0.46302956 0.115624554 -0.11233616 0.09067856 -0.33285472
-0.25969696 0.56330645 0.031175558 0.31410748 -0.2163483 0.10652002 -0.1419996 -0.7399308
0.009502615 0.05419475 -0.22976649 -0.06460383 0.38722193 -0.48872784 -0.073504746 0.046278343
1.2468274 0.379334 0.013938712 0.9515295 1.6062112 0.10659607 0.7061855 -0.031537324
-0.25266552 -0.03203921 0.46650386 0.024925431 -0.8873627 0.57395786 0.50166416 0.1679374
0.85167754 -0.018012341 -0.31824282 -0.14164071 0.48364148 0.8434687 0.16313684 0.07511519
0.29581228 -0.46198872 -0.02482605 -0.049267516 -0.8136381 0.45104533 0.41926 0.7079109

sequential/dense_2/MatMul f4 [8, 10]
00000000: a764 52bf 3cf7 b3be c39f 7b3d 294e a43e
00000010: 2e99 983d 34d4 3dbd 3926 773f 90b4 4f3f
00000020: 102e 69bd 9ebd bc3e 81f9 57bf 3ab0 633f
00000030: 64b0 babf b515 0bbf 3b15 8b3f a796 79be
00000040: 66f2 08bf c79c 92bf 05fe 7abf 2f85 25bf
00000050: 29e9 0ebf 0b37 fa3e cb5e af3d 1871 fdbe
00000060: 2e3d 38bf d0f8 5a3e 4b11 a0be a0a2 4fbf
00000070: ab8b 793e 8688 803f f9e2 6dbf 3d91 c0bf
00000080: b1e8 0e3d 4f9b 253f 9670 f63c dad0 f13e
00000090: c85b a2bd da8f 98bc 098d 283f b4e2 98bd
000000a0: b984 3a3f fbbf f93e 1ce6 22c0 a7c7 f0be
000000b0: e7a3 813f d3fc afbf 76df 6dbf e6d6 abbe
000000c0: d2e0 30c0 3a4d 36bf 8d42 8e3f 98cd b4bf
000000d0: dd68 1ec0 ead1 5dbf a3f2 623e 73ed 17c0
000000e0: 2934 2c3e 1144 b63d 2eca 113f c5d0 67bf
000000f0: ee2f dd3e 74ea 8abf fb6d a43d 7365 cdbe
00000100: bf86 c5be 7890 9cbf 48c7 543f bd67 8dbe
00000110: d2b2 553e 13eb 8ebf 3ffa 94be 8d6f 413f
00000120: 7d51 12bf 7358 c63d aff0 48bf 9de2 933f
00000130: d3f2 80bf d4d0 b23e e3aa 16bf 2697 67bf
-0.82184833 -0.35149562 0.061431658 0.3209088 0.07451092 -0.04634495 0.965427 0.8113489
-0.056928694 0.36863416 -0.8436509 0.88940775 -1.458508 -0.5433 1.0865854 -0.24373876
-0.5349487 -1.1454095 -0.98043853 -0.6465635 -0.55824524 0.4887012 0.08563002 -0.49500346
-0.7196835 0.21383977 -0.31263193 -0.8110752 0.24369685 1.0041664 -0.9292446 -1.5044323
0.03488988 0.6469011 0.030082982 0.47229654 -0.07927662 -0.018623281 0.658402 -0.07465115
0.7285877 0.48779282 -2.5452948 -0.47027323 1.0128144 -1.3749031 -0.929191 -0.33562392
-2.763722 -0.7121159 1.111406 -1.4125242 -2.4751503 -0.8664843 0.22162871 -2.3738678
0.16816773 0.088997014 0.56949127 -0.9055293 0.4320063 -1.08528 0.080287896 -0.40116462
-0.38579366 -1.2231588 0.8311658 -0.2761821 0.20868996 -1.1165489 -0.29097173 0.7556084
-0.5715559 0.09684839 -0.78492254 1.1553532 -1.0074104 0.34924948 -0.588545 -0.9046501
