model/keypoint_classifier/keypoint_classifier.tflite (tflite, 6528 bytes, 6 tensors)

sequential/dense/BiasAdd/ReadVariableOp/resource f4 [20]
000000 b2 e3 0e 3f f9 81 65 bf 18 26 34 bf 23 36 fa be
       0.55816185 -0.8965145 -0.70370626 -0.48869428
000010 86 08 27 be 7c bc 61 bf 4e dd 58 bf 0f 1d 1f bf
       -0.16311845 -0.8817823 -0.84712684 -0.62153715
000020 56 37 b0 3e 3a d5 51 bd 63 eb 58 bf 72 b4 a4 3e
       0.34417218 -0.05122874 -0.8473417 0.3216892
000030 be 9b f3 be 0d f7 f7 be d5 99 b0 be a7 8d 4e bf
       -0.4757976 -0.48430672 -0.34492365 -0.80684894
000040 98 66 00 3c 4f 2f 25 bf 51 3d 3c bf 3d 49 30 bf
       0.00783696 -0.6452531 -0.7353106 -0.6886175

sequential/dense_1/BiasAdd/ReadVariableOp/resource f4 [10]
000000 3c ee 9c 3e 77 13 74 3f 14 da 26 be 8b 0c 23 3f
       0.30650508 0.953422 -0.16294128 0.63691014
000010 ae 06 35 3f 6c 18 5a 3e 66 e0 12 3f 00 64 2c 3e
       0.7071332 0.21298379 0.57373655 0.16835022
000020 e0 86 28 be ee 64 34 3d
       -0.164577 0.044041567

sequential/dense_2/BiasAdd/ReadVariableOp/resource f4 [8]
000000 b9 2e 0f bf 56 7a 23 3f b4 40 c2 be ad bc ea bd
       -0.5593067 0.63858545 -0.3793999 -0.11461768
000010 50 68 a4 3e ec 34 d0 3e d6 85 a2 bd 13 2a 95 be
       0.32110834 0.40665376 -0.079356834 -0.29133663

sequential/dense/MatMul f4 [20, 42]
000000 50 9a 20 3d a6 79 9d 3e 03 9c 8c be f9 1c bc be
       0.039209664 0.30756873 -0.27462777 -0.36740854
000010 4d c7 3e be 57 5b 03 be 2c 28 2b be d1 b6 ce 3e
       -0.18630715 -0.12827812 -0.16714543 0.40373853
000020 24 cb 43 be 6c 2c ca 3e ce d1 92 be 5d c3 bc be
       -0.19120461 0.39487016 -0.28675693 -0.368678
000030 62 a7 f7 bd fc e5 82 be 7c 3d 94 bd 10 c2 55 3d
       -0.120924726 -0.2556609 -0.0723829 0.052187026
000040 21 43 66 be ee ab 53 3e fc 53 c7 bd e5 93 21 be
       -0.22486545 0.20671055 -0.097328156 -0.15779074
000050 da ca ba bd 52 29 5a 3e f3 f4 1e 3d 80 98 f0 3e
       -0.09120722 0.21304825 0.03880782 0.46991348
000060 3c 5c 7e 3e 12 70 96 3e 7b 3b d5 3c c9 ff 4d be
       0.24839872 0.29382378 0.026029339 -0.20117106
000070 6e 4f 9d bd 6e 29 7f 3e 13 8b 00 bc 06 b9 c3 3e
       -0.07681166 0.24918148 -0.007845658 0.382271
000080 69 4c 27 3e 95 9d bb 3e dd 18 1a 3f cd 90 01 be
       0.16337742 0.36643663 0.6019419 -0.12652893
000090 80 ec a5 3d 44 b0 7e 3e 90 03 de 3d b8 c6 b4 3e
       0.081017494 0.24871927 0.10840523 0.3530786
0000a0 ec 2a 51 3e d7 7f b4 3e 1a bf 91 be 33 b0 1b be
       0.2042653 0.35253784 -0.2846611 -0.15203933
0000b0 78 1f 0c bc 38 3a bf 3d 58 c0 77 3d 4d 1f 36 3e
       -0.008552425 0.09337276 0.060486168 0.17785378
0000c0 7d 50 e6 bb 5d c3 93 3d 20 8a 19 bf 9b ba 3e bd
       -0.007028638 0.07214997 -0.5997639 -0.04656468
0000d0 ea 1e 83 bd b7 06 70 bc 43 5e 8c bc 18 3b 1d 3d
       -0.06402381 -0.014650038 -0.017134791 0.038386434
0000e0 16 2c d0 3d 94 3a b7 3d bb d3 88 3d 7e 15 80 3d
       0.10164659 0.0894672 0.066810094 0.06254099
0000f0 14 59 75 be 45 0e b4 bd 81 17 b6 3c 12 ef f7 3a
       -0.23959762 -0.08791784 0.022228004 0.0018915853
000100 b8 72 59 3d b9 ee d7 3d aa 16 0b 3e a5 4e d1 3a
       0.05308792 0.105435796 0.13582864 0.0015968872
000110 e5 cd 22 be 91 57 95 bd 36 d2 ad 3d b6 68 a6 bd
       -0.15898855 -0.072920926 0.0848736 -0.08125441
000120 d4 ce 07 3e f3 76 54 3c fe 51 1b 3d e4 76 42 be
       0.13262492 0.012967813 0.03791999 -0.18990666
000130 9c 69 15 be 8d 02 37 be 02 ca 38 be 73 f4 a3 be
       -0.14591068 -0.17872067 -0.1804581 -0.32022437
000140 7b a5 bb bc d5 5a 61 bf 67 50 7f be ca 2e fe be
       -0.022906056 -0.88029224 -0.24933015 -0.49645072
000150 fa 06 b1 bd 00 bc 3e 3b 7c b2 d9 3e a3 29 76 be
       -0.08643909 0.0029103756 0.42518985 -0.2403932
000160 01 2e f8 3e ee 7a 58 be 6a f1 f9 3e 0f c2 43 be
       0.48472598 -0.21140644 0.48816997 -0.19116996
000170 23 20 ad 3e 1f f2 1e be e4 80 2c 3f 0b 0b b7 bc
       0.3381358 -0.1552205 0.6738417 -0.022344133
000180 17 df 9a 3e bd 3a 83 3c fb b2 d9 bc 5f ad 61 3d
       0.3024833 0.01601922 -0.026574602 0.05509698
000190 f4 99 62 be a8 89 8e 3d 48 5f 79 3f a0 af 82 3d
       -0.22129041 0.069598496 0.9741101 0.06381154
0001a0 ba 5d b5 3e 2d 9e 38 3d 68 f5 34 3e 79 92 be 3d
       0.3542307 0.045072723 0.1767174 0.09305281
0001b0 3e 01 ec bd 4f 6a 5b 3c 64 59 3f 3f 9e c1 de bd
       -0.115236744 0.013392045 0.74745774 -0.10876773
0001c0 73 70 76 3e 95 2d 1d 3d af 2f c4 3a 77 ec a2 3d
       0.24066333 0.03837355 0.0014967824 0.07955258
0001d0 10 b6 26 be 0b 0d ac 3d 44 ad bd 3e 8e a4 a0 bc
       -0.16280389 0.08400925 0.37046254 -0.019609716
0001e0 58 6d 5a 3e 72 7f 45 3d 9d 1e 82 3d 30 da 74 bc
       0.21330774 0.048217244 0.06353495 -0.014944598
0001f0 08 2e c5 bd 93 98 2c 3d c4 b7 90 3e 38 12 ea 3d
       -0.096279204 0.042137694 0.28265202 0.11429256
000200 f9 76 27 3e 57 3d bb 3e de 90 d9 3c 5a 79 b8 3e
       0.16353978 0.36570236 0.026558336 0.36030084
000210 84 46 c3 bd e6 66 91 3e a7 8e a4 bd 9d 0f 50 3e
       -0.09534934 0.28398818 -0.08035021 0.20318456
000220 dc 0c 6f 3c af fb 58 3d ee c0 88 bb 2b c9 b8 3c
       0.014590468 0.0529744 -0.0041733896 0.022556862
000230 5a fd 3e 3d 86 1f d7 3c bf b8 6d 3c 1a 1b 91 3c
       0.046628334 0.026260149 0.014509379 0.017713118
000240 12 b6 82 3c 2b c2 af 3d fc 4a 8b bc d7 fb 24 3d
       0.015955959 0.085819565 -0.017003529 0.040279236
000250 a0 5f b3 3c ae d0 a0 bc 12 9d 3d bc 65 9d 25 3c
       0.021896183 -0.019630756 -0.011573093 0.010108327
000260 03 26 2b bd d9 e6 d4 3d 86 09 77 3d f1 c9 59 3c
       -0.041784298 0.10395593 0.060311817 0.0132927755
000270 a2 a7 cf 3d 75 85 53 3d 26 1c e9 3d b5 77 b0 bf
       0.10139395 0.051640946 0.11382322 -1.3786532
000280 a3 ad 05 be 84 87 8e 3d 96 a6 76 bd 02 06 53 bc
       -0.13054518 0.06959441 -0.060217462 -0.01287985
000290 83 3e 3e 3e ce b4 29 be 49 40 c2 3b 38 3d d5 be
       0.18578534 -0.16572878 0.0059280735 -0.4164827
0002a0 3c e6 7a 3e a4 6c 5c 3e c9 54 cf bd 9a c0 2f be
       0.2450189 0.21525818 -0.10123593 -0.17163315
0002b0 00 e9 13 3d d3 55 2f 3c f0 43 17 3d 11 19 be 3b
       0.036110878 0.010701614 0.036930025 0.005801328
0002c0 14 93 2d 3d 3e 9c 0b 3d 1d d3 a4 bb 0c b9 16 3e
       0.042376593 0.03408455 -0.0050300495 0.14719027
0002d0 8b 88 0a 3c 3f 0e bb 3d 89 c6 b8 bc 3e 59 e6 3d
       0.008455406 0.091335766 -0.022555606 0.1124749
0002e0 6b 80 18 bd 12 04 ef 3d b5 35 b5 bb b4 67 0e 3e
       -0.037231844 0.11670698 -0.005530084 0.13906747
0002f0 60 37 40 bc 9c eb a3 3d 9a bc 9d bb 73 0a b4 3d
       -0.011731952 0.08003923 -0.004813743 0.087910555
000300 b5 e9 8c bc e2 5a a3 bf 20 79 53 3d 43 44 0c 3e
       -0.017201284 -1.276211 0.051629186 0.13697915
000310 7a 38 5d bd fb e9 b1 3d 34 47 ce bc f8 33 c6 3d
       -0.05400894 0.08687206 -0.025180437 0.09677881
000320 ab 46 3f bc 0a 3a df 3d 69 66 6f 3c 55 2c ff 3d
       -0.011674563 0.10899742 0.014611819 0.124596275
000330 53 e7 4e bd 1b 8c 8e 3d 6d d3 3e bc d8 47 98 3d
       -0.050513577 0.06960317 -0.0116470875 0.07435578
000340 a4 87 0d bd c1 3e ae 3d b8 c2 8d 3e ba 82 1d 3e
       -0.034553185 0.08508063 0.2768762 0.153819
000350 96 77 e1 bd 2b 06 4f bf d0 f4 b1 bc ee a9 3d be
       -0.11009137 -0.80868787 -0.021723181 -0.18521854
000360 54 a8 61 bd 17 3b 07 be 0c 0c 58 bd f0 13 a7 be
       -0.05509217 -0.13206135 -0.052745864 -0.326324
000370 cc 24 92 bc 30 e3 95 be 37 4c cd bd 12 55 70 be
       -0.017839812 -0.29274893 -0.100243025 -0.23469952
000380 37 93 b6 ba f0 3a f1 3c ed 65 6a 3d 9c 5f c0 3d
       -0.0013929371 0.029447049 0.05722611 0.09393236
000390 a6 27 a4 be 23 68 18 be ed ca 00 3e 20 5a b6 be
       -0.320615 -0.14883475 0.1257741 -0.35615635
0003a0 89 70 9f bc 3b 42 53 bd f7 46 98 bd 2e 4f 08 bd
       -0.01946284 -0.051576834 -0.074354105 -0.033278637
0003b0 d8 46 5a be 37 6e fb bd f6 aa 13 3e 8d 1d c1 bd
       -0.21316087 -0.12276881 0.14420685 -0.094294645
0003c0 21 fd cc bb 3b 38 18 3d 43 7a 0e 3c e0 86 10 3e
       -0.0062557613 0.037163 0.008696142 0.1411395
0003d0 57 96 21 3d fe 80 e7 3b 71 0b 06 3e c6 80 af 3c
       0.039450016 0.0070649376 0.13090302 0.021423709
0003e0 28 4f a1 bb 93 ec 52 3c 82 9d bf bd a0 f2 1f 3e
       -0.0049227662 0.0128737865 -0.09356214 0.15619898
0003f0 1c 30 1f 3e 44 62 50 be 5a 67 20 3e d6 93 3c 3f
       0.15545696 -0.20349985 0.15664425 0.7366308

sequential/dense_1/MatMul f4 [10, 20]
000000 8d 1d 9a be a6 34 1b 3f 17 27 9c bf 8b 24 1c 3f
       -0.3010067 0.6062721 -1.2199429 0.6099326
000010 e0 b1 04 3f 42 b0 0e bf b8 11 cc 3e 76 30 2a 3e
       0.51833916 -0.557377 0.39857268 0.16620049
000020 e3 9b b3 bd b0 7f 48 3f e8 a9 13 3f 1e 6d ea be
       -0.087699674 0.78319836 0.5768113 -0.45786375
000030 05 c8 c1 3e 58 13 bb 3e 8c 20 ea be 07 1a 68 be
       0.37847915 0.36538196 -0.45727956 -0.22666179
000040 f2 04 dd be af 58 04 3f 4a 08 b4 3c 0a 3b 66 3f
       -0.43167835 0.5169782 0.021976609 0.89933836
000050 d6 78 98 3f d1 b8 d3 bd 37 9e fa 3c 89 31 73 bf
       1.1911876 -0.10337985 0.03059302 -0.9499746
000060 2e 14 1c 3d 60 92 0c 3f 6f 4d 7a 3e c4 b6 2a 3f
       0.038105182 0.5491085 0.24443601 0.6668513
000070 54 ba 4a 3f 3a 77 07 3e b7 c4 00 be 0f 16 69 3f
       0.79190564 0.13229075 -0.12575041 0.91049284
000080 95 63 6a be e4 6a 4e 3d 72 78 df 3e ec 4e 86 3e
       -0.2288955 0.050394908 0.4364658 0.26232088
000090 f6 a3 f3 3e fb de 0f bf 31 ce 9b 3e e8 24 c1 be
       0.4758603 -0.56199616 0.3043075 -0.3772347
0000a0 09 2f 67 3e d4 04 cd 3e 99 ef 18 3f 6f 5a da 3e
       0.22576536 0.40042746 0.59740597 0.4264712
0000b0 77 2a ce 3c d7 79 b1 3e 04 a2 50 be de cf 7a 3e
       0.025166733 0.3466327 -0.20374304 0.24493358
0000c0 4c d5 81 be a1 59 c2 3e 4b 97 0c 3f a5 72 75 bc
       -0.25358045 0.37959006 0.54918355 -0.014980947
0000d0 bc 6f 36 be 14 90 de 3e 20 ea b2 3e 53 ee 58 bf
       -0.17816061 0.43469298 0.34944248 -0.84738654
0000e0 a3 5a e0 bd d7 d3 df 3e 35 b2 87 3e 20 9e cd 3e
       -0.109547876 0.43716308 0.2650315 0.40159702
0000f0 87 cb d6 3d 21 90 85 bc 07 36 88 3e 6b fb 07 3c
       0.104880385 -0.016304078 0.2660372 0.008299689
000100 1e 32 36 bf a0 38 c3 be 52 12 61 3e 5e da c4 be
       -0.7117022 -0.3812914 0.21979645 -0.3844785
000110 ff 66 fc bd a4 99 05 bf b5 95 9c 3d 4c d6 f2 3d
       -0.123243324 -0.5218756 0.07645742 0.1185728
000120 b3 af ca be 12 b4 8e 3d 5c 6d c9 3f 99 8f 5f 3e
       -0.39587173 0.069679394 1.5736499 0.21832122
000130 de 5a 82 3e d1 62 b9 bc cd 6c 2f bd 88 fd a4 bb
       0.2545995 -0.022630127 -0.04282837 -0.005035106
000140 e8 64 1b bf 48 ce 53 be 32 32 a2 be 3f a4 0d 3e
       -0.60700846 -0.20684159 -0.3167892 0.13832186
000150 3d d4 a3 3f cf f7 77 3e 4e 54 9f be 50 01 dd bc
       1.2799145 0.24215625 -0.31119007 -0.026978165
000160 db 9f 1d bf c6 73 ad be ad e1 bc 3d 29 c3 21 be
       -0.61572045 -0.3387739 0.09222732 -0.15797104
000170 8e de a7 3f 60 8d 85 3f 5b ed 26 3f 85 17 f8 be
       1.3114793 1.0433769 0.65205926 -0.48455444
000180 09 52 24 bc e5 a1 5d 3e 29 f3 f4 be 70 05 b0 bd
       -0.010029324 0.21643789 -0.47841766 -0.08594787
000190 93 64 49 3f 76 1a 47 bd 67 05 73 3e 3a 28 18 be
       0.7866909 -0.04860922 0.2373253 -0.14859095
0001a0 3a 95 3d be 5c 33 20 3e b5 9f 7f be 63 58 b7 3e
       -0.18513957 0.15644592 -0.24963267 0.3580962
0001b0 f5 a5 f1 3e 4b eb 74 3f ab 63 c7 be 73 9a f9 3e
       0.47196928 0.9567153 -0.38943228 0.48750648
0001c0 95 91 d1 bd 4b 9f 46 3e 33 a2 56 3f 48 4a 96 3e
       -0.10232846 0.19396703 0.83841246 0.29353547
0001d0 50 ca e2 3d 66 bd ad 3c 38 51 80 bd 36 68 fc 3e
       0.11073744 0.021208476 -0.06265491 0.49298257
0001e0 74 b1 7a be 27 84 51 bf 72 c8 b6 3e 95 18 99 bf
       -0.24481755 -0.81842273 0.35699803 -1.1960627
0001f0 86 41 1e 3c 20 65 77 3d 27 bb af be 47 87 4d 3e
       0.009659177 0.060399175 -0.34322473 0.20071135
000200 cf a9 a4 3e ff 87 5b bc bc a4 97 bf 33 bf 35 3e
       0.32160804 -0.013399123 -1.1847148 0.17748718
000210 c3 69 86 bf c3 62 76 bf 8f 58 18 bf da 1e 7c 3e
       -1.0501026 -0.9624445 -0.5951013 0.24621144
000220 4f 74 46 3e a2 3f 46 bf bd 5b a4 bd 17 49 66 bf
       0.19380306 -0.77440846 -0.0802531 -0.89955276
000230 33 5c 9f 3c a8 fd 36 3f 62 19 30 3f 22 33 4b bd
       0.019453144 0.714808 0.6878873 -0.04960931
000240 dd fa 3e bf 01 7a 6c 3e 31 45 9b 3f 62 78 ae 3e
       -0.74601537 0.23093416 1.213049 0.3407622
000250 0e a8 eb 3e 06 e0 de be ac 11 1c 3f e6 c3 18 3e
       0.46026653 -0.4353029 0.60964465 0.1491848
000260 b3 cf eb be 52 db c5 3d 41 86 71 be ce d3 43 3f
       -0.460569 0.09660973 -0.2358637 0.76495063
000270 8f 9b dc 3e fe a6 58 be b8 c1 65 3f 3c 71 41 3f
       0.43087432 -0.21157452 0.89748716 0.75563407
000280 1b 73 02 3d a0 ed 80 3c cf e5 df 3e a8 ef f4 3e
       0.031848054 0.015738308 0.43730018 0.47839093
000290 ab 24 ea be 1d 53 84 3f 32 10 30 3f 2e 19 5a 3f
       -0.457311 1.0337864 0.6877471 0.8519467
0002a0 91 b9 63 3e 22 80 bc 3e 7e be ab 3c 92 23 dc 3d
       0.22238757 0.36816508 0.020964857 0.10748972
0002b0 2d 73 04 be a5 f4 0c 3f 51 cb 00 bf 57 fb 1f 3f
       -0.12934561 0.550608 -0.50310236 0.6249289
0002c0 4e 6a 98 3e bb 01 45 3f 67 3d 66 3f 8c 46 3e 3e
       0.29768604 0.76955765 0.8993744 0.18581599
0002d0 7d f0 63 bf 8e 20 21 3f 1e da e0 bd 49 38 11 3f
       -0.8903883 0.629403 -0.109791026 0.5672651
0002e0 32 98 29 3f 76 de a1 3e c6 6d 17 3f d7 53 62 be
       0.66247857 0.31615037 0.59151876 -0.22102295
0002f0 26 49 89 bf 9b 6a 88 3e 0b 15 f3 3e 67 3a f3 be
       -1.0725448 0.26643834 0.47476992 -0.47505495
000300 d5 54 7e 3f f8 c3 18 3e e8 0e ab 3e 77 02 46 3e
       0.99348193 0.14918506 0.3340981 0.19336878
000310 d8 76 db bd a6 e3 fb 3e 95 99 5d be 66 7d 3f 3f
       -0.10716027 0.4919712 -0.21640618 0.7480072

sequential/dense_2/MatMul f4 [8, 10]
000000 d6 b5 98 bd c1 ce 0c bf 85 c4 20 3f 82 87 f4 bd
       -0.074565575 -0.5500298 0.62799865 -0.119399086
000010 1a 8b 17 3e 5d 40 df 3e 1e 92 7d bf e5 5a 36 bf
       0.14799157 0.43603793 -0.9905108 -0.71232444
000020 72 f0 38 bf 3c 0e 35 3f 12 54 20 bf 24 b3 92 3e
       -0.7224189 0.70724845 -0.6262828 0.28652298
000030 6d 4f 44 be 43 5e 43 3f 32 4a fe bf 22 0b 12 bb
       -0.19170924 0.76315707 -1.9866393 -0.0022284468
000040 dd d1 c5 be 84 42 76 3f 2f a2 23 bf 46 c5 93 bf
       -0.38636675 0.96195245 -0.6391935 -1.1544578
000050 bc 70 1b bf bc 85 1a bf 55 7a 00 3e ce 0e 7e 3e
       -0.60718894 -0.6036031 0.12546666 0.24810335
000060 d9 38 c5 be ed 51 79 3d 0e d7 86 bf 82 df 08 3f
       -0.38519934 0.060869146 -1.053438 0.53466046
000070 41 fc 76 3f 84 a3 f7 3d 2d 3c 68 3f c8 7e 28 bf
       0.9647866 0.12091735 0.9071682 -0.6581845
000080 83 2b 82 be bb b4 c7 bf a5 b5 b5 3d ef be 2f bd
       -0.25423822 -1.560203 0.088725366 -0.042906698
000090 c0 6f ec be b9 85 9b be ad a7 21 be 92 b6 81 bd
       -0.46179008 -0.3037546 -0.1578662 -0.06333651
0000a0 45 c2 78 bf d2 c1 c9 3e a8 d2 1c bf 6d fe 39 3f
       -0.9717143 0.39405686 -0.61258936 0.7265385
0000b0 6e fc 4f bf de 40 61 3f 78 49 c5 3f b0 c6 1b bf
       -0.8124455 0.87989604 1.5413046 -0.6085005
0000c0 d3 7e 30 bf fc 27 9a bf 74 21 90 bf 72 96 ba 3e
       -0.6894352 -1.2043452 -1.1260209 0.36442906
0000d0 60 01 ad bf fb 47 7b 3d 8e 66 9c 3f 57 e4 10 bf
       -1.3516045 0.061347943 1.2218797 -0.5659842
0000e0 2c f5 db be 16 6d 86 bf 64 5c ae bf f4 87 b6 be
       -0.4296049 -1.050204 -1.3621945 -0.356506
0000f0 b6 13 b4 be f2 7a 84 bf 38 3f 72 3e db ad 05 3f
       -0.35171288 -1.035002 0.23656929 0.5221841
000100 54 8c 3b 3f 0f aa 69 bf 95 cf d3 be c6 0c ae bf
       0.73261 -0.91275114 -0.4136931 -1.3597648
000110 7d dc 28 bf 2b e3 f5 3d 16 ea 4c be f1 cd bc 3e
       -0.6596144 0.120062195 -0.20011172 0.3687587
000120 cb bd 9d 3e 61 1e 39 bf 71 24 39 bf c0 40 90 3e
       0.30808863 -0.7231198 -0.7232123 0.281744
000130 7d 55 fc bd 7b 7b 0a 3f 09 38 38 3f 96 e6 17 bf
       -0.12320993 0.54094666 0.719605 -0.5933622
