model/keypoint_classifier/keypoint_classifier.tflite (tflite, 6432 bytes, 6 tensors)

sequential_3/dense_10/BiasAdd/ReadVariableOp/resource f4 [10]
000000 94 77 8a 3e 16 8b 54 3e a9 14 31 3f f9 aa 6b 3e
       0.27044356 0.20756182 0.6917215 0.2301444
000010 ff bd 05 3f da 5a f0 3d dd 75 aa 3e 3b 9b 19 3f
       0.52243036 0.117360786 0.33293048 0.6000249
000020 57 4e 90 bd 77 4f 4b 3f
       -0.07046192 0.7941813

sequential_3/dense_11/BiasAdd/ReadVariableOp/resource f4 [5]
000000 9c 34 a1 be be b4 c4 bd c6 89 5d 3e cd 78 f9 3c
       -0.3148545 -0.09604786 0.21634588 0.03045311
000010 8f 65 a1 3e
       0.31522796

sequential_3/dense_9/BiasAdd/ReadVariableOp/resource f4 [20]
000000 35 9b 73 bf 8b df e8 be ac 43 a1 bd 9d 6e c6 be
       -0.951587 -0.4548305 -0.078742355 -0.38756266
000010 e4 2c da be ab 48 09 bf f8 05 5b bf b7 98 93 bf
       -0.42612374 -0.5362651 -0.8555598 -1.153098
000020 c6 96 20 bf c4 d0 18 bf 26 92 15 3e 85 d4 01 bf
       -0.6273006 -0.5969355 0.14606532 -0.50714904
000030 5b 84 e5 be 72 3c 30 bf 7e 98 86 bf 78 74 ab be
       -0.44827542 -0.6884223 -1.0515287 -0.33487296
000040 6c 0f 5f bf c9 7d eb be 80 8c c0 be 9d 0d 75 bf
       -0.87132907 -0.45994404 -0.37607193 -0.957239

sequential_3/dense_10/MatMul f4 [10, 20]
000000 d9 3e 8c be 3b 58 a5 3e 5a 8b cd 3e 53 69 2d 3f
       -0.273917 0.32293877 0.4014538 0.67738837
000010 5b 0f 27 3d 83 c2 f8 3e b4 41 37 be 19 bb 0e bf
       0.04078613 0.485859 -0.17896158 -0.5575424
000020 d7 9d dc 3e 4a 91 72 3f 7d 6b 51 3f 09 d4 a6 3e
       0.43089172 0.94752944 0.8180464 0.32583645
000030 8c 21 32 3f 03 4b 9d 3e 23 f8 59 be ae 38 89 bf
       0.6958244 0.30721292 -0.21286063 -1.0720422
000040 9e 36 23 bf 0e 70 c0 3e 4b d8 9b 3e e3 df d1 be
       -0.63755214 0.3758549 0.30438456 -0.40991125
000050 27 9a ad 3d c3 9d 36 3f 35 23 c6 3e 68 ba 81 3f
       0.08476668 0.71334475 0.38698736 1.0135012
000060 f4 27 46 3f 0f be 32 3f 89 58 08 be 49 02 88 3e
       0.77404714 0.69821256 -0.13315023 0.26564243
000070 f6 4b 3f bd 22 01 12 3f 49 dc a2 3e aa 15 2e 3f
       -0.0467033 0.5703298 0.3180869 0.68001807
000080 8f d3 d0 be a8 31 37 3f f9 24 47 be 40 2e d5 3e
       -0.40786406 0.71560144 -0.19447698 0.41636848
000090 c4 ef af be 4f 15 90 3f 1f d8 86 be 25 40 0f be
       -0.34362614 1.1256503 -0.26336762 -0.13989313
0000a0 99 27 3f 3e 16 12 b4 3e c8 ad 6b 3e 93 b4 55 bf
       0.18667449 0.35170048 0.23015511 -0.8347866
0000b0 90 61 9a be 3a b0 03 bf 51 ef 4a 3e 1b bb ea bb
       -0.3015256 -0.51440775 0.19817854 -0.007163418
0000c0 79 62 bd 3e e2 f6 13 3f 00 5e 0e 3f 82 a2 e0 be
       0.3698919 0.5779859 0.5561218 -0.43873984
0000d0 fb 18 42 3f e0 cd 92 be 39 0a 39 3d 30 f0 f8 3b
       0.7581937 -0.28672695 0.045175765 0.007596992
0000e0 1f e1 48 3f 4b 27 7a bf 04 06 3b 3e d8 a4 dc 3d
       0.7846851 -0.97716206 0.18264014 0.10773629
0000f0 d6 04 4e 3c 36 0f 21 3f fb 6e ec 3d df 95 7c be
       0.012574395 0.62913835 0.11544605 -0.24666546
000100 fc 7b 46 be f0 18 de be cc 8d 1a 3f 53 9d 08 bf
       -0.19383234 -0.433784 0.60372615 -0.5336506
000110 fb b3 87 be 7d e3 00 3f f9 36 ad 3d 2d 19 00 3e
       -0.26504502 0.5034712 0.08457751 0.12509604
000120 a6 22 c7 bd 45 7e 35 bf 8a 37 5a bf 85 5f 23 3e
       -0.097234055 -0.70895797 -0.85240996 0.15954407
000130 96 1e cd bd d2 73 30 be c0 65 0e bf a2 eb 5e bf
       -0.100155994 -0.17231682 -0.5562401 -0.870783
000140 e6 dd c0 be 5b 4d 30 3f 32 f2 cc 3e 6f e4 25 3f
       -0.37669295 0.68868035 0.4002853 0.64801687
000150 ce 66 6a bd 47 ca 90 3d 4d 69 cc be 05 18 d5 be
       -0.05722695 0.07069831 -0.39924088 -0.41619888
000160 c1 44 4d be 0e c8 80 be 80 3d 3c 3e d3 52 9f ba
       -0.20045759 -0.2515263 0.18382835 -0.0012155421
000170 c6 5c bd be cf 58 0c 3e f0 27 66 3e 53 dd 3e 3f
       -0.36984843 0.13705753 0.22476172 0.74556464
000180 00 c7 be be 9c b1 8a bf f4 69 40 3f 97 ef d6 bc
       -0.372612 -1.0835452 0.7516167 -0.026237292
000190 14 95 c7 3e ac f5 a7 bd 88 7a 05 3f 21 42 89 be
       0.38980925 -0.08201155 0.5214009 -0.26808265
0001a0 0e 55 29 bd ba d7 d7 3d e7 b9 c1 3e ae 60 f4 3e
       -0.04134088 0.105391935 0.37837145 0.4773001
0001b0 8a 8f 86 3f 98 6a 50 3d 2d ee 5c 3e 2b f5 ec 3d
       1.0512555 0.050882906 0.21575232 0.115701996
0001c0 5a da 16 3f 6b dc af 3c c1 0d 6a 3e fa 8e 5f 3e
       0.5892693 0.021467408 0.22856809 0.21831885
0001d0 06 2f 82 3f 6d 0f 2f be da 24 32 3e 7e 69 83 3e
       1.01706 -0.17095728 0.1739687 0.25666422
0001e0 fb e6 8f 3f 2b 59 70 be 37 90 45 bd f4 cb 1c bf
       1.1242365 -0.23471515 -0.048233237 -0.6124871
0001f0 ed de c1 3e e0 8b 00 3f ef 5e 85 3f e2 6a 31 3f
       0.3786539 0.5021343 1.0419596 0.69303715
000200 50 c0 ae 3e 0c 90 04 3e 0d cb 63 be b7 06 36 3e
       0.34131098 0.12945575 -0.22245426 0.17775999
000210 10 69 9b 3e 69 1f dd 3e b8 53 98 3f e3 a5 16 be
       0.30353594 0.43188027 1.1900549 -0.14711718
000220 65 a2 14 3f 27 8a 0f 3c 6d 08 63 3e 58 2f 90 3f
       0.58060294 0.008760965 0.22171183 1.1264448
000230 8d ea 06 3e a7 43 07 bf 5b cf 20 3f a5 6f bb be
       0.13175412 -0.52837604 0.628164 -0.36608616
000240 7e fe 9d be a2 56 42 bf 80 e3 ac 3d 30 48 08 3e
       -0.30858225 -0.7591344 0.0844183 0.13308787
000250 05 5d 45 3e 65 9b 2b be 94 bf ec 3e 85 ac 85 bf
       0.19273765 -0.16758497 0.46239913 -1.0443274
000260 fc 96 9e 3e 49 22 62 bf 56 ba 70 3c d3 42 b8 be
       0.30974567 -0.88333565 0.014692863 -0.35988483
000270 72 43 3f bf 38 86 bc bf ff 14 e8 3e fb 90 bc 3d
       -0.7471229 -1.472846 0.4532852 0.0920734
000280 5f 63 ad 3e 92 68 07 3f 90 df 5d 3e 30 f7 2e 3f
       0.33864877 0.52893937 0.21667314 0.6834593
000290 73 a7 93 3f c2 7b 5a 3e 0e e2 5f 3f dd 6f 85 be
       1.1535476 0.21336272 0.8745431 -0.26061907
0002a0 72 4c b4 3d 26 c6 23 3f d3 b3 91 3e 93 a2 3f bf
       0.08803643 0.63974226 0.28457507 -0.74857444
0002b0 8c e0 9d be 22 67 55 3e ad 33 82 3e 03 be 44 3f
       -0.30835378 0.20840123 0.2543005 0.76852435
0002c0 b7 8f ab 3e b4 98 18 3f 3e 32 d9 3d 4b 4f 9e bd
       0.33508083 0.59608006 0.10605286 -0.07729968
0002d0 a4 d3 20 be 46 b6 0d bf 7f a5 bb 3d bf 5b 27 bf
       -0.15705734 -0.5535625 0.09162425 -0.6537437
0002e0 30 d6 ab be 0d 47 94 bf b2 68 08 be 8f 19 3d bf
       -0.3356185 -1.1584183 -0.13321188 -0.73867124
0002f0 07 36 e6 bd 56 21 b8 be 86 f4 54 be 89 4d c8 bf
       -0.11240774 -0.35962933 -0.20796403 -1.5648662
000300 e8 37 5d 3e 97 63 b5 bf c0 74 88 be 74 d9 47 bf
       0.21603358 -1.4171017 -0.26651573 -0.7806618
000310 a6 e5 ec bc 35 1a ca bf df 02 ec 3e 48 f6 b5 be
       -0.028918099 -1.5789248 0.4609594 -0.3553946

sequential_3/dense_11/MatMul f4 [5, 10]
000000 3c 9a f3 3e e2 1e 77 3f ba df 3a be 3b 39 15 be
       0.4757861 0.965315 -0.18249407 -0.14572613
000010 23 25 89 3e 6d cc 7e bf 22 04 94 bf d2 7b ff be
       0.26786146 -0.9953068 -1.1563761 -0.49899155
000020 21 c4 8a 3f b1 8c ab be 55 4f 02 3e 3d 37 00 bf
       1.0841104 -0.33505777 0.12725575 -0.50084287
000030 d7 c3 28 3f e5 3c 39 bf 2c 32 fb be 76 14 84 3f
       0.6592383 -0.7235854 -0.49061716 1.0318744
000040 67 d1 93 3e 78 a3 ae be 6f 63 0b 3f 3c 87 4e bf
       0.288707 -0.34109092 0.544486 -0.806751
000050 9e 59 48 bd 25 fe 16 bf 50 8b 3d 3f ad 15 fd be
       -0.04891359 -0.58981544 0.740407 -0.494306
000060 76 4c bb 3e 33 dc 05 bf db 82 a5 bf 08 22 02 3f
       0.36581773 -0.5228912 -1.2930559 0.5083318
000070 4b f7 5d bf ae 63 91 3f f3 e1 a9 bf ba 02 be bf
       -0.86705464 1.1358545 -1.3272079 -1.4844582
000080 f4 bf 0d 3f 45 28 71 3f 68 2f 18 3f e5 58 fe be
       0.5537102 0.9420207 0.59447336 -0.49677196
000090 8b 3e ac 3e be ff fe be 87 3f 22 3f 3c 52 cb 3e
       0.33641466 -0.4980449 0.63378185 0.39711177
0000a0 49 57 3f bf 39 5e 98 3d 6f 6a 9f bf 56 9c 01 bf
       -0.7474256 0.074398465 -1.2454356 -0.50629175
0000b0 54 4b eb bf 9e ff 07 be a2 07 93 3f 0f fd 9b bf
       -1.8382363 -0.13281104 1.1486704 -1.2186602
0000c0 a3 38 98 3e 1b 3d 19 bf
       0.2973071 -0.59858865

sequential_3/dense_9/MatMul f4 [20, 42]
000000 d8 a9 25 be 0e 3a 97 3e e7 35 88 3e 9e 76 19 bf
       -0.16178071 0.2953648 0.26603624 -0.5994662
000010 b9 3b 35 3e 66 18 5a be be f7 a2 3d 34 55 87 be
       0.17698564 -0.2129837 0.07957409 -0.26432192
000020 4d e4 0b 3e d9 f9 97 be 16 bb 97 3e 80 25 09 bd
       0.13661309 -0.29682806 0.29634923 -0.03348303
000030 0f 58 b3 3d af b9 b3 bd 45 bb 8a bd 06 a3 91 3d
       0.0875703 -0.08775651 -0.06774 0.071111724
000040 d0 05 15 be c9 a1 22 3e e4 d3 a5 3d e2 e4 7d bd
       -0.14552999 0.15882029 0.080970556 -0.061985858
000050 59 20 02 3c da 27 3e be a7 4e 86 3d 5d 78 82 3d
       0.007942283 -0.1856989 0.065579705 0.06370614
000060 e7 c4 6d bd 7b ec 9a 3d 8b e2 25 3d 47 b6 4b bd
       -0.05804911 0.07564636 0.04049925 -0.04973438
000070 f7 d8 98 3d 33 94 5e be 3c 53 ce 3d 36 97 66 3b
       0.07463258 -0.21736221 0.100744694 0.0035185344
000080 91 90 43 3c b4 aa eb 3d 1d fb 90 3d c6 d9 a0 be
       0.011936323 0.115071684 0.07079146 -0.31416148
000090 22 62 d6 3d 5f 47 a5 be fc 9e d4 3d e8 48 aa bd
       0.10467936 -0.32281014 0.10381886 -0.08314687
0000a0 fd e5 e5 3d da df ab 3d c4 54 22 3e 90 08 10 bd
       0.112255074 0.08392306 0.15852648 -0.035164416
0000b0 8c cf b4 3b 8d 83 b0 3d 15 9d f6 bd 90 f8 35 be
       0.0055179056 0.08618841 -0.1204168 -0.177706
0000c0 1c a8 4e be 39 ea 86 be 32 5d b7 be 77 1d 84 be
       -0.20181316 -0.26350573 -0.3581329 -0.2580373
0000d0 64 d5 1a bb 8a ac 74 3e 45 39 ff bc 3f 41 58 3c
       -0.0023625726 0.23893943 -0.031155238 0.01319915
0000e0 a8 58 f9 bc 84 e7 cf bd 57 15 b4 bc 65 13 0a be
       -0.030437782 -0.1015158 -0.021982832 -0.13483961
0000f0 bb 84 b6 bd 7b d6 80 3e 08 96 84 bc f6 5b 1c be
       -0.08912035 0.25163636 -0.016184822 -0.15269455
000100 4e b0 8e 3d 86 4d 37 3d 90 a9 53 3e f4 f4 1a 3f
       0.06967221 0.044751666 0.20670152 0.6053002
000110 3d 6e b7 bd 4a 17 33 3e 00 3a ee b6 0c d4 73 be
       -0.08956573 0.17489353 -7.099705e-06 -0.23811358
000120 d0 a1 88 3e c0 04 6d 3e 59 4c c4 3e 25 d6 35 3f
       0.26685953 0.23146343 0.383395 0.71029884
000130 f7 eb 1c be c5 a2 02 3e 8f 34 aa bd bd 08 4b be
       -0.15324388 0.12757404 -0.08310806 -0.19827552
000140 7d 30 30 3e 0f 6d 41 3e c6 f7 48 3e f0 05 24 3f
       0.17205997 0.18889259 0.19625768 0.6407156
000150 e0 be 4c 3e d8 6c 0e 3d 32 56 e3 be 6c 57 46 bf
       0.19994688 0.03477177 -0.444017 -0.77477145
000160 47 4f 8b be 4d 3b 7b be 4a 49 33 bd f0 11 83 bd
       -0.2720892 -0.2453434 -0.043771066 -0.06399906
000170 16 ac bc 3d 9c a7 d4 bd 3f 4b 58 bf 0f e5 29 be
       0.0921251 -0.103835315 -0.84489816 -0.16591285
000180 5b 7d d0 be 0f 12 07 be 64 21 13 bc 3d 6d 62 3d
       -0.4072064 -0.13190483 -0.008980129 0.05527996
000190 dd 65 88 3d b8 0d 2b 3e 0b 29 d6 be c2 ba 0c bd
       0.06660054 0.16704452 -0.41828188 -0.034357794
0001a0 5e d8 96 b8 01 dc 36 bb 4c 62 a8 3d d1 57 80 bc
       -7.192859e-05 -0.0027902129 0.08221874 -0.015666874
0001b0 e3 2d 4a be 57 b9 f3 bb 62 db c4 3d 1c 94 ea 3d
       -0.19744067 -0.0074378657 0.096121565 0.11454031
0001c0 e6 b8 ac 3e 13 a6 c0 3d 96 76 75 3e 9f fb 0b 3e
       0.33734816 0.09406676 0.23971018 0.13670205
0001d0 f1 33 90 bc 8a d8 cf 3c 10 fc b0 3e a9 30 68 3e
       -0.017602893 0.025371809 0.34567308 0.22674812
0001e0 35 20 1e 3f d6 f8 6b 3e a0 b3 12 3f a4 26 8b 3e
       0.61767894 0.23044142 0.57305336 0.27177918
0001f0 1c 5e c5 3e 5a 08 a2 3e 80 bc ed bd 83 da 9a be
       0.38548362 0.31646997 -0.11608219 -0.30244836
000200 bf b1 61 3a 1c 3c 8f 3e 74 40 57 3d 7f 79 8b 3d
       0.0008609555 0.27975547 0.0525517 0.06810283
000210 41 fd ad 3c bc ba 00 3d 00 1f 05 bd 0d 52 ea 3b
       0.021238925 0.031428084 -0.032500267 0.0071508945
000220 35 1b 32 3d 2d 3a c3 3d c9 1b 0d 3c c8 98 53 3d
       0.043482978 0.095325805 0.0086125815 0.051659375
000230 10 40 85 3c 99 d1 86 3d 22 da 0b bd d5 35 96 3c
       0.016265899 0.06582946 -0.034143575 0.018336216
000240 ab 95 0a bc 1a 68 91 3d c0 74 c2 b7 0f 44 1b 3d
       -0.008458535 0.07099934 -2.3180968e-05 0.037906703
000250 a4 97 f9 3c 31 84 db 3d 6c 40 2e bd 87 01 b9 bf
       0.030467816 0.10718573 -0.042541906 -1.4453591
000260 b1 ff 2d bc 3f e3 b2 3d b4 87 a9 3b e4 7e 60 3d
       -0.010620044 0.0873475 0.005173648 0.054808512
000270 8c 38 55 3d 74 c3 ed 3d 9e d2 63 3d 5c ac 0a 3e
       0.05205588 0.11609545 0.055620782 0.13542312
000280 62 56 85 3c 98 73 c5 3d 96 d9 f5 bc 55 c7 12 3d
       0.016276542 0.096411884 -0.03001098 0.03583463
000290 e6 be d7 3a 19 31 ad 3d 03 a9 da bd b8 0f ef 3d
       0.001646009 0.0845663 -0.10676768 0.1167292
0002a0 70 e5 66 3e 09 48 0f be 8f 76 f6 3d 29 22 9e 3e
       0.22548461 -0.13992323 0.12034332 0.30885437
0002b0 d0 4e f3 3d 04 47 99 3c ff ba 20 3e 2c 08 f3 bc
       0.11880267 0.01871062 0.15696333 -0.029666983
0002c0 db be 27 3e 65 19 43 bd 5b 1a d9 bd ff 93 85 3d
       0.163814 -0.04763164 -0.1060073 0.06522369
0002d0 de 79 66 3c b8 ed 4b 3d 88 e2 32 3d 1b 01 d5 3c
       0.014067141 0.049787253 0.04367307 0.026001504
0002e0 53 a2 5f 3d 04 3c a0 3c b8 ae e3 bb 12 23 0a 3d
       0.054598164 0.019559868 -0.0069483183 0.033724852
0002f0 56 ff c3 3c 73 4d 03 be 78 af e1 bd e8 56 b8 be
       0.023925465 -0.12822513 -0.11019796 -0.36003804
000300 52 39 d8 be 1a a1 87 3e ef 55 9b 3d 8a 40 0d 3d
       -0.42231232 0.26490098 0.0758475 0.034485377
000310 41 0e c9 bc 5f 2f ee bd ec ea 9b be d2 c6 9b be
       -0.02454293 -0.11630129 -0.3045267 -0.30425125
000320 65 e6 e9 be fd 65 87 3f d8 cc 74 3e 06 c5 9f bc
       -0.4568359 1.0577999 0.23906267 -0.019503128
000330 dd 22 93 3d 25 55 29 be a8 4f af bd 57 d6 5f be
       0.07184384 -0.16536386 -0.08560115 -0.21859108
000340 5a ab 04 bf 70 ee 62 3e d8 40 76 bd a7 2d 0f be
       -0.5182396 0.22161269 -0.060120434 -0.13982259
000350 ac 16 2d 3d 6c b1 97 3e 60 2f 26 bd bb 1c e0 3e
       0.04225795 0.2962755 -0.040572524 0.4377192
000360 f8 c6 9f bd 3f 23 d1 3e 52 b6 e0 bd 5c 2a 8c 3e
       -0.07801622 0.40847203 -0.10972275 0.27376068
000370 da ba d8 3d e6 3e 37 3e 10 26 3a 3d 2c 22 88 3d
       0.10582514 0.17895088 0.045446455 0.06647143
000380 d2 21 0c bc c6 71 fb 3c cd 65 2d bd 7b 71 5c 3d
       -0.008552985 0.0306939 -0.042333413 0.05381916
000390 e5 fd 19 3e db c3 fb 3d a6 14 7d bc ec 67 5f 3d
       0.1503826 0.12293216 -0.0154468175 0.054542467
0003a0 38 b4 87 3d 32 f3 4a be 54 7d 19 bc 1a 6e 6e be
       0.06626171 -0.19819334 -0.009368259 -0.23284188
0003b0 9d 3e 07 3e f3 d5 ea 3d 05 6d 2a bd 1e 25 25 3c
       0.13207479 0.11466589 -0.041607875 0.01007965
0003c0 dc fd 04 3e 6a 9d 58 bf ad 8b 9e 3e 97 18 97 bd
       0.12987465 -0.84615195 0.3096594 -0.07377737
0003d0 ec de 3a 3c 04 5b e9 3d 72 fe e7 bd eb 30 0a 3d
       0.011405688 0.11394313 -0.113278285 0.033738058
0003e0 67 e4 ca bd 5f 7f d6 be 14 a0 38 3e 9d cc 4f bf
       -0.099068455 -0.4189405 0.18029815 -0.8117159
0003f0 16 8e c4 bd be 0e bc bd 57 e7 47 3f 2e a7 b0 be
       -0.09597413 -0.09182499 0.7808737 -0.34502548
