model/keypoint_classifier/keypoint_classifier.tflite (tflite, 6528 bytes, 6 tensors)

sequential/dense/BiasAdd/ReadVariableOp/resource f4 [20]
00000000: 1bc5 173f ac09 60bf f1c2 40bf 996b febe
00000010: 5710 e5be d423 9fbf 04ad 49bf f2b4 a7be
00000020: c965 efbe 79e6 70bf 3917 86bf 76d7 803e
00000030: d29c ea3d 516b 88bf fafc bcbe 8346 58bd
00000040: eb57 753e c666 9a3d c98b 9abf 82bf 07bf
0.59285134 -0.8751476 -0.75297457 -0.49691465 -0.4473903 -1.2432809 -0.78779626 -0.32755238
-0.46757343 -0.94101673 -1.0475837 0.25164384 0.11455692 -1.065775 -0.36911756 -0.05280162
0.2395932 0.07539134 -1.2073909 -0.5302659

sequential/dense_1/BiasAdd/ReadVariableOp/resource f4 [10]
00000000: 0ee4 453f 7f20 933d 22b4 793f 0b1c 7e3e
00000010: e646 c43e 92d0 25bd 050b 913e 50e4 093f
00000020: f3d9 113f 72fd 54be
0.7730111 0.071839325 0.97540486 0.24815385 0.3833534 -0.04048211 0.2832872 0.53864
0.5697319 -0.20799807

sequential/dense_2/BiasAdd/ReadVariableOp/resource f4 [8]
00000000: 028d c4be 99cf 373e 15ac 4abf 2ac8 0c3f
00000010: 213b 473e bae5 433f 41c7 03be 1764 08bd
-0.3838883 0.17950286 -0.79168826 0.54992926 0.1945615 0.7652241 -0.12868978 -0.033298578

sequential/dense/MatMul f4 [20, 42]
00000000: 1090 6dbd 0065 30bb 9866 53be 6537 0a3f
00000010: a445 a2bd 4f5b b33e dc44 e4bc ea62 c93e
00000020: 1b13 263c 9e35 b43e 9278 71bc 7064 04be
00000030: 6502 203d 4c62 cebd bcd2 883d 5d89 46be
00000040: 9366 933d 21b8 3f3c 35d8 f83d a1f3 45be
00000050: ea64 b0bc 4ecf 4f3e 4594 fabb 8d88 c93e
00000060: 6402 983d 1111 7f3e de1c 3b3e fcd8 2ebe
00000070: a294 26bd 345a 2d3e afff 8cbd 87fd 953e
00000080: 9bf5 babd 6038 4f3e 0caa 183e 6cf3 c2be
00000090: e7da a4bb e274 a63c 2be7 07be deeb 293e
000000a0: 342d abbd b1e4 a83c 88fd 793e f79f 11be
000000b0: ceb2 6c3d 4df6 443f b76c 583b e025 aa3e
000000c0: fb66 1fbd 3cd8 423e 38bf dbbd 8004 af3d
000000d0: 8d50 193e c8b4 ab3c f2c4 3dbd b6cf d43b
000000e0: 820f 8ebd d613 1fbc e09e 9dbd 3f77 0ebd
000000f0: e0d1 8f3e 6bca 8abc 5697 84bd 2a18 0ebc
00000100: 6b3d 163d b3eb 38bd 45ad f53d 889b 4f3c
00000110: 9925 983e 5f06 11bc 2803 d8bd bd45 a0bc
00000120: 1b79 093e 9056 1ebd 27d0 7c3e 537e 983c
00000130: 1516 523d 9b2e 7e3d 7d77 61be 8cda d4bc
00000140: a122 c53c edf6 1dbd e1a4 f03e 0b42 c6bf
00000150: 9417 c33d 186e 85be 1486 333e 31f3 1a3f
00000160: d3b9 cf3d 5ca5 9a3e 6bec cd3d 29ad 353e
00000170: d182 b93d ec7c f33d 1fa6 01be 2e65 043e
00000180: d829 b5bc 255d 8e3d 7966 913d 8a9e 923d
00000190: 34bd 8c3d 50a9 42bc 9017 53be 56ee bb3d
000001a0: 0ac5 2b3c 7762 e03c 40bc 103d d857 88be
000001b0: 88e4 16be fa83 053e bd24 fdbd ffeb 5f3d
000001c0: dc85 533d 1f40 86bd 251c 49bd fc78 91bf
000001d0: 40e5 20bf 08be b0be 24cb 353c b6f4 5d3d
000001e0: fd67 073e 2590 12bc 4054 8cba 2176 a3be
000001f0: 6108 0bbf f78b 12be dc36 66be cdb5 08be
00000200: d4c2 193c baa3 623f dfb8 c73c f7fe f33e
00000210: c6d5 cdbc 5cf1 ac3e 3973 80bd 1ead 123e
00000220: a29b d33d 6b81 253e b054 4f3d 4810 9a3d
00000230: 2b0f 0cbc f326 973d e8f7 adbc c42e dc3c
00000240: 7fad 193e 3fd7 ce3d f055 c53c 8efa 903d
00000250: 7bc6 343c fcc2 273d c34b 6c3d 4d33 82bf
00000260: bb19 413e dffd 873d 5c3b 5fbc 9828 66bc
00000270: 3ed9 2fbd 8383 f9be d98b 8c3d 6f57 23bf
00000280: 7629 b03d 2501 2e3c c933 b3bd e4a7 15bd
00000290: 9031 63bd a215 65be c172 3cbd 21a8 e43d
000002a0: 183f 46be 3e48 92bd 214c 99bc 88a1 48be
000002b0: 51ae b1bb 265a c2bd 86cd 883b d591 29bd
000002c0: 3e7f 34bc 64be 2cbc 6507 bfb9 63df ff3d
000002d0: 18b3 5ebd 0ee6 8a3d 776a eebc 3764 d63d
000002e0: 175d bbbc 1f40 5c3c 277f 06bd 8968 063e
000002f0: 508c ddbb 8e38 a93d 2ce1 ce3a 4f03 cb3d
00000300: f933 6fbc 90f2 ce3d 6d69 e7bc 37bf 013e
00000310: 6dea 933c 9509 bb3d f7ad 2fbd af96 2f3e
00000320: 22dc 1bbc 6427 dabf 7807 e5bc a54b f73d
00000330: f8ce 9cbc 16ef c43d dd55 53ba eeb6 3e3e
00000340: 45ad bebc cfaa 8d3e 081e 76bd 0047 c4bd
00000350: 1852 923c af4e 51bf b3a1 ae3d 75e5 4abe
00000360: eb57 22bd 86da 0dbe bdfb 913c 8558 4dbe
00000370: da87 26be 94d4 fdbd 4662 39bd 9427 98bd
00000380: 61a6 0e3d 8670 2f3d c9a7 ba3d dbde 863c
00000390: 8db4 0abe e360 02be b86b d1bc 39f0 3cbd
000003a0: 34ab 2bbd 9a5c 013c 2c6e 4cbd 3595 b03c
000003b0: 41fb 2b3c 738c eabd 602c bc3d 0137 84bd
000003c0: 752a 1e3d 53df ccbd 9e61 e0bd 81a7 dfbc
000003d0: e2b3 a23d 5741 1ebd f40a ec3d 2e21 86bc
000003e0: 4b73 90bc e412 78bf 0456 81be 59fd 1dbe
000003f0: c002 fcbb 988c 6f3d cab7 a53f c862 393e
-0.057998717 -0.002691567 -0.20644605 0.53990775 -0.07923439 0.350306 -0.027864866 0.39333278
0.010136391 0.35197157 -0.014738219 -0.12928939 0.039064784 -0.100773424 0.066808194 -0.19388337
0.07197299 0.011701615 0.12150613 -0.19331218 -0.021532495 0.20293924 -0.0076470696 0.39361992
0.07422331 0.24908854 0.1827273 -0.1707496 -0.04066909 0.16928941 -0.06884705 0.2929499
-0.09128877 0.20236349 0.14908618 -0.3807634 -0.005030978 0.020319406 -0.13271777 0.16593882
-0.08358231 0.020616861 0.24413121 -0.14221178 0.05778771 0.76938325 0.0033023783 0.3323202
-0.03891657 0.190278 -0.107298315 0.0854578 0.14972134 0.020960227 -0.0463304 0.0064944876
-0.06936552 -0.009709319 -0.076963186 -0.03478169 0.2808981 -0.016942224 -0.064741775 -0.008672753
0.036679666 -0.045146655 0.11995939 0.012671359 0.29716185 -0.008851617 -0.10547477 -0.019564504
0.13425104 -0.03865677 0.24688779 0.018614924 0.05129059 0.062056165 -0.22018237 -0.025983118
0.024064364 -0.038565565 0.47000793 -1.5488905 0.095259815 -0.26060557 0.17531615 0.6052733
0.10142865 0.30204284 0.10054859 0.17741837 0.090581544 0.11889061 -0.12661026 0.12929222
-0.02211468 0.0695136 0.07099623 0.07159145 0.06872025 -0.011881188 -0.20614457 0.09176318
0.0104839895 0.027390702 0.03533578 -0.2662952 -0.14735615 0.13038626 -0.12360523 0.054668423
0.05164133 -0.06555199 -0.049099106 -1.1365047 -0.6284981 -0.34519982 0.011095796 0.054188453
0.13223262 -0.0089455 -0.0010706261 -0.31926063 -0.5430966 -0.14311205 -0.22481865 -0.13350601
0.00938483 0.88531077 0.024380146 0.4765546 -0.02512635 0.33777893 -0.06271977 0.14323851
0.10332419 0.1616265 0.050617874 0.07522637 -0.008548538 0.07380476 -0.021236375 0.026877768
0.1500759 0.10099649 0.02408883 0.070790395 0.01103365 0.040957436 0.05768944 -1.0171906
0.18857472 0.06640219 -0.013624992 -0.014047764 -0.042931788 -0.48733148 0.06862611 -0.6380529
0.08601658 0.01062039 -0.087501116 -0.036537066 -0.05546719 -0.22371534 -0.046007875 0.111648805
-0.19360006 -0.07142685 -0.018713059 -0.1959287 -0.0054223915 -0.09489851 0.004174891 -0.041398842
-0.011016665 -0.01054344 -0.00036435868 0.124937795 -0.054370016 0.06782161 -0.0291035 0.10468333
-0.022871537 0.013443022 -0.032836106 0.13125814 -0.0067611113 0.0826274 0.0015783659 0.099127404
-0.014599794 0.10104859 -0.028248513 0.12670599 0.018056119 0.09132687 -0.042890515 0.17147325
-0.009512933 -1.7043271 -0.027957663 0.12074975 -0.01914166 0.096159145 -0.0008061806 0.1862447
-0.02327598 0.2766938 -0.060087234 -0.09583855 0.017861411 -0.81760687 0.085269354 -0.19814093
-0.039634626 -0.13852891 0.017820233 -0.20053299 -0.16262761 -0.12394062 -0.045259736 -0.07429424
0.03482664 0.04283192 0.09114034 0.016463688 -0.13545437 -0.12732272 -0.02556406 -0.04612753
-0.04191132 0.007895613 -0.049909756 0.021555522 0.010496915 -0.1145257 0.09188151 -0.06455804
0.03861471 -0.10003533 -0.10956119 -0.027301552 0.07944466 -0.03863653 0.11525527 -0.016373243
-0.017633101 -0.96903825 -0.25260937 -0.15428676 -0.0076907575 0.05848369 1.2946713 0.18104088

sequential/dense_1/MatMul f4 [10, 20]
00000000: edb1 54bf 754d cebd 4da1 863f 32dc 943f
00000010: 38a9 d83f a141 9bbe 5728 73be 676a c33f
00000020: fc5c 3a3e d818 34be 28cb fdbd c296 8bbf
00000030: c6b5 903c 85e5 523e 64c9 16be f012 58be
00000040: 9f86 b2bf 0b66 39bd efb8 933c 715c 10be
00000050: 8a3c 903e 59ad 1e3e 09bb 463e cb75 4b3e
00000060: 8996 afbe 2700 f93e 4dd1 123f 0eaa ac3e
00000070: a29a 783e f03f 1c3f cab3 693f c0d1 3d3f
00000080: 742f 2b3f d434 0d3f 7cbe 0c3f 8694 c23e
00000090: 314a 113f 813b 963f a4be 853f 7126 043f
000000a0: 301d 3e3f c004 d3be e066 1dbf 48ee 9fbe
000000b0: 79a1 8abf 35b5 21bf efb4 da3e c95d 20bd
000000c0: 6012 3abf af2a f73e 65f8 403d 8251 463f
000000d0: 125e 5ebe 1273 823e b130 173f 101d 9abe
000000e0: 4247 293f ed16 2dbe 7c50 abbd ae0f edbd
000000f0: 89f4 04be 4ca4 a43f 8e18 dc3e 080a b93e
00000100: 9138 663f 6d01 433f ec78 d03e b15b 923e
00000110: acb6 af3f 5798 8f3e 9941 3c3f 89e8 6ebe
00000120: 2397 07bf d488 183f 0955 d33e bcd3 0bbe
00000130: a7df e5be 8121 32bf 4479 5f3e 2487 323e
00000140: 0290 1cbe e7f0 17bf 8352 f23e be7f 8c3d
00000150: 742f 74bf 54f4 2a3f 0909 263f 15ab 2ebf
00000160: 6385 babc 83f4 1cbf 6002 403f b43d 81be
00000170: e269 5dbe d7ab a63f 0907 bc3e bb96 fcbe
00000180: d164 a03d ba5d 2f3e ff2d 873f 21a8 13bf
00000190: 06f7 f53e 8188 5d3f af0a 4e3d c9ae 163d
000001a0: bf21 b3bb 0d70 7cbc 393f 313f ff52 0fbd
000001b0: 4258 9c3e f026 5c3f 045e 97bf 66fe 8a3e
000001c0: daf4 983e c3fa 0640 c410 163f ead7 133d
000001d0: 9efd 703e a4f1 3bbf e226 933f d73a 473d
000001e0: e502 86be 50a3 033f 929e 83bf d8b9 cfbe
000001f0: dc7b 823e fb81 70bd 7ce6 833d 9057 173e
00000200: c218 a8bf ece9 a8bd 6ffe c23b aaf9 16be
00000210: 1215 c9bd b6b3 aebe abf5 a4bb 51fb 6dbf
00000220: e00e ba3e f62b 22bc b032 fa3b ad9a 0dbf
00000230: 7987 723e 36aa 19be cf6c b83d 9c7a 513c
00000240: 4f81 f0bc 1567 27be 1568 083e ed18 043d
00000250: e8fe d6bd 47ea 823b 2649 b73c 5a7f 4ebf
00000260: f1d8 5abe d670 b5be 8c65 203d 7fa7 cb3f
00000270: a852 76be 014d 883e e3f7 ebbe 4c90 0540
00000280: 4e32 563e a301 a7be 7753 63bf 383e d8bf
00000290: 1eb7 0cbf be65 f6be 0058 b43e 9b98 76bd
000002a0: f85a c1bf e734 9c3e 877d 043f 2cc2 503e
000002b0: 7a6e 1a3f d2fc 923d a045 233f 8919 543e
000002c0: 53ec a13e d20c 053f 74f9 e4be 76ed 923e
000002d0: 87be 2b3e 577b 613f c5fa 463f f832 8a3e
000002e0: 2c1c d73f d1ea 6c3f de13 e53d 2346 e13c
000002f0: 8f1b a73f f7e3 c43d b80e 863d 60ec 723e
00000300: 3272 143f 6bd9 e13c 8d00 a53d b1c1 03bd
00000310: db2f be3e 80db 653f d922 a9be 79b7 acbd
-0.83083993 -0.100733675 1.0517975 1.1629698 1.6926641 -0.30323508 -0.23745857 1.5266846
0.18199533 -0.17587602 -0.123922646 -1.0905383 0.017664801 0.20595367 -0.14725262 -0.21100974
-1.3947333 -0.04526333 0.01803252 -0.14097764 0.28171188 0.15495814 0.19407286 0.19869153
-0.34294537 0.4863293 0.5735062 0.3372349 0.24277738 0.6103506 0.9128996 0.7414818
0.6686928 0.55158734 0.54978156 0.3800394 0.5675383 1.1736909 1.0448804 0.51621157
0.74263287 -0.4121456 -0.614851 -0.31236482 -1.0830528 -0.63167125 0.42716166 -0.03915194
-0.7268429 0.48274752 0.047111887 0.7746812 -0.21715572 0.25478417 0.5905867 -0.30100298
0.66124356 -0.16903277 -0.083649606 -0.11575256 -0.12983908 1.286264 0.42987484 0.36140466
0.89930063 0.7617405 0.40717256 0.2858558 1.3727622 0.28045914 0.73537594 -0.23330893
-0.5296499 0.59583783 0.41275814 -0.13654989 -0.44897196 -0.6958237 0.21823603 0.17434365
-0.1528931 -0.5935196 0.47328576 0.068603024 -0.9538491 0.66779065 0.64857537 -0.682298
-0.022768682 -0.61310595 0.75003624 -0.25242388 -0.21622422 1.3021191 0.36724117 -0.49333748
0.07831729 0.17125598 1.0560912 -0.5767842 0.48040026 0.86536413 0.050303157 0.036787782
-0.0054666693 -0.015407574 0.69237095 -0.03499126 0.30536085 0.85996914 -1.1825566 0.27147216
0.29874307 2.1090553 0.5861933 0.036094584 0.23534247 -0.7341559 1.1496241 0.0486401
-0.26174083 0.5142107 -1.0282767 -0.40571475 0.25485122 -0.05871771 0.06440446 0.14779496
-1.3132555 -0.08247742 0.005950741 -0.14743677 -0.09818472 -0.34121484 -0.0050341687 -0.92961603
0.36339474 -0.009898176 0.007635437 -0.5531414 0.23684491 -0.15006337 0.090051286 0.01278558
-0.029358534 -0.16347916 0.13320954 0.032250334 -0.10497838 0.003995213 0.022373747 -0.80663073
-0.21371819 -0.3543765 0.039159343 1.5910491 -0.24054968 0.2662125 -0.4608756 2.0869322
0.20917627 -0.32618436 -0.8879923 -1.6893988 -0.54966915 -0.48124498 0.3522339 -0.06020413
-1.5105886 0.3050911 0.5175404 0.2038657 0.60324824 0.07177128 0.63778114 0.20712866
0.31625614 0.5197269 -0.44721568 0.28696793 0.16771899 0.88078827 0.77726394 0.2699201
1.6805472 0.925458 0.1118543 0.027499264 1.3055285 0.09613793 0.06545776 0.23722982
0.5798675 0.027569493 0.08056746 -0.03216714 0.37145886 0.89788055 -0.330344 -0.08433432

sequential/dense_2/MatMul f4 [8, 10]
00000000: 2484 d73a 702d 7c3d 9f7f 92bf d873 0a3f
00000010: a6d1 8dbf 776b 6fbe 8c53 bbbc c722 d23e
00000020: 1843 a63e ea85 413f bd97 03c0 161c cebc
00000030: ca2b 043f 7e58 04bf 875b da3e e033 323f
00000040: cc5a 6fbf a26f e43d b985 033f d08f 53bf
00000050: e6e0 17be 74ca 593e 34a4 57be 985a 3d3f
00000060: d733 b83d 5819 743f 19b1 d4be 39c7 49be
00000070: ef36 7dbf 166e f63d 32fe 543e b41c 96bf
00000080: 8bd2 4ebe 9cbf 7d3f 276f 04bf 8860 94be
00000090: 63d3 ed3e f5e6 dfbf 3a48 1dbf 88d8 183f
000000a0: 7ccd bebf 7cf8 063d 960f 593f c9b2 91bf
000000b0: 1ab8 67bf 61b8 91be 0244 763f 61e6 373f
000000c0: d9d4 543f 8549 86bc 03a1 063f 15e9 54be
000000d0: ca3e 863e ff37 92bf 0e02 94bf 0c15 f5bf
000000e0: 8164 8abe 4ade 643f c9e1 55bf febc e9bf
000000f0: 4527 323f b689 ddbf b9c4 48bf 29f3 01bf
00000100: d841 a2bf b46d 10c0 27c2 52be 77a9 7c3f
00000110: 49ae c1be ab5e 003f 25d6 16bf e71c 083f
00000120: e46a 5a3e 3b48 1ebf 040f 273f 0731 413f
00000130: a75a 0dbf b3aa 2abf 0f5e d7be 9bb4 3c3f
0.0016442579 0.06156677 -1.1445197 0.54083014 -1.1079605 -0.23380838 -0.022866987 0.41042158
0.32473063 0.7559496 -2.0561364 -0.025159877 0.51629317 -0.5169753 0.42647955 0.69610405
-0.9349792 0.11154105 0.5137592 -0.82641315 -0.14831886 0.21268636 -0.21058732 0.7396636
0.08994263 0.9535117 -0.41541365 -0.19704904 -0.98911947 0.12032716 0.20800093 -1.172751
-0.20197503 0.991205 -0.51732105 -0.28979897 0.46450338 -1.7492357 -0.61438334 0.597054
-1.4906459 0.032951817 0.8478941 -1.1382686 -0.9051529 -0.28460982 0.9619752 0.71835905
0.8313728 -0.016392479 0.52589434 -0.20792039 0.2621978 -1.1423339 -1.1563127 -1.9147048
-0.27029803 0.89401686 -0.83547646 -1.8260801 0.6959117 -1.7307651 -0.78425175 -0.5076166
-1.2676344 -2.2566957 -0.20581876 0.9869608 -0.37828282 0.5014445 -0.5892051 0.531691
0.21329838 -0.61828965 0.6525729 0.75465435 -0.5521645 -0.66666716 -0.4206395 0.7371308
