model/keypoint_classifier/keypoint_classifier.tflite (tflite, 6528 bytes, 6 tensors)

sequential/dense/BiasAdd/ReadVariableOp/resource f4 [20]
00000000: 004f 023e bc72 21bf 446a 8fbf f3cd b33e
00000010: 4cc7 1cbf 8e13 36bf 6b24 c73e 9221 4dbf
00000020: 504e dcbe e709 55bf ae7e 753e aab6 66bf
00000030: ab31 68bf 8a7f ebbe 0dbc 103e fe82 79bf
00000040: b8de 86bf 799f 0c3f 9d1a cabe 8afe ccbe
0.12725449 -0.63065696 -1.1204305 0.35118064 -0.612416 -0.7112359 0.38894972 -0.8012935
-0.43028498 -0.83218235 0.23974106 -0.90122473 -0.9070079 -0.45995742 0.14134236 -0.97465503
-1.0536718 0.54930836 -0.3947343 -0.40037948

sequential/dense_1/BiasAdd/ReadVariableOp/resource f4 [10]
00000000: 2599 ef3d da52 4c3f 574c 9d3e a6b6 8cbe
00000010: e6a2 1c3e 6de6 0f3f 6faf 253e c88a 0c3e
00000020: 5154 3c3f 399e 3a3f
0.11699132 0.7981392 0.30722305 -0.274831 0.15296516 0.56210977 0.16180204 0.13724816
0.73566157 0.7289768

sequential/dense_2/BiasAdd/ReadVariableOp/resource f4 [8]
00000000: 9a55 0a3e a17c fd3e e598 ffbe 189d ebbd
00000010: f1fa b53e 45ec ab3e 266d 3abe 5c29 d4be
0.13509217 0.49509147 -0.49921337 -0.11504573 0.35543016 0.33578697 -0.182057 -0.41437805

sequential/dense/MatMul f4 [20, 42]
00000000: 0086 9f3b 2efc 853e 479e 17be f9b0 cebe
00000010: 574d 023e ff5e 5a3d 4aad 1c3e 8967 073d
00000020: b94b e83d 2b7b 193b fe5e 493d 2845 083e
00000030: b5bc 893c 1025 403d c38b eebd df61 40be
00000040: 20c5 86be a262 90bf ddfb 2a3e da9e 813e
00000050: 783b b23c d19a 1b3e 43fe d6bd 07fe febc
00000060: 4712 67be d994 cfbd 2a4f d23e 9323 a73e
00000070: 10ea fa3d 57e5 293e dc4e 84bd e4db b73d
00000080: 21e3 acbd e644 533d d858 8f3e af7a d63e
00000090: fc62 8bbc 12de 7c3e 5e8a 5abd dd76 163e
000000a0: 27eb debd b67e 9a3d c4bb 6ebe 14f3 10be
000000b0: 430b 943d cbca 843f 4e9a 053d 61c1 bb3e
000000c0: 20b4 343b 9b24 ac3e f211 883b 607b 893e
000000d0: 0ffd 793d 958c ef3c 206e a9bb c94c 333d
000000e0: b062 e238 b40d 343d 5761 00bc e152 a63d
000000f0: 03c8 07bc e25d f3bb c975 003c 88a3 52bc
00000100: 4ac2 d9bd 5004 4bbf 86b3 12be e83f f8be
00000110: 41ba a63c 9b4b b8bc ab89 ee3c 267e bbbd
00000120: d21b 00be e2bd 96be b8fd 28be 39d4 86be
00000130: 4e47 f23d 6953 d3bd b092 e8bd 951a 07be
00000140: 8a8e 2dbe f174 24be 1120 80be e42e 64be
00000150: e2b9 2abe 003f 423c f069 c6bc 5c56 48bf
00000160: a40e 613d 0db7 fdbe fa3a 533d 1506 01bf
00000170: 9d91 c63d cdc3 8bbe c054 12be 5a66 e1bd
00000180: b134 42be 289c 10bd 2c16 7abc f421 983d
00000190: f057 b43d 53a6 eb3d 4a32 b13b 8d3a f3bd
000001a0: 10a5 90bc 3d6b c9bc 2d5f f13c 782a 903d
000001b0: 06fe 093d fec6 df3c 4831 8c3c 3695 11be
000001c0: b98c 603d 9e5e 84bd 2bf5 2cbc 2c45 1a3d
000001d0: 447e 76bb 5ea1 04bd c631 213e de0d 0dbe
000001e0: ba6e be3d a2fb 46be 5ead 28be 5c87 ffbe
000001f0: 5441 9abe 6c5a 7d3c fa32 44be c0c4 b1bb
00000200: fd01 bcbe f873 673e 2f27 39be 73d6 993d
00000210: 4160 03be aa90 853e 76da 65bd d7ca 223e
00000220: 9316 9cbd ea21 1bbe ffcf 933d 7f0f 7ebd
00000230: 1d70 543e f358 dabd 95d5 ad3e 34f5 27bf
00000240: c8ba ecbb 54ec adbb 1759 9cba 08d5 453e
00000250: 7708 64bd 3b6e 973e c8b0 b0bc 41ed 843e
00000260: 7753 7abc 74d1 d3bd 1be0 e03c 2d64 193e
00000270: c766 8bbd 0cab ad3e c560 97bd 376e 3e3e
00000280: 5c62 bf3d ac83 c8bd ea2e aebd f859 ae3d
00000290: 3369 93bd 0dfa 663e fc2f 60bd 2ebf 043e
000002a0: ecc8 b73d 806b 373e 4e89 f43e 2e29 1e3f
000002b0: b7f8 093f f67e bc3c c869 323f d68d ecbc
000002c0: 2646 f63e 1f70 d1bd fdd7 1f3f 5ad6 e53d
000002d0: a7e5 f43e 1b33 87bd b582 a53e 09e9 b03b
000002e0: 5e2e 74bc 6168 c53d bae2 283f 0990 a53d
000002f0: 8254 1b3f 1a5f 303b c448 ae3e af9e 0e3e
00000300: 2128 02be 08d8 663d 30b5 d93e 3db0 a7ba
00000310: 7e8f d13e 6074 9d3c 7268 a33d 324a ef3d
00000320: a05d 53be f87e 0c3d 87a5 0abe 6f21 d4bd
00000330: 6b92 963d 4a54 0b3d c025 12bd b0f5 9b3d
00000340: 7f6e 1c3d fce0 1d3e c048 173d 5e01 893e
00000350: 69bd fbbd 2ea9 1f3e 5579 ac3c 3a89 993d
00000360: 49e5 71bc ebf6 b6bd d2ab 93bf 6090 dabc
00000370: 4160 a13d b0e0 e33d 069b 9a3d 7d8c ce3c
00000380: 5266 d23c 6086 56bc d405 dd3c 2f95 6cbc
00000390: 76b3 a4bd 3b77 913d ecec 803c 0f80 e73c
000003a0: 60e2 04bd eb9e 94bc d5c4 943d 904c 7bbd
000003b0: 9b1e fbbd 9d9b 7b3d 7247 b9bd 86fe 02bd
000003c0: 7235 9f3d 315b 80bd 54f2 513e 926b 63bd
000003d0: 71cd 36be f83f a33c 8444 d13d 2c81 23be
000003e0: 22e3 6b3e ed41 afbe 6cfe dc3e b9f7 c1be
000003f0: a813 ca3d f183 83be 8910 38be 49df cf3e
0.004868269 0.2616896 -0.14806472 -0.40369394 0.12724815 0.05331325 0.1530048 0.033057723
0.11342568 0.002341936 0.049162857 0.13307631 0.016813615 0.046910346 -0.11647751 -0.18787335
-0.2632227 -1.12801 0.1669764 0.25316507 0.021756873 0.15195777 -0.10497715 -0.031126989
-0.22565566 -0.10135812 0.41076022 0.32644328 0.12251675 0.16591392 -0.06460354 0.08977488
-0.08441759 0.05157938 0.2799747 0.41890475 -0.017014973 0.24694088 -0.053354613 0.1469378
-0.108846955 0.075436994 -0.23313814 -0.14155227 0.072287105 1.0374388 0.03261786 0.36670974
0.0027573183 0.33621678 0.00415253 0.2685194 0.06103235 0.02924184 -0.0051705986 0.0437744
0.00010794902 0.04395838 -0.007835708 0.08121277 -0.008287433 -0.007426963 0.007840582 -0.012856372
-0.10632761 -0.79303455 -0.14326295 -0.48486257 0.020352485 -0.022496989 0.02911838 -0.0915492
-0.12510613 -0.29441744 -0.16503036 -0.26333788 0.118300065 -0.103186436 -0.113561034 -0.13193734
-0.16948906 -0.16060235 -0.25024465 -0.22283512 -0.16672471 0.011855841 -0.024220437 -0.78256774
0.054945603 -0.4955372 0.051569916 -0.50399905 0.09695742 -0.27297822 -0.14290142 -0.1100585
-0.18965413 -0.035305172 -0.015264075 0.07428351 0.08805835 0.11506333 0.0054076063 -0.11876402
-0.017656833 -0.024587268 0.029464329 0.0703935 0.03368952 0.027316567 0.017113343 -0.14217076
0.054821704 -0.06463359 -0.0105564995 0.037663624 -0.0037611881 -0.032380454 0.15741643 -0.13774821
0.09298463 -0.19431928 -0.16472384 -0.49907959 -0.30127966 0.015463453 -0.19160071 -0.0054250658
-0.36720267 0.22602832 -0.18081354 0.07511606 -0.12829687 0.26086932 -0.056116544 0.1589769
-0.07621493 -0.15149656 0.072174065 -0.062026497 0.20745893 -0.10661497 0.33952013 -0.65608525
-0.0072244145 -0.0053077135 -0.0011928406 0.19319546 -0.055672135 0.29576287 -0.02156867 0.2596226
-0.015278689 -0.103426844 0.027450612 0.1497962 -0.068067126 0.3391956 -0.07391504 0.18596731
0.093449324 -0.097907394 -0.08505042 0.08513254 -0.071977995 0.22556324 -0.05473326 0.12963554
0.0897387 0.17912102 0.47761005 0.61781585 0.53895134 0.023009758 0.6969266 -0.028876226
0.48100394 -0.102264635 0.62438947 0.11222525 0.4783146 -0.066015445 0.32326284 0.0053988737
-0.014903633 0.09639049 0.6597096 0.08084113 0.60675824 0.0026912154 0.3403989 0.1392772
-0.1271062 0.056358367 0.42521048 -0.0012793612 0.40929788 0.019220531 0.07978906 0.116840735
-0.20641184 0.034300774 -0.13539706 -0.103579395 0.07352146 0.03401593 -0.035680532 0.076152205
0.038191315 0.15417856 0.036934614 0.26758856 -0.122919865 0.1559188 0.02105395 0.07496877
-0.0147641385 -0.089338146 -1.153681 -0.026680171 0.07879687 0.1112684 0.075490996 0.025213474
0.025683556 -0.013093561 0.026980318 -0.014439865 -0.08042042 0.071028195 0.015737973 0.028259305
-0.03244245 -0.018142184 0.07264105 -0.061352313 -0.12261697 0.0614277 -0.0904683 -0.031981014
0.07773866 -0.062673934 0.20502597 -0.05552251 -0.17851807 0.019927964 0.102181464 -0.15967244
0.23035863 -0.34229985 0.43162858 -0.3788431 0.098670304 -0.256866 -0.17975058 0.4060004

sequential/dense_1/MatMul f4 [10, 20]
00000000: 4879 7ebe 87cc 113e 7cc7 743f 5e76 6cbe
00000010: 409a f7bc a3a6 12be 7bc4 75be 6574 943f
00000020: 8d90 293f 9cb9 e83c f2af e2bd 32de 2f3e
00000030: adc0 133e 10bf 583e 5a1e 643e 4e9e 1c3e
00000040: bb7c 073f b0be b43d ec7c 613f 94d9 8d3f
00000050: 3ff2 bf3d 82ce f13d 4183 0fbe 1da6 ca3e
00000060: c3c2 6f3f d91b abbe 7753 1e3f c244 da3d
00000070: 31d0 babe a2ce 1b3f b02b 463f 18bc bc3e
00000080: 701c 8e3d e241 a7bf 8e86 fa3e f7f2 c53e
00000090: 546d ab3e 6c44 833e 1f59 2cbd 8833 68be
000000a0: 37b2 3ebe a264 a13d 0fbe 423f c631 753e
000000b0: 6546 bf3e e469 563f b709 1a3e 5b01 e4be
000000c0: 0455 01be 3f30 63bf cff4 2c3e 172c 833f
000000d0: e5a0 553d e2b4 86be e877 2a3e e783 71bf
000000e0: 6d57 2dbf 18fa 863e 9497 e8bd 37a1 eebc
000000f0: 93e5 233e 661a f93e 1b1e 813f 4ce8 e6bd
00000100: df67 c13e c576 663f 8a2a 973e e40d a43e
00000110: 4e18 a7bc 56ac 2f3f cb90 a83e 39ca 133f
00000120: 48e9 273f 6664 fbbd 3168 cc3d 2482 853f
00000130: 1a3d 5a3f 5b19 813e 7382 2abe cb68 373f
00000140: e580 d53e 68ae c73e add2 0bbd 1146 56bd
00000150: f2bb a03e 8c9e 9a3e bb94 7fbe 6172 2e3f
00000160: e4db e93e a24a 3e3e 8e30 31ba dd68 993e
00000170: 61f2 953e 6664 6a3f 0c23 71be 6eae 23be
00000180: a433 69bd c85e d5be 544b 673f d104 5a3f
00000190: 578f d33e 09bf b8bf 202f 353d 721c f83d
000001a0: 3fc9 0fbe 11ae 2ebf 3930 b23e 3882 80be
000001b0: 16a4 82bf 0944 eabe 0191 533e 2fac 463e
000001c0: b1d5 d9bf b640 14bf f4f0 523e 24e5 053e
000001d0: 3823 1e3e b132 f13e 81cc d5bf 52ae c8bf
000001e0: 7fe3 00bd 27bc b73e 1e1a a43e 0084 21bf
000001f0: 4a8f 333e dadd 203f 62b4 42bf cea5 043f
00000200: 63a6 ae3f 15c5 ae3d 645e 09bf 70ee a7bd
00000210: 9f6e 723f 739f e1bd 9b22 0fbf 7e65 f3bd
00000220: 2c09 8dbe e7ab 3ebf 4a13 9b3f 07c0 bc3f
00000230: c3e5 603f 5680 5a3c 52e5 a9bd 7454 2d3f
00000240: 7914 2e3e f463 18be 986f 2abd 6cde 29bd
00000250: b6e1 373e 5871 283e dc71 033c 0458 77be
00000260: 31a7 943d a40a 9ebe 32b3 893f d788 5cbe
00000270: 18da a1be 1366 453f 858c 40be ed4d 2bba
00000280: db7c da3e 640b 583f fb84 29be d5dc c3be
00000290: 53ca 67bd 71a9 8abf a386 6abf 4727 49bf
000002a0: 9e31 073f a062 c1be 2b38 40bd ac65 f2be
000002b0: 5c54 ef3d eab0 753f 70a2 50bf 90a3 3b3d
000002c0: f8e7 b13e 285b 9e3d 9419 bc3e b542 b4bf
000002d0: f6bc 28bd 4756 a73e bb1c 1fbc a17f e63e
000002e0: 94c2 3ebc 3dfa 1a3e fe79 f1be 9198 aebe
000002f0: 9c01 b23c 18f8 05bd 3f56 083f ee3a 31be
00000300: 182b 2ebc bc0b ad3f 3a30 e6bd 72b6 27bd
00000310: db43 5abe efbe 56be 3b43 a8bd 6788 2f3e
-0.24850953 0.14238177 0.9561689 -0.23092028 -0.03022492 -0.1432138 -0.24000733 1.1598021
0.6623619 0.028408818 -0.11068715 0.17174605 0.14428969 0.21166635 0.22277203 0.15294763
0.529247 0.08825433 0.8808124 1.1082025 0.09372377 0.11806966 -0.14014913 0.3957986
0.9365656 -0.33419684 0.6184611 0.10657646 -0.36486962 0.6086217 0.7741041 0.36862254
0.06939018 -1.3066981 0.48930782 0.3866193 0.33481848 0.2563814 -0.04207718 -0.22675908
-0.18622671 0.07880522 0.76071256 0.23944768 0.37358394 0.83755326 0.15042768 -0.44532284
-0.12630087 -0.8874549 0.16890262 1.024783 0.052155394 -0.26309878 0.16647303 -0.9434189
-0.67711526 0.2636268 -0.11357036 -0.029129608 0.16005544 0.48652953 1.0087312 -0.11274776
0.3777456 0.9002498 0.29524642 0.32041848 -0.020397332 0.6862234 0.32922968 0.5773044
0.65590334 -0.12275009 0.099808104 1.0430341 0.85249484 0.25214657 -0.16651325 0.71644276
0.416999 0.3900025 -0.034136463 -0.052312914 0.3139339 0.30199087 -0.2495908 0.6814328
0.45675576 0.18583158 -0.00067592494 0.29962817 0.29286483 0.91559446 -0.23548526 -0.15984508
-0.056934014 -0.41673875 0.90349317 0.851636 0.41320297 -1.4433299 0.044234395 0.121148005
-0.14041613 -0.68234354 0.34802416 -0.2509935 -1.0206325 -0.45755032 0.20660783 0.1940162
-1.7018338 -0.5791124 0.20599729 0.13075691 0.15443122 0.47108987 -1.6703035 -1.5678198
-0.031466957 0.35885736 0.32051176 -0.6309204 0.17535129 0.6283852 -0.7605649 0.518155
1.3644527 0.08533684 -0.53659654 -0.08199775 0.94700044 -0.11016741 -0.5591218 -0.118845925
-0.2754606 -0.7448105 1.2115262 1.4746102 0.8785059 0.013336262 -0.082956925 0.6770699
0.16999997 -0.14881879 -0.04161033 -0.041471884 0.17957196 0.16449487 0.008022752 -0.24154669
0.07258452 -0.30867493 1.0757811 -0.21536575 -0.31611705 0.7710888 -0.18803604 -0.0006534744
0.42673382 0.8439238 -0.16554634 -0.3825442 -0.056589436 -1.083296 -0.9161169 -0.7857556
0.52810085 -0.37770557 -0.046928566 -0.47343194 0.11686012 0.95973074 -0.8149786 0.045810282
0.3474729 0.077322304 0.36738265 -1.4082857 -0.041195832 0.32683012 -0.00971144 0.45019248
-0.011643071 0.15134521 -0.47163385 -0.34100774 0.021729283 -0.032707304 0.532566 -0.17307636
-0.010630392 1.3519206 -0.11239667 -0.040945478 -0.21314947 -0.20971273 -0.08215948 0.17141877

sequential/dense_2/MatMul f4 [8, 10]
00000000: 5e98 6f3d 3f59 cfbf 4dea b1bd f585 d2bd
00000010: 42e5 7a3f 97a1 36bf 9c68 2f3f c334 db3e
00000020: 1ea9 d6be d557 f73d d378 9cbf ff03 b53e
00000030: aeb8 573f 940a 4c3f bb25 78bf a555 18bf
00000040: fd7e 35bf 647c 22be 99e3 98bf 9a46 303e
00000050: 6905 c63e f230 763d 0a50 8d3e 1dd7 013f
00000060: 0e03 1c3f 4959 85bf b41b 8e3e 2296 89bf
00000070: e1ec dcbe 0063 0bbf 88a1 0d3f 05ee d6bf
00000080: 78e6 f8be ce23 88bd aae2 173e 3539 86be
00000090: 1e80 743f 77f0 7bbf e99d c2be 291f 043f
000000a0: a9f9 d6be e863 5e3f b5bd e9be 5eea 24bf
000000b0: 1854 4ebf 235f 7a3f de7a 12bf a70b a43e
000000c0: ce9b 7fbf 9c1e 6c3e 951b 4ebf 2f21 ebbd
000000d0: f644 83bf d6f6 a3bf c47d bfbe 7c2b f7be
000000e0: e190 adbf a57b 40bd 363f 883f 2f02 893f
000000f0: cb87 79bc 53a2 33bf 9c3c ccbf 39de e6bf
00000100: 299f b03e 3733 37bf b75b 253f dca8 83bd
00000110: d541 3a3f c648 143e 13dd b33e 03cb e73c
00000120: 0bef 503f 20fb 543f d671 18bf a2da 52bd
00000130: d8cb fc3b c1e3 f93e 4258 8abe 31d0 61bf
0.058494918 -1.6199111 -0.086872675 -0.102794565 0.9800607 -0.71340317 0.68518996 0.42813691
-0.419259 0.120772995 -1.2224373 0.3535461 0.84266174 0.7970364 -0.9693257 -0.59505683
-0.70896894 -0.15867764 -1.1944457 0.17214432 0.38676003 0.06010527 0.27600127 0.5071886
0.6094216 -1.0417873 0.2775551 -1.0748942 -0.43149474 -0.54447937 0.553246 -1.6791388
-0.48613334 -0.06647454 0.14832559 -0.2621552 0.9550799 -0.98413795 -0.380111 0.51610047
-0.4198735 0.86871195 -0.45652547 -0.64420116 -0.80597067 0.9780142 -0.5721873 0.3204014
-0.99847114 0.23058552 -0.80510837 -0.11480939 -1.025542 -1.2809703 -0.3740064 -0.48275363
-1.3559839 -0.046992917 1.064429 1.0703791 -0.0152301295 -0.7016956 -1.5955997 -1.8036567
0.3449643 -0.7156252 0.6459307 -0.06428692 0.727567 0.14480886 0.35129604 0.028295046
0.8161475 0.83195686 -0.595487 -0.051478036 0.0077147298 0.48806575 -0.2702046 -0.882083
