model/keypoint_classifier/keypoint_classifier.tflite (tflite, 6576 bytes, 6 tensors)

sequential_1/dense_3/BiasAdd/ReadVariableOp/resource f4 [20]
-0.51596725 -0.6465882 -0.7110005 -0.74826944 -0.83443457 -0.5466206 -0.5128926 -0.27572188
-1.2715714 -1.023638 -0.500549 -0.34181914 -0.35248798 -1.6304137 -0.56262696 -0.50040096
-0.648293 -0.4402211 -1.0642825 -0.6175424
00000000: 6e16 04bf ce86 25bf 2104 36bf 968e 3fbf
00000010: 819d 55bf 54ef 0bbf ee4c 03bf 6b2b 8dbe
00000020: dac2 a2bf 9206 83bf fb23 00bf eb02 afbe
00000030: 4e79 b4be 65b1 d0bf 5208 10bf 471a 00bf
00000040: 88f6 25bf a964 e1be 693a 88bf 4217 1ebf

sequential_1/dense_4/BiasAdd/ReadVariableOp/resource f4 [10]
0.39407465 0.4635088 1.5152135 -0.10313562 -0.034679484 0.7878001 0.9771268 0.14181007
-0.07330858 -0.0046076514
00000000: 27c4 c93e 0751 ed3e 84f2 c13f c538 d3bd
00000010: 130c 0ebd 44ad 493f fb24 7a3f a936 113e
00000020: cf22 96bd c8fb 96bb

sequential_1/dense_5/BiasAdd/ReadVariableOp/resource f4 [8]
0.22748013 -0.036666058 -0.83328164 -0.57149017 0.29576823 0.94670105 0.23732692 -0.3364513
00000000: 8df0 683e 262f 16bd f251 55bf 2e4d 12bf
00000010: ef6e 973e 005b 723f d405 733e 5843 acbe

sequential_1/dense_3/MatMul f4 [20, 42]
-0.23012215 0.140764 -0.028429853 -0.2408056 -0.05612736 -0.41342092 -0.012824671 -0.97522455
0.014915103 -1.2030753 -0.027010689 -0.09468249 -0.007423592 0.09184931 0.0007027283 0.1284842
-0.0007002563 0.13745962 -0.03100669 -0.14765133 0.009500179 0.10328404 0.00064090686 0.12397171
0.012214905 0.14374256 -0.024646906 -0.08567665 0.0390959 0.12272873 0.053203024 0.28670442
0.03872911 0.44352102 -0.014771113 -0.014712736 0.053632464 0.3424307 0.11036632 0.55318594
0.056755565 0.7948197 -0.09463331 -0.14295687 -0.015196424 0.2274916 -0.047882654 0.36924794
-0.060864188 0.2987711 -0.04741697 0.22467498 -0.063382715 0.09559536 -0.023441883 0.057117157
-0.0016032566 0.09116569 -0.011874447 0.021961879 -0.027811296 0.042205304 0.0070627495 -0.007234858
-0.02997481 -0.023647062 -0.01892027 0.0390762 -0.008337194 0.09423793 0.06295646 -0.011182512
-0.04824787 0.15106013 0.15683222 -0.16942419 -0.00032244317 0.10582378 0.14480127 -0.021445258
0.21642825 -1.6118602 0.3038384 -0.3763743 0.3007331 0.1843574 0.12075692 0.07877713
0.115222424 0.18351461 0.1462866 0.20117313 0.116191275 0.1479317 -0.040042367 -0.0016836501
-0.02606835 0.0012271004 0.014603348 0.056792323 0.022006785 0.030585611 -0.04920203 0.012909286
-0.07325228 -0.00086551066 0.012864414 -0.059645306 0.089751765 0.045052204 0.054870997 0.041758288
-0.01847877 -0.03269027 -0.020078924 0.04646625 0.09644394 0.09860758 0.15080929 0.11676235
-0.04667654 -0.006331701 -0.18123016 -1.3068048 -1.2438409 -0.431436 0.18865228 0.03495106
0.57302535 0.2506651 0.27708727 0.15414196 0.24607538 0.121697664 0.29366773 0.17876884
0.004011588 0.13696517 0.08702484 0.10502572 0.082050204 0.09188625 0.076824225 -0.033016894
0.020944182 0.15426242 -0.029077671 -0.047831897 -0.19446146 -0.22736613 -1.1076951 -0.37603793
0.10992431 0.13713057 0.020957876 0.019007592 -0.29875398 0.12356376 -0.59369534 -0.14486688
0.23408249 0.12542553 0.046928093 0.031103145 -0.19620669 0.06042029 -0.5483832 -0.3686971
0.27279282 -0.17162548 -0.5055801 0.61880404 -0.23130834 0.38898012 -0.35887304 0.6695785
-0.6276621 0.59884465 0.053413834 -0.07762529 0.004226248 -0.15925273 -0.039057694 -0.40155223
-0.053536564 -0.19276763 0.083679534 -0.025440194 -0.056830496 0.040505193 0.12802783 0.16644081
0.19015725 0.14072801 0.1277544 -0.11861264 -0.15161595 -0.053754304 0.06416095 0.07541985
0.16480409 0.09020313 0.21485856 -0.3555967 -0.28709954 -0.2980626 -0.24434377 -0.33481032
-0.008528369 -0.23845904 0.2348398 0.23657423 0.057271257 0.29468745 0.04886543 0.08754088
0.04327911 0.0818124 0.04991547 0.03767271 0.029129645 0.041691147 -0.0014512858 0.069726035
0.015672028 0.041526623 0.032905016 0.024861118 0.041211817 0.05234377 0.01772258 0.030166244
-0.0036231477 -0.019033095 -0.017760666 0.01785626 0.059963033 0.04248737 0.028813498 0.042707186
0.03623335 -1.4846916 -1.1675612 0.120274715 0.110832 0.04181509 0.080444306 0.040166702
0.08682843 0.09094208 0.07349793 0.11651492 -0.17083803 -0.09639348 0.14375626 0.7637859
00000000: 24a5 6bbe 7024 103e b9e5 e8bc be95 76be
00000010: cde5 65bd e8ab d3be 921e 52bc 51a8 79bf
00000020: 7a5e 743c 5ffe 99bf 8545 ddbc e5e8 c1bd
00000030: 9a41 f3bb 7e1b bc3d 4c37 383a 5d91 033e
00000040: 6891 37ba 37c2 0c3e be01 febc e931 17be
00000050: a4a6 1b3c 9586 d33d 8802 283a e1e4 fd3d
00000060: 0621 483c 4031 133e 4fe8 c9bc 3d77 afbd
00000070: 0623 203d 3359 fb3d 6aeb 593d ecca 923e
00000080: 6aa2 1e3d 3015 e33e 8a02 72bc b00d 71bc
00000090: b7ad 5b3d 1453 af3e bd07 e23d 989d 0d3f
000000a0: 8678 683d 4e79 4b3f 1ccf c1bd 4963 12be
000000b0: 6cfa 78bc 8ff3 683e 9a20 44bd 110e bd3e
000000c0: ba4c 79bd 87f8 983e 4c38 42bd 3311 663e
000000d0: ccce 81bd 80c7 c33d 3109 c0bc aef3 693d
000000e0: 5d24 d2ba 14b5 ba3d 0a8d 42bc 66e9 b33c
000000f0: 84d4 e3bc 78df 2c3d a36e e73b 6312 edbb
00000100: bc8d f5bc 7cb7 c1bc affe 9abc 5e0e 203d
00000110: ba98 08bc d1ff c03d 51ef 803d db36 37bc
00000120: 8f9f 45bd 82af 1a3e a098 203e 897d 2dbe
00000130: 970d a9b9 23ba d83d c946 143e f7ad afbc
00000140: 5e9f 5d3e 6f51 cebf b590 9b3e 22b4 c0be
00000150: b0f9 993e 30c8 3c3e 674f f73d e755 a13d
00000160: bcf9 eb3d 41eb 3b3e 28cc 153e 5400 4e3e
00000170: b1f5 ed3d 687b 173e 7703 24bd ecad dcba
00000180: 4b8d d5bc a8d6 a03a e242 6f3c 119f 683d
00000190: 9347 b43c ad8e fa3c 1188 49bd 7881 533c
000001a0: 4b05 96bd 70e3 62ba 43c5 523c a34e 74bd
000001b0: c6cf b73d a988 383d 69c0 603d bd0a 2b3d
000001c0: ca60 97bc 3ce6 05bd 8e7c a4bc 6553 3e3d
000001d0: 6784 c53d c5f2 c93d c06d 1a3e 1921 ef3d
000001e0: e62f 3fbd 287a cfbb 6694 39be 6145 a7bf
000001f0: 2e36 9fbf 2ee5 dcbe 102e 413e d828 0f3d
00000200: cab1 123f 2d57 803e 62de 8d3e 64d7 1d3e
00000210: 2ffb 7b3e a03c f93d 9e5b 963e 2e0f 373e
00000220: a473 833b 9940 0c3e 143a b23d ba17 d73d
00000230: f009 a83d dc2e bc3d 0556 9d3d b93c 07bd
00000240: 2293 ab3c f8f6 1d3e 4c34 eebc 61eb 43bd
00000250: e820 47be abd2 68be f4c8 8dbf 0b88 c0be
00000260: ff1f e13d f56b 0c3e daaf ab3c cfb5 9b3c
00000270: 48f6 98be ff0e fd3d 6bfc 17bf fc57 14be
00000280: 52b3 6f3e 8d6f 003e ac37 403d 06cc fe3c
00000290: 68ea 48be 447b 773d d762 0cbf dec5 bcbe
000002a0: 80ab 8b3e 97be 2fbe b36d 01bf f169 1e3f
000002b0: 18dc 6cbe 6728 c73e 35be b7be 7f69 2b3f
000002c0: 77ae 20bf e24d 193f 77c8 5a3d 02fa 9ebd
000002d0: 567c 8a3b 2613 23be f6fa 1fbd 4198 cdbe
000002e0: 2849 5bbd e164 45be 2d60 ab3d f467 d0bc
000002f0: 18c7 68bd c6e8 253d ba19 033e 766f 2a3e
00000300: 95b8 423e 011b 103e 0dd2 023e 2feb f2bd
00000310: 3641 1bbe 792d 5cbd d166 833d b975 9a3d
00000320: 67c2 283e 6bbc b83d e203 5c3e c510 b6be
00000330: b6fe 92be a99b 98be 4135 7abe 426c abbe
00000340: 92ba 0bbc 9b2e 74be d879 703e 8440 723e
00000350: 4495 6a3d 46e1 963e 1e27 483d a248 b33d
00000360: 7045 313d 428d a73d 2a74 4c3d b34e 1a3d
00000370: 4ba1 ee3c 56c4 2a3d 1239 beba 86cc 8e3d
00000380: a062 803c d217 2a3d 69c7 063d 8ba9 cb3c
00000390: b9cd 283d 6c66 563d f22e 913c 331f f73c
000003a0: 5572 6dbb 4beb 9bbc d17e 91bc 4b47 923c
000003b0: cc9b 753d 3d07 2e3d 490a ec3c bbed 2e3d
000003c0: 6c69 143d 600a bebf a572 95bf 9752 f63d
000003d0: e3fb e23d 4d46 2b3d fcbf a43d d785 243d
000003e0: 1bd3 b13d d73f ba3d 1586 963d 609f ee3d
000003f0: 2af0 2ebe f269 c5bd d734 133e 7987 433f

sequential_1/dense_4/MatMul f4 [10, 20]
-0.34127235 0.36445552 0.27205774 -0.35406786 0.7522781 0.3313664 -0.41578755 -0.14958
-1.1632125 0.4394168 0.76706135 0.41954765 -0.027895933 0.17592566 -0.47021216 0.14630495
0.20379493 0.43979144 -1.0045023 0.81723744 0.5408638 0.5025054 0.08390807 -0.46413293
0.20026353 0.2210488 -0.24457711 0.2979345 -0.3153041 -1.159831 0.2382479 0.86930054
-0.09462949 -0.4816135 -0.18539743 0.7746582 0.11670695 0.53646696 0.36326277 0.65033317
0.4496635 -0.9036275 -0.08196874 0.6283394 0.29942232 -0.2536527 1.1733813 0.22975005
-0.12641853 -0.23768891 0.033691715 -0.6388167 0.7654957 -0.7398041 0.860555 -1.020393
-0.4973898 -0.6776638 -0.15006736 0.030751077 -0.3189563 0.5658877 0.60333544 -0.073468044
0.96992594 0.09860207 0.64713335 0.3720466 0.8207995 0.6756252 0.6948429 0.04208984
-0.042006355 1.4608021 0.7680497 0.10721477 0.21466763 0.84908694 0.9378029 0.961473
0.56850666 0.85804254 1.220539 0.3711892 0.2322745 1.6472358 0.01461946 -0.3247767
0.24058029 0.18481514 0.09323313 2.1892893 0.28485084 0.36661786 -0.019466722 1.8050903
0.81532806 1.6137606 0.36016563 0.63844204 -1.3144686 -0.048703775 -0.02514802 0.11717479
-0.29521444 0.1938983 0.64724004 -0.24688777 -1.0565307 0.34649754 -0.84383214 0.2423968
0.43913582 0.9340134 0.94133806 0.29411957 0.52439564 -0.46513146 -1.9973593 -0.33044696
0.91849214 -0.16610278 0.043333527 -0.81317633 0.5142389 -0.90373313 0.2368479 0.07230606
0.62285376 0.9495335 0.46319082 -0.89549613 -2.1073422 0.8842901 0.44328904 -1.0123606
-0.71330106 -0.40373403 0.48862287 0.06644281 0.8624537 0.8312899 0.966089 1.0044079
0.031344205 0.7287845 -0.7366609 0.9194398 0.17088625 -0.043897796 0.094842754 0.2050533
0.7922043 0.34247866 -0.61986935 0.6141536 1.0839735 0.81114095 0.09460996 0.65684557
0.43921423 1.0772865 0.6122665 0.10996931 0.14163384 1.3790989 0.66988367 -0.13385303
-0.15135786 0.32190615 0.2247025 1.0275869 0.032886207 0.7651256 0.755451 1.1859555
1.3456062 0.7173338 0.014165845 -0.4017305 -0.11080018 0.39891586 0.36225665 0.039079417
0.06061664 0.1698552 -0.8775145 0.041844573 0.9544257 0.65745634 0.1235364 -0.019468173
-0.009261118 0.82628226 -0.9459423 0.25587943 0.36391583 0.4414933 1.2643737 0.14797427
00000000: 40bb aebe ea99 ba3e 274b 8b3e 6248 b5be
00000010: 4c95 403f dba8 a93e 1be2 d4be 802b 19be
00000020: 26e4 94bf 3dfb e03e 225e 443f f3ce d63e
00000030: 0386 e4bc db25 343e a6bf f0be f7d0 153e
00000040: 9eaf 503e 582c e13e 8893 80bf 7936 513f
00000050: 0d76 0a3f 32a4 003f ffd7 ab3d d5a2 edbe
00000060: e211 4d3e 9e5a 623e 6c72 7abe df8a 983e
00000070: 8a6f a1be 5875 94bf 42f7 733e 7b8a 5e3f
00000080: 1bcd c1bd 0b96 f6be d3d8 3dbe 0050 463f
00000090: 0e04 ef3d e655 093f 94fd b93e 3c7c 263f
000000a0: 4b3a e63e 2254 67bf 3adf a7bd dada 203f
000000b0: e24d 993e c4de 81be 5c31 963f 9943 6b3e
000000c0: dc73 01be b964 73be 5300 0a3d 7e89 23bf
000000d0: 87f7 433f cd63 3dbf 554d 5c3f 3d9c 82bf
000000e0: e0a9 febe 607b 2dbf 42ab 19be afe9 fb3c
000000f0: 3d4e a3be 04de 103f 3174 1a3f 6a76 96bd
00000100: 114d 783f e2ef c93d 88aa 253f e47c be3e
00000110: eb1f 523f c6f5 2c3f 39e1 313f 6566 2c3d
00000120: db0e 2cbd 90fb ba3f e89e 443f 6b93 db3d
00000130: d5d1 5b3e c35d 593f da13 703f 1823 763f
00000140: a789 113f ada8 5b3f 9f3a 9c3f 830c be3e
00000150: 5ed9 6d3e 9fd8 d23f 7686 6f3c 2249 a6be
00000160: ae5a 763e 2e40 3d3e 03f1 be3d 511d 0c40
00000170: f8d7 913e 56b5 bb3e ad78 9fbc 330d e73f
00000180: 57b9 503f b58f ce3f a167 b83e f070 233f
00000190: 8240 a8bf 9c7d 47bd 3803 cebc 56f9 ef3d
000001a0: 5926 97be 478d 463e 86b1 253f 26d0 7cbe
000001b0: 663c 87bf 2068 b13e 6205 58bf de36 783e
000001c0: 69d6 e03e 811b 6f3f 88fb 703f d796 963e
000001d0: cb3e 063f b625 eebe 78a9 ffbf 5830 a9be
000001e0: 4d22 6b3f d916 2abe 7f7e 313d 532c 50bf
000001f0: 29a5 033f 0e5b 67bf 4288 723e 3315 943d
00000200: 5873 1f3f a114 733f 5927 ed3e 3c3f 65bf
00000210: b2de 06c0 d660 623f c8f6 e23e 0895 81bf
00000220: e69a 36bf 3ab6 cebe c72c fa3e 2b13 883d
00000230: c4c9 5c3f 6acf 543f 9c51 773f 7090 803f
00000240: c862 003d 9f91 3a3f cf95 3cbf 6860 6b3f
00000250: cefc 2e3e 2dce 33bd eb3c c23d 7ef9 513e
00000260: e7cd 4a3f 5d59 af3e c2af 1ebf 2c39 1d3f
00000270: a5bf 8a3f efa6 4f3f dec2 c13d 0827 283f
00000280: b0e0 e03e 86e4 893f 7fbd 1c3f 9737 e13d
00000290: 7608 113e 5086 b03f 7f7d 2b3f c510 09be
000002a0: 8efd 1abe e2d0 a43e 6a18 663e f887 833f
000002b0: b0b3 063d 45df 433f 3d65 413f 64cd 973f
000002c0: d33c ac3f 30a3 373f dc17 683c 9faf cdbe
000002d0: 34eb e2bd b33e cc3e b479 b93e bd11 203d
000002e0: 2749 783d 86ee 2d3e caa4 60bf 3765 2b3d
000002f0: 3e55 743f 0f4f 283f a700 fd3d b87b 9fbc
00000300: f2bb 17bc 3c87 533f 4629 72bf a102 833e
00000310: 2d53 ba3e 690b e23e ffd6 a13f 9186 173e

sequential_1/dense_5/MatMul f4 [8, 10]
-0.46074128 0.7896218 0.08130455 0.6105189 0.33276162 -0.6631889 -0.74107176 0.63965046
0.29291528 -0.8597726 0.65741116 -0.058704495 0.19239879 0.7424434 -0.15687072 -0.26741162
0.50745374 -1.4630493 -1.2496371 0.5433334 0.26304886 -0.5966181 -0.53602874 0.91677505
0.39972407 -0.101658955 -0.92835236 -0.15773681 0.6462492 0.5718936 0.825539 0.4838835
-0.23038447 -0.7053832 0.5665033 -0.6991185 -0.97596407 0.8097777 -0.26326686 0.9064142
-0.9229836 -0.8198231 0.94383854 -0.067738414 -3.317944 -0.5199739 1.702968 -1.2502617
-1.62212 -0.9451746 -1.7151017 -1.4830426 1.256088 -2.4321012 -2.9413688 1.4761215
-0.5305634 -0.3784616 -1.584816 -1.3627427 -0.50105745 0.2546989 -0.10404871 -1.4226005
0.42984223 1.4137938 -0.83879364 -0.23808649 0.42481613 0.039344385 1.010665 0.12068473
-1.0678442 0.009135042 -0.501311 0.15330148 0.49760258 0.5774232 -0.48834953 1.3116692
00000000: 48e6 ebbe a724 4a3f 0083 a63d f74a 1c3f
00000010: bb5f aa3e bfc6 29bf e1b6 3dbf 22c0 233f
00000020: fef8 953e 0f1a 5cbf 194c 283f 2074 70bd
00000030: 3004 453e c510 3e3f b8a2 20be 2dea 88be
00000040: 7de8 013f 3345 bbbf 1cf4 9fbf e617 0b3f
00000050: 57ae 863e f7bb 18bf 2e39 09bf c5b1 6a3f
00000060: a2a8 cc3e 9232 d0bd 80a8 6dbf c285 21be
00000070: 9670 253f 9e67 123f 8656 533f 94bf f73e
00000080: e8e9 6bbe fe93 34bf 5c06 113f 6ef9 32bf
00000090: c8d8 79bf 974d 4f3f eaca 86be c30a 683f
000000a0: a748 6cbf eddf 51bf 679f 713f 70ba 8abd
000000b0: 3259 54c0 021d 05bf dbfa d93f 9308 a0bf
000000c0: a1a1 cfbf f6f6 71bf 7488 dbbf 57d4 bdbf
000000d0: 7ec7 a03f 8ca7 1bc0 633f 3cc0 8df1 bc3f
000000e0: 01d3 07bf b8c5 c1be 40db cabf 5a6e aebf
000000f0: 4d45 00bf e567 823e 7d17 d5bd c617 b6bf
00000100: 4814 dc3e 32f7 b43f 2ebb 56bf f2cc 73be
00000110: 8081 d93e 9427 213d 795d 813f 8e29 f73d
00000120: 1eaf 88bf 25ab 153c eb55 00bf 10fb 1c3e
00000130: c4c5 fe3e 02d2 133f f308 fabe c7e4 a73f
