model/keypoint_classifier/keypoint_classifier.tflite (tflite, 6528 bytes, 6 tensors)

sequential/dense/BiasAdd/ReadVariableOp/resource f4 [20]
-0.5365533 -0.51252025 -0.47792917 -1.0036052 -1.4129988 -0.7226272 -0.6020913 -0.3060055
-0.7033612 -0.77473164 -0.7292291 -0.4735816 -0.37138146 -0.21633874 -0.16559067 -0.3081117
-1.0336827 -0.62382585 -0.6576872 -0.50542265
00000000: 8f5b 09bf 8734 03bf 22b3 f4be 2376 80bf
00000010: 25dd b4bf 19fe 38bf a822 1abf c1ac 9cbe
00000020: 7b0f 34bf d054 46bf c2ae 3abf 4a79 f2be
00000030: b625 bebe e787 5dbe 9a90 29be d1c0 9dbe
00000040: b74f 84bf 0db3 1fbf 305e 28bf 6163 01bf

sequential/dense_1/BiasAdd/ReadVariableOp/resource f4 [10]
0.10824694 1.083072 0.4444911 -0.51292366 0.52965045 0.3990553 0.33655974 0.10734564
0.24465996 0.746348
00000000: 92b0 dd3d 1aa2 8a3f 5694 e33e f74e 03bf
00000010: 2c97 073f fa50 cc3e 8f51 ac3e 08d8 db3d
00000020: 2488 7a3e aa10 3f3f

sequential/dense_2/BiasAdd/ReadVariableOp/resource f4 [8]
-0.5595654 -0.015958797 -0.6956968 -0.1363166 0.11784139 0.79116595 -0.082490504 0.9035241
00000000: ae3f 0fbf 06bc 82bc 2f19 32bf 9496 0bbe
00000010: d456 f13d da89 4a3f c8f0 a8bd 5b4d 673f

sequential/dense/MatMul f4 [20, 42]
-0.17048691 0.10232866 0.96344435 0.14950368 0.4370186 0.049438912 0.69448286 0.076879494
0.85207087 0.2163604 0.024335893 -0.03441516 -0.03951774 0.070393555 -0.0501138 0.11294598
-0.052728932 0.042480778 0.012998479 -0.014993803 0.013240432 0.016937274 -0.009201507 0.06750111
-0.0115825115 0.015965817 -0.047809634 -0.12131424 0.07039474 -0.019391488 -0.009408374 0.0331767
-0.06792814 0.058263052 -0.23490833 -0.20543928 -0.23497775 -0.16718386 -0.5284479 -0.18038547
-1.0101998 -0.109539144 0.27307463 0.06658995 -0.04367667 0.4729656 -0.012475302 0.15895158
-0.032493792 0.11631328 -0.07882992 0.07382058 0.039190903 0.09411511 0.025490072 0.037936524
-0.0019459567 0.04025555 0.012511281 0.0024212266 0.047217414 0.0670472 -0.041212637 0.045935463
-0.075454734 0.0108402725 -0.08688011 -0.016596617 0.029434038 0.103920884 -0.055815265 0.033745408
0.16008715 -1.5625827 0.6643692 -0.21908613 -0.06341987 0.10185272 -0.078082755 0.08395475
0.024058972 0.07792576 -0.26715118 0.14413656 0.104937166 0.10413548 0.45653462 -0.022444805
0.25321952 -0.0385165 0.20891766 -0.075878724 0.20724773 -0.0067107826 0.07582023 0.12345141
0.106798075 0.10182669 0.05406413 0.044636585 0.039920043 0.004980452 0.09565524 0.14838967
0.015825164 0.03465665 -0.27592045 -0.11450977 -0.63300073 0.18721628 0.15282285 0.14521523
0.011265739 0.06633234 -0.41938126 -0.012039736 -0.77576196 -0.6930809 0.27252978 0.16295491
0.09155715 0.13478914 -0.13903539 0.13735043 -0.5538488 0.15443103 -0.06701687 -0.048646808
-1.0014948 0.061422147 -0.56283605 -0.040180136 -0.5375299 -0.10483522 -0.27860138 -0.040374454
-0.24135973 -0.26509413 -0.0009290421 -0.17042948 0.057734407 0.021188607 0.07000106 0.0089727435
-0.17143822 -0.15515722 -0.015170977 -0.07155723 0.14840251 0.08021529 0.19188291 0.071551874
0.02711711 -0.17370988 -0.13660343 -0.12374492 0.07702051 0.06474041 0.22283633 0.09407803
0.32119223 -0.2467772 -0.17557965 -0.20271182 -0.26218772 0.0049337624 -0.14901628 0.25549886
-0.13706455 -0.17999814 -0.065408625 0.052375566 -0.066008516 -0.22333811 -0.030138217 -0.2888869
-0.016420024 -0.32156625 -0.074720964 -0.29463926 0.04592881 -0.14404838 0.07911896 0.023125062
0.09730707 0.017734392 -0.16666858 -0.26783532 0.06472583 -0.14335293 -0.0049221315 0.00666363
0.005992793 0.0337296 -0.10661227 -0.3056817 0.08986643 -0.22680606 0.04264343 0.035610396
-0.038675357 0.07640773 0.06578294 -0.28929505 -0.032138355 -0.30386776 0.020393962 -0.22588758
-0.054747112 0.102994226 0.28243554 -0.07904337 -0.7291081 -0.19679013 -0.39117873 -0.06453032
-0.6126254 0.12518577 -1.1782438 0.18653145 0.12820522 -0.079529375 0.06272752 0.042796988
0.045539536 0.0726056 0.048569605 0.01190184 0.09093717 -0.032655224 -0.024699878 0.019066712
0.061098453 0.002459045 0.093506314 -0.059075534 0.112763084 -0.05905579 -0.106795534 -0.001828704
0.07105203 -0.039866507 0.1675005 -0.07870061 0.2008332 -0.14239287 -0.03461174 -0.1760002
0.30303267 -0.20226933 0.5259853 -0.081711836 -0.11527835 -0.06329152 -0.34935066 -0.01521803
00000000: 1f94 2ebe b091 d13d 4aa4 763f 7e17 193e
00000010: e7c0 df3e 7580 4a3d a1c9 313f ff72 9d3d
00000020: 5121 5a3f 958d 5d3e 115c c73c e9f6 0cbd
00000030: 5bdd 21bd 7f2a 903d 2144 4dbd 3950 e73d
00000040: 4bfa 57bd 5300 2e3d 93f7 543c 91a8 75bc
00000050: 66ee 583c 0ac0 8a3c ebc1 16bc 063e 8a3d
00000060: 93c4 3dbc bfca 823c 09d4 43bd 9a73 f8bd
00000070: 1e2b 903d e6da 9ebc 9525 1abc 4be4 073d
00000080: e91d 8bbd 3da5 6e3d cf8b 70be ad5e 52be
00000090: 029e 70be 3f32 2bbe 5d48 07bf f8b6 38be
000000a0: 3a4e 81bf 0f56 e0bd 70d0 8b3e 5060 883d
000000b0: 4fe6 32bd 8c28 f23e 3665 4cbc 34c4 223e
000000c0: 3618 05bd a835 ee3d 9571 a1bd 3f2f 973d
000000d0: a486 203d 6cbf c03d 8ed0 d03c 5463 1b3d
000000e0: 790f ffba 01e3 243d 1efc 4c3c 71ad 1e3b
000000f0: 0c67 413d 0b50 893d 95ce 28bd d326 3c3d
00000100: 0388 9abd 669b 313c 33ee b1bd a1f5 87bc
00000110: a71f f13c 79d4 d43d 8c9e 64bd a038 0a3d
00000120: e3ed 233e b602 c8bf 1a14 2a3f 1d58 60be
00000130: 47e2 81bd 2998 d03d dae9 9fbd 78f0 ab3d
00000140: 5217 c53c 8a97 9f3d 0ac8 88be 8998 133e
00000150: 4ce9 d63d fc44 d53d e8be e93e 2bde b7bc
00000160: fda5 813e 7ac3 1dbd 83ee 553e 4e66 9bbd
00000170: c038 543e 20e6 dbbb a347 9b3d 18d4 fc3d
00000180: f3b8 da3d 838a d03d 5972 5d3d dad4 363d
00000190: 3383 233d 0f33 a33b e5e6 c33d 76f3 173e
000001a0: c6a3 813c 22f4 0d3d 7245 8dbe 1984 eabd
000001b0: 560c 22bf a0b5 3f3e 987d 1c3e 4db3 143e
000001c0: ef93 383c 40d9 873d 24b9 d6be 5042 45bc
000001d0: 5698 46bf c06d 31bf 0689 8b3e a7dd 263e
000001e0: 5182 bb3d 2a06 0a3e 4b5f 0ebe 97a5 0c3e
000001f0: 09c9 0dbf 2b23 1e3e 2440 89bd e041 47bd
00000200: fb30 80bf ca95 7b3d 0616 10bf ed93 24bd
00000210: 8f9b 09bf d9b3 d6bd d7a4 8ebe af5f 25bd
00000220: 0127 77be 6bba 87be f68a 73ba 1185 2ebe
00000230: ea7a 6c3d bb93 ad3c b75c 8f3d 6a02 133c
00000240: 808d 2fbe 89e1 1ebe b18f 78bc 998c 92bd
00000250: d4f6 173e ea47 a43d f47c 443e ca89 923d
00000260: b424 de3c 01e1 31be c5e1 0bbe fa6d fdbd
00000270: eebc 9d3d 9f96 843d 352f 643e fbab c03d
00000280: 4f73 a43e 2ab3 7cbe 27cb 33be b093 4fbe
00000290: 783d 86be 66ab a13b b997 18be bfd0 823e
000002a0: a65a 0cbe 6f51 38be f5f4 85bd c387 563d
000002b0: 792f 87bd bfb2 64be 6ce4 f6bc fce8 93be
000002c0: 4983 86bc 55a4 a4be 4e07 99bd f5da 96be
000002d0: d91f 3c3d 6b81 13be 1f09 a23d c570 bd3c
000002e0: ee48 c73d b747 913c 2bab 2abe b621 89be
000002f0: fa8e 843d 1ccb 12be d549 a1bb 945a da3b
00000300: 315f c43b 0d28 0a3d 8957 dabd 5082 9cbe
00000310: e40b b83d d93f 68be e1aa 2e3d 35dc 113d
00000320: 0d6a 1ebd a87b 9c3d 35b9 863d 7b1e 94be
00000330: 82a3 03bd 8e94 9bbe 3d11 a73c 134f 67be
00000340: 823e 60bd a3ee d23d 649b 903e 7ee1 a1bd
00000350: d4a6 3abf 5a83 49be 9448 c8be 7928 84bd
00000360: 05d5 1cbf b330 003e b1d0 96bf 1a02 3f3e
00000370: 3b48 033e 4ce0 a2bd 4977 803d e54b 2f3d
00000380: aa87 3a3d 3fb2 943d ecf0 463d efff 423c
00000390: 443d ba3d 7cc1 05bd 6657 cabc cb31 9c3c
000003a0: 5f42 7a3d ee27 213b 3d80 bf3d 30f9 71bd
000003b0: 55f0 e63d 7ce4 71bd 9eb7 dabd 20b1 efba
000003c0: ba83 913d 104b 23bd 4085 2b3e c92d a1bd
000003d0: 38a7 4d3e 70cf 11be 0ac5 0dbd 6539 34be
000003e0: 1927 9b3e b11f 4fbe f9a6 063f 8958 a7bd
000003f0: 0e17 ecbd fc9e 81bd 17de b2be 0b55 79bc

sequential/dense_1/MatMul f4 [10, 20]
0.7518272 -0.018101567 0.54235476 0.43176776 0.12587224 0.64328504 0.8052744 0.3254783
0.4424422 0.06457387 0.35182825 0.50993377 0.2506648 -0.017120102 0.09386438 -0.04915027
0.48200378 1.0580531 -0.033205755 -0.016592976 -0.29066747 -1.1339711 -0.093018614 0.024330724
0.47147572 -0.089977585 -0.5128012 -1.198283 -1.4495292 -1.3125657 -1.3318086 0.06923199
0.2811042 0.56293404 0.42042395 0.18722731 0.16363929 0.15777041 0.22573274 0.41156623
-0.17313574 0.18125696 -0.08445374 0.35495314 0.77523386 -0.2556678 -0.21333875 0.020534743
0.07793289 0.13836086 0.037910238 0.94510686 1.1943983 -0.26270488 -0.6938803 -0.083494
0.3070596 -0.004307696 1.4805592 1.2469425 0.45641735 0.35098526 0.7759773 0.16253388
0.20714922 0.22034243 -0.15298943 0.34872016 0.35996276 0.27210414 0.64583004 -0.9096999
0.1878586 0.7591636 -0.9043556 0.5213612 0.22415064 0.4669886 0.548784 0.6679471
-0.021056762 0.100584455 0.19030558 -0.16795947 -0.38736156 0.0831995 0.46856248 0.050390467
-0.020908928 0.1264138 -0.26450425 1.1540127 1.1431476 0.35498226 0.4828115 -0.100830995
-0.13507906 -0.1656405 0.34678286 1.0192058 0.31882077 0.96721876 0.7916179 -0.30959022
0.43359184 0.030238867 0.5422614 1.1792378 0.6895323 0.8190729 0.7369248 -0.12564045
0.033034693 0.96274734 -0.42083886 0.4560364 -0.6902062 0.8799111 -0.1161068 -0.036214415
1.0776086 0.22546929 -0.46279246 1.329805 1.4150028 1.2542562 -0.3127783 -0.24762163
0.63158476 0.3191202 0.20051141 -0.093643166 0.18752457 -0.1574487 -0.75078505 0.0035065205
1.4608412 0.9238323 0.20732927 0.051536337 0.23539722 0.8912214 -0.55923873 0.3962972
1.0464307 0.3193603 -0.307325 1.0249354 1.4395385 0.66861635 1.4444023 0.038948026
-0.13682584 0.013831514 0.660129 -0.042081133 0.7567375 0.9592789 0.066107884 0.081520185
-0.206389 0.77296954 0.10104662 -0.24484286 -0.01701817 -0.17332685 -0.59208065 0.81967866
0.35988516 0.68546057 0.5042312 0.5552813 0.5046241 0.8369422 0.17872351 0.90878934
-0.0656299 0.31194562 0.73089594 0.6578201 0.5258881 -1.196175 -0.3598633 0.37151757
0.21800603 0.47628862 -1.1110502 -1.9578205 0.11727076 -0.5334689 -0.010622454 0.1301287
0.088243 -2.7031689 -0.23578143 -1.6891736 0.55860347 -0.39581373 0.40983653 0.1965834
00000000: bf77 403f bd49 94bc c3d7 0a3f aa10 dd3e
00000010: a7e4 003e 54ae 243f 7726 4e3f 17a5 a63e
00000020: c987 e23e 4e3f 843d d522 b43e 058b 023f
00000030: 2357 803e 753f 8cbc f83b c03d cb51 49bd
00000040: 33c9 f63e 496e 873f c202 08bd feed 87bc
00000050: 5ed2 94be f725 91bf 8b80 bebd 3a51 c73c
00000060: 4465 f13e 2b46 b8bd f046 03bf 5661 99bf
00000070: 2c8a b9bf 2702 a8bf b478 aabf 80c9 8d3d
00000080: e4ec 8f3e 721c 103f cf41 d73e 84b8 3f3e
00000090: 0f91 273e 918e 213e 7c26 673e cfb8 d23e
000000a0: 7f4a 31be 6d9b 393e 15f6 acbd 6bbc b53e
000000b0: ba75 463f e4e6 82be 7975 5abe 7a38 a83c
000000c0: 479b 9f3d 78ae 0d3e c447 1b3d 86f2 713f
000000d0: 0be2 983f 4181 86be 24a2 31bf e7fe aabd
000000e0: ea36 9d3e 9327 8dbb f782 bd3f d09b 9f3f
000000f0: 89af e93e 57b4 b33e 73a6 463f 486f 263e
00000100: ed1e 543e 72a1 613e 43a9 1cbe 738b b23e
00000110: 0a4d b83e 3c51 8b3e 1e55 253f 18e2 68bf
00000120: 015e 403e 8c58 423f d983 67bf ed77 053f
00000130: bf87 653e 2119 ef3e 1c7d 0c3f 95fe 2a3f
00000140: 3b7f acbc 39ff cd3d 77df 423e 91fd 2bbe
00000150: 4154 c6be 8064 aa3d 6ce7 ef3e 3c66 4e3d
00000160: 3349 abbc 9f72 013e 1a6d 87be b0b6 933f
00000170: a952 923f 3cc0 b53e 1233 f73e 7b80 cebd
00000180: 2a52 0abe aa9d 29be 868d b13e 5675 823f
00000190: 7a3c a33e a69b 773f 78a7 4a3f 9c82 9ebe
000001a0: c0ff dd3e 80b7 f73c a5d1 0a3f 44f1 963f
000001b0: 3085 303f c3ae 513f 1ba7 3c3f e4a7 00be
000001c0: 634f 073d 9c76 763f 3178 d7be 9a7d e93e
000001d0: 5bb1 30bf db41 613f 67c9 edbd 9155 14bd
000001e0: 14ef 893f 6ce1 663e 22f3 ecbe 0d37 aa3f
000001f0: d01e b53f 788b a03f 7a24 a0be 8690 7dbe
00000200: 8aaf 213f b963 a33e dd52 4d3e fdc7 bfbd
00000210: 7106 403e 3b3a 21be 7333 40bf a7cd 653b
00000220: d8fc ba3f 4680 6c3f 204e 543e c417 533d
00000230: f80b 713e 1627 643f 452a 0fbf 77e7 ca3e
00000240: 71f1 853f 3183 a33e b459 9dbe 1531 833f
00000250: cc42 b83f 712a 2b3f 2de2 b83f f787 1f3d
00000260: 131c 0cbe 939d 623c 37fe 283f 445d 2cbd
00000270: 8cb9 413f 4d93 753f 9263 873d 0ef4 a63d
00000280: a357 53be 55e1 453f 88f1 ce3d 16b8 7abe
00000290: b069 8bbc 987c 31be 9992 17bf 76d6 513f
000002a0: de42 b83e 587a 2f3f 4c15 013f ea26 0e3f
000002b0: 0c2f 013f d841 563f 4c03 373e 6ba6 683f
000002c0: f868 86bd 56b7 9f3e ff1b 3b3f e666 283f
000002d0: 9aa0 063f 431c 99bf 0140 b8be 8d37 be3e
000002e0: f93c 5f3e 1adc f33e e536 8ebf dd99 fabf
000002f0: a72b f03d 6b91 08bf cd09 2ebc 7540 053e
00000300: bfb8 b43d b800 2dc0 b070 71be d736 d8bf
00000310: a300 0f3f 19a8 cabe 18d6 d13e 294d 493e

sequential/dense_2/MatMul f4 [8, 10]
0.7090724 -0.46779612 -0.23405164 0.91000813 0.6466396 0.051231906 -0.37112594 0.5248393
0.40217862 -0.39239016 0.52269244 -0.5341537 0.75268775 -1.4261674 0.056967486 -0.7966205
0.4054586 -0.74829865 -0.41999218 0.9642009 -0.3538193 -0.90859 0.8791949 0.9359996
-0.93353313 -0.11113824 0.5904544 0.48486885 0.33583605 -0.8825959 0.06985806 -0.34941775
-1.8818661 0.30670378 -0.40221193 1.0724642 -0.15931769 0.48306087 0.1305529 -0.5291076
-0.5023676 0.85155684 0.7393267 -0.21557964 0.49499616 -1.9508785 -0.62010044 -1.2422369
-0.58316654 1.1687598 -1.611052 0.8875555 0.09360858 -0.33594143 0.75666267 -0.2623165
-2.2644665 -2.6640348 0.9163034 -0.54250246 -0.7784518 -0.6983893 0.6490943 -0.10975078
0.33982116 0.8811208 -1.6931106 -0.17937922 0.84920156 -0.63851655 0.2776385 -0.43903095
0.31906515 -0.99317604 -1.4722863 -0.16883853 0.35638908 0.6650645 -0.63348925 0.21558489
00000000: c585 353f f982 efbe 3cab 6fbe 4bf6 683f
00000010: 2c8a 253f 8cd8 513d 3804 bebe de5b 063f
00000020: 5bea cd3e 5de7 c8be 2ccf 053f 4cbe 08bf
00000030: 25b0 403f a78c b6bf bd56 693d 52ef 4bbf
00000040: 4598 cf3e 8090 3fbf 3709 d7be dfd5 763f
00000050: ce27 b5be 5b99 68bf eb12 613f ab9d 6f3f
00000060: 07fc 6ebf 729c e3bd 0528 173f bb40 f83e
00000070: b4f2 ab3e cef1 61bf be11 8f3d e2e6 b2be
00000080: fde0 f0bf 4708 9d3e b9ee cdbe 8246 893f
00000090: 2d24 23be c153 f73e a9af 053e 9873 07bf
000000a0: 2a9b 00bf a1ff 593f 8444 3d3f e9c0 5cbe
000000b0: 2370 fd3e 63b6 f9bf e7be 1ebf 9e01 9fbf
000000c0: 674a 15bf ec99 953f f436 cebf d636 633f
000000d0: dbb5 bf3d 8400 acbe a5b4 413f 594e 86be
000000e0: 05ed 10c0 8c7f 2ac0 dc92 6a3f 71e1 0abf
000000f0: 9e48 47bf a4c9 32bf 0b2b 263f 04c5 e0bd
00000100: 0afd ad3e 2291 613f d9b7 d8bf 30af 37be
00000110: 4665 593f d275 23bf a226 8e3e aac8 e0be
00000120: 825c a33e c940 7ebf e173 bcbf 02e4 2cbe
00000130: a178 b63e ab41 2a3f 5a2c 22bf 49c2 5c3e
