model/oldModel/3.29keypointModel/keypoint_classifier.tflite (tflite, 6592 bytes, 6 tensors)

sequential_6/dense_18/BiasAdd/ReadVariableOp/resource f4 [20]
0	0x3f1fc825	0.6241477
1	0xbf89a7c3	-1.0754322
2	0x3f613496	0.87970865
3	0xbf017cd3	-0.5058109
4	0x3d4990a9	0.049210224
5	0xbeed1e94	-0.46312392
6	0xbf1ef46a	-0.62091696
7	0xbf240de7	-0.64083713
8	0xbf797349	-0.97441536
9	0xbe929ec0	-0.28636742
10	0xbf0bc301	-0.5459443
11	0xbea271b4	-0.31727374
12	0xbf6444a5	-0.89167243
13	0xbf7240a2	-0.9462987
14	0xbec4a949	-0.38410404
15	0xbf07b521	-0.53010756
16	0x3eba3c8c	0.3637432
17	0xbf87ae50	-1.0600071
18	0xbf0eb322	-0.55742085
19	0xbfa70e51	-1.3051244

sequential_6/dense_19/BiasAdd/ReadVariableOp/resource f4 [10]
0	0x3ecf23c0	0.40456963
1	0x3f0de421	0.5542622
2	0x3ebdb25b	0.37050137
3	0x3f2a4f9b	0.6652772
4	0xbe23d8ad	-0.16000624
5	0x3edec765	0.435115
6	0xbd73bbc4	-0.05950524
7	0x3f360f42	0.7111703
8	0x3ef640f0	0.48096418
9	0xbe4a5d04	-0.19762045

sequential_6/dense_20/BiasAdd/ReadVariableOp/resource f4 [8]
0	0xbea0abbc	-0.31381023
1	0x3f253eec	0.64549136
2	0xbf1195d4	-0.56869245
3	0x3ebacbee	0.3648371
4	0x3f032e28	0.51242304
5	0x3daa2b67	0.083090596
6	0xbc3eacc2	-0.011637868
7	0xbf21b047	-0.631596

sequential_6/dense_18/MatMul f4 [20, 42]
0	0xbdd00b8e	-0.10158454
1	0xbe091c7b	-0.1338977
2	0xbdd6779d	-0.10472033
3	0xbf28d213	-0.6594555
4	0x3d3e3b06	0.046443008
5	0xbec49432	-0.38394314
6	0x3d23090d	0.039803553
7	0x3d2a59b8	0.04158947
8	0x3e30ef10	0.17278695
9	0xbdae928c	-0.08524045
10	0x3e6a8595	0.2290252
11	0xbebb9e4f	-0.36644217
12	0x3e108f8c	0.14117259
13	0xbcc41dae	-0.023939934
14	0xbc2ff4ed	-0.010739547
15	0x3d7f26f6	0.062293015
16	0xbd85b7ad	-0.06529174
17	0xbcc91690	-0.024546891
18	0x3f0d23f3	0.5513298
19	0xbf08930f	-0.53349394
20	0xbcd8a65c	-0.026446514
21	0x3e9fe694	0.31230605
22	0xbe07028c	-0.13184565
23	0x3ef29402	0.47378546
24	0xbd9f4436	-0.07776682
25	0x3e5a5b28	0.21323836
26	0x3f26133a	0.6487309
27	0xbe996d1e	-0.29966062
28	0x3db2d140	0.087313175
29	0x3e8b2b94	0.27181685
30	0xbe7602c6	-0.24024495
31	0x3eed6129	0.4636319
32	0xbe807fd9	-0.2509754
33	0x3eba3834	0.36371005
34	0x3f3f2f8d	0.7468193
35	0xbdb848bd	-0.08998249
36	0x3e00aab0	0.12565112
37	0x3e817ec2	0.2529202
38	0xbe18e0f8	-0.14929569
39	0x3ef22727	0.47295496
40	0xbe0d8338	-0.13819587
41	0x3ee0dad1	0.43916944
42	0xbc0e57e0	-0.008687943
43	0x3e61dd74	0.22057134
44	0x3e82d08b	0.2554973
45	0x3e843dd0	0.2582841
46	0xbcc72616	-0.024310153
47	0x3dbac39e	0.09119342
48	0xbdb41186	-0.08792405
49	0xbc456ce6	-0.012049889
50	0xbd2a9c34	-0.041652873
51	0xbd230ca7	-0.039806988
52	0x3dba7435	0.09104196
53	0xbea82d57	-0.32847092
54	0xbd6e4779	-0.05817363
55	0xbe6fec27	-0.23429929
56	0xbd531fc2	-0.05154396
57	0xbd10facd	-0.035395432
58	0x3cb3d654	0.021952786
59	0x3d4ef4ad	0.05052631
60	0x3ea9b9be	0.33149523
61	0xbebd6c5c	-0.36996734
62	0xbd892650	-0.06696761
63	0xbeb6a6c8	-0.3567412
64	0x3c91acd7	0.017782612
65	0x3d43c29a	0.04779301
66	0x3d754453	0.059879612
67	0xbc89467b	-0.01675724
68	0x3dfa6522	0.12226321
69	0xbe7d52ac	-0.24738568
70	0xb9fad49c	-0.00047842122
71	0xbe4207bd	-0.18948264
72	0x3d93b23e	0.072117314
73	0x3de12280	0.109929085
74	0x3de49571	0.11161316
75	0x3da8fdae	0.082515106
76	0x3dbab155	0.09115855
77	0xbed4a023	-0.41528425
78	0xbdd69635	-0.104778685
79	0xbea72588	-0.32645822
80	0x3aaa6b6d	0.0013001986
81	0x3c472891	0.012155668
82	0x3d902e66	0.070401
83	0x3e4ddcb8	0.20103729
84	0xbe97aa66	-0.2962219
85	0x3d828558	0.063730896
86	0xbe79c4a5	-0.2439142
87	0xbe53a0e8	-0.2066685
88	0xbdb19f6b	-0.08672985
89	0x3e8f0d08	0.2793963
90	0xbc47f9f3	-0.012205589
91	0x3e7ac4e0	0.24489164
92	0x3e143b42	0.1447573
93	0x3e07a08a	0.13244835
94	0xbec2bac2	-0.3803311
95	0xbd4b7d26	-0.049679898
96	0xbd449bbb	-0.04800008
97	0xbe0702e6	-0.131847
98	0x3d9e99a4	0.077441484
99	0xbe95fc38	-0.2929399
100	0x3e2bbf51	0.167722
101	0xbe688906	-0.2270852
102	0xbe955af6	-0.2917096
103	0xbb931c88	-0.004489485
104	0x3cfafb46	0.030637395
105	0x3e61437b	0.21998398
106	0x3dab1ca5	0.08355073
107	0x3ed624e8	0.41825032
108	0x3e21a6c9	0.1578628
109	0x3e38bb4b	0.18040197
110	0xbe730f66	-0.23736343
111	0xbd46a9bc	-0.048501715
112	0x3d5358fb	0.05159853
113	0x3e5f77b5	0.21823008
114	0x3d1de4e4	0.038548365
115	0x3ec050b4	0.37561572
116	0x3a77e23a	0.00094560126
117	0x3e9fd3a1	0.31216148
118	0xbdbc616e	-0.09198271
119	0xbc0089ca	-0.0078453515
120	0xbd2f76fb	-0.042838078
121	0x3e6fdab6	0.23423275
122	0xbc4e4a3d	-0.012590942
123	0x3eab240e	0.33425945
124	0xbd9edee9	-0.077573605
125	0x3e9ffd55	0.31247965
126	0x3e89f7b8	0.26946807
127	0xbe384a4c	-0.17997092
128	0xbded2e80	-0.11581135
129	0x3e885cbf	0.2663326
130	0xbd6b9cf1	-0.057522718
131	0x3d578ce4	0.0526246
132	0xbcc89397	-0.024484439
133	0x3ca36dd1	0.019949825
134	0xbce0a905	-0.027424345
135	0x3d0c3ca4	0.03423752
136	0xbdb614a0	-0.08890653
137	0x3dbb0fe0	0.09133887
138	0x3b83bee1	0.0040205573
139	0x3d40840c	0.04700093
140	0x3c36996a	0.011144975
141	0x3dcd1bda	0.10015078
142	0x3d092c35	0.033489425
143	0x3dd9dcf0	0.106378436
144	0xbdcf11d6	-0.10110824
145	0x3dc26f93	0.09493937
146	0xbcf9b25e	-0.03048056
147	0x3d3e5863	0.04647101
148	0x3c24dc51	0.010062293
149	0x3dcf18e1	0.10112167
150	0x3da6594f	0.08122503
151	0xbfc27332	-1.5191405
152	0x3c60eba6	0.013728058
153	0x3d9e73ac	0.077369064
154	0xbcd60d99	-0.02612953
155	0x3d9f71ba	0.077853635
156	0xbc1c032c	-0.009522241
157	0x3df6fcc8	0.12059933
158	0xbd99f59a	-0.07517548
159	0x3dccecda	0.10006113
160	0x3c2aca69	0.010424235
161	0x3ccdf181	0.025139572
162	0xbc90dac3	-0.017682439
163	0x3d758466	0.059940718
164	0xbda233fd	-0.07920072
165	0x3e02f720	0.12789583
166	0xbc1d8b89	-0.009615787
167	0x3de62d24	0.11239079
168	0x3df8a790	0.12141335
169	0x3e7cb3c0	0.24677944
170	0xbe6e67d9	-0.23281802
171	0xbf50c3ee	-0.81548965
172	0xbd18c5d1	-0.037298027
173	0xbf534ed8	-0.8254218
174	0x3c4b45ca	0.012406776
175	0xbe80d4b7	-0.2516229
176	0x3d9bc201	0.07605363
177	0xbf4f7d13	-0.81050223
178	0xbe6b811d	-0.22998472
179	0xbd0b5a32	-0.034021564
180	0xbe0835d7	-0.13301788
181	0xbd7889ed	-0.06067841
182	0xbdab8dc5	-0.0837665
183	0x3d7cb78c	0.06169848
184	0xbcee23e6	-0.029069852
185	0x3d92c794	0.07166973
186	0xbdc8e8e8	-0.09810048
187	0x3c467c1a	0.012114549
188	0x3d1b1076	0.037857495
189	0xbc563def	-0.01307629
190	0xbd8e0c36	-0.06935923
191	0x3cd4c624	0.025973387
192	0xbe189ffe	-0.14904782
193	0xbde0908d	-0.10965071
194	0x3dc40db0	0.09572923
195	0x3e03d44f	0.12873958
196	0x3da18e1d	0.07888434
197	0x3d7c69c2	0.061624296
198	0x3d62b61c	0.055349454
199	0x3e6f7227	0.2338339
200	0x3bef5983	0.007304372
201	0x3e858e52	0.26085144
202	0x3e2e3638	0.1701287
203	0x3e1206f7	0.1426047
204	0x3e1f57bc	0.15560812
205	0x3e0c0b0f	0.13676094
206	0x3e1151a8	0.14191306
207	0x3e95cc9c	0.29257667
208	0x3d52bb29	0.05144802
209	0x3ed0a1e4	0.40748513
210	0x3e2aa5f4	0.16664869
211	0xbe51bf0e	-0.20483038
212	0xbd378ca0	-0.044811845
213	0x3f1a2da5	0.602259
214	0xbce560c5	-0.028000245
215	0x3e8725fe	0.26396173
216	0x3c82aee9	0.015952544
217	0x3e1f3ff1	0.15551735
218	0x3b87a74b	0.004139816
219	0x3db6611c	0.08905241
220	0x3ccae918	0.02476935
221	0x3dd83af2	0.10558118
222	0x3c7b3c36	0.01533418
223	0x3db9469f	0.09046673
224	0x3c7d3ded	0.015456659
225	0x3d91c2f3	0.07117262
226	0xbbcd4b89	-0.006265108
227	0xbfbb187d	-1.4616848
228	0x3cf072f3	0.029351687
229	0x3dd2948b	0.102822386
230	0x3c95b45e	0.018274482
231	0x3d93fe73	0.07226267
232	0xbbd76cb6	-0.0065742387
233	0x3d2d00f1	0.042237226
234	0xbd344879	-0.044014428
235	0x3d4e444a	0.050358094
236	0x3d29eb66	0.04148426
237	0x3db7709f	0.08957028
238	0x3d043f26	0.032286786
239	0x3d919385	0.07108215
240	0xbd0933c9	-0.03349665
241	0x3d22e3db	0.03976808
242	0xbd9c2e78	-0.07626051
243	0x3c3aa20e	0.011391176
244	0xbb134057	-0.002246877
245	0x3db8448f	0.089974515
246	0x3cb7b8c0	0.022426963
247	0x3dada683	0.08479025
248	0xbb260b20	-0.002533622
249	0x3ccbad54	0.024862923
250	0xbd1b7f79	-0.037963364
251	0x3c0d181e	0.008611707
252	0x3e82a880	0.2551918
253	0x3e3aba92	0.18235233
254	0x3f1f5a79	0.62247425
255	0x3e23be27	0.15990506

sequential_6/dense_19/MatMul f4 [10, 20]
0	0x3f14dfa2	0.58153737
1	0x3c90dff2	0.01768491
2	0x3f503154	0.8132527
3	0x3ea4dc52	0.3219934
4	0x3e205810	0.15658593
5	0x3fd89491	1.6920339
6	0x3a4a2ca0	0.0007712338
7	0xbec194aa	-0.37808734
8	0xbef4d4ce	-0.47818607
9	0xbdb0b6b4	-0.08628598
10	0x3d6bacf2	0.05753798
11	0xbf42bbcc	-0.76067805
12	0x3e405ccb	0.18785398
13	0xbe4e85d4	-0.20168239
14	0xbe029d43	-0.12755303
15	0x3e7c4856	0.24636969
16	0x3f25f25b	0.6482293
17	0xbde4f338	-0.11179203
18	0x3d6e6778	0.058204144
19	0x3e6a69b0	0.22891879
20	0x3ec85fec	0.39135683
21	0x3ee81686	0.45329684
22	0x3d82f3f3	0.06394186
23	0x3b9f205b	0.004856152
24	0x3d0c539a	0.034259416
25	0x3fd16f4f	1.6362094
26	0xbd4189d9	-0.047250602
27	0x3bf15c63	0.0073657497
28	0xbd78cbc3	-0.060741197
29	0xbd0865b7	-0.033300128
30	0x3d3f7063	0.04673804
31	0x3e1bb478	0.15205562
32	0x3dba996e	0.09111296
33	0xbd8c67f1	-0.06855763
34	0xbd12b8d2	-0.03582079
35	0x3d65ecae	0.05613392
36	0x3f07148e	0.5276574
37	0xbec34844	-0.38141072
38	0x3e0e05ff	0.13869475
39	0x3d205408	0.03914264
40	0xbe50c8ec	-0.20389146
41	0x3f0245ef	0.5088796
42	0xbec2116a	-0.3790391
43	0x3fb5d246	1.4204795
44	0xbcd60df2	-0.026129697
45	0x3c752983	0.01496351
46	0x3c07cc97	0.008288524
47	0x3f2c4bdc	0.6730325
48	0x3ed4dac9	0.4157317
49	0x3dc400f9	0.09570498
50	0x3cf52d93	0.029928958
51	0x3e43fd2d	0.19139548
52	0x3f6a1f35	0.9145387
53	0xbdada4d1	-0.08478702
54	0x3ed8db61	0.42354873
55	0x3fa0d660	1.2565422
56	0xbec530ab	-0.38513693
57	0x3f629d8f	0.88521665
58	0x3f6256ef	0.884139
59	0x3f4a26d9	0.78965527
60	0xbdad0ef2	-0.08450116
61	0x3d46446c	0.048405096
62	0x3eae9210	0.34095812
63	0x3fd5bdbc	1.6698527
64	0x3e398e43	0.18120675
65	0x3f2eb946	0.68251455
66	0xbcb4eb18	-0.022084758
67	0xbeb334ad	-0.35001126
68	0xbe734deb	-0.23760192
69	0x3d92de88	0.07171351
70	0xbbc0ffcf	-0.0058898698
71	0x3d7a1f9a	0.061065294
72	0xbf0b0356	-0.54301965
73	0xbdb3419c	-0.08752748
74	0x3e7982ef	0.24366353
75	0x3fc57f86	1.5429542
76	0xbf8c8b24	-1.0979962
77	0xbe5f37d7	-0.21798645
78	0x3dc0a2ac	0.09406027
79	0x3e3308b3	0.17483787
80	0x3db4f885	0.08836464
81	0x3e03523c	0.12824339
82	0xbd88755e	-0.06663011
83	0x3ee449bd	0.44587508
84	0x3ed69229	0.41908386
85	0xbd92df62	-0.07171513
86	0x3dc02891	0.093827374
87	0x3f9e6e39	1.2377387
88	0xbc79a50b	-0.015237103
89	0x3ebb8f61	0.36632827
90	0x3e02b2dd	0.12763543
91	0x3e1cc616	0.15309939
92	0x3f9c26a8	1.2199297
93	0x3deb1bcb	0.114799105
94	0x400f20b1	2.2363703
95	0x3ed59a81	0.4171944
96	0x3e915b13	0.28389797
97	0x3f209f3e	0.62742984
98	0x3fbe8a74	1.4886003
99	0x3f1ffe77	0.6249766
100	0x3ec13b4c	0.37740552
101	0x3e873cc4	0.26413548
102	0x3f7ea98c	0.9947746
103	0xbe9f92fc	-0.31166828
104	0x3e051162	0.12994912
105	0x3eee3c46	0.4653036
106	0x3ec3f342	0.38271528
107	0x3ea15ea4	0.31517518
108	0x3f83a4e2	1.0284693
109	0x3f1074c1	0.5642815
110	0x3fa87bdc	1.3162799
111	0x3fafb562	1.3727229
112	0x3e3e4c3e	0.18583772
113	0x3f687b77	0.9081339
114	0xbeec3d7c	-0.4614066
115	0xbe841d1c	-0.2580346
116	0x3f1a74a8	0.60334253
117	0x3f84b457	1.0367535
118	0x3edf36bd	0.4359645
119	0x3e840afd	0.25789633
120	0x3e9e6bcb	0.30941615
121	0x3f3f1a06	0.74649084
122	0xbe47e1bc	-0.19519705
123	0xbefa5338	-0.48891616
124	0x3e900a41	0.28132823
125	0xbf16a44a	-0.58844435
126	0xbe91683b	-0.28399834
127	0xbe087ee6	-0.13329658
128	0x3f2940e7	0.6611466
129	0x3ef1f487	0.47256872
130	0xbea2bd91	-0.31785253
131	0xbeb2d040	-0.34924507
132	0x3e52602a	0.20544496
133	0x3f12aa51	0.5729113
134	0xbcc0a7e3	-0.023517555
135	0xbe74362e	-0.23848793
136	0xbd1b4582	-0.037908085
137	0x3e6c27bb	0.23062031
138	0x3ea0ed7a	0.3143118
139	0x3e39b7b5	0.18136485
140	0x3f47faaa	0.7811686
141	0x3f06d261	0.5266476
142	0x3f479874	0.77967
143	0xbe455508	-0.19270718
144	0x3f46fc1a	0.77728426
145	0xbf3216f2	-0.6956626
146	0x3eec9d7c	0.462139
147	0xbf015e60	-0.5053463
148	0x3d8a33b2	0.06748141
149	0x3f6e6037	0.9311556
150	0xbddfb499	-0.10923118
151	0x3e8c9ccd	0.2746338
152	0xbd6f9622	-0.058492787
153	0x3ea164f4	0.31522334
154	0xbf82b2d9	-1.021083
155	0xbdc70a91	-0.09718812
156	0x3f5e2246	0.8677105
157	0xbe2bff5d	-0.16796632
158	0x3d7d5dc5	0.061857004
159	0x3e9da065	0.30786434
160	0x3e8c417b	0.27393708
161	0x3d9c3936	0.076280996
162	0x3c6f0c52	0.01459034
163	0x3e9ae314	0.30251372
164	0x3cd68210	0.026185066
165	0x3d566c97	0.052349653
166	0x3d617d49	0.05505112
167	0xbd426da4	-0.047467843
168	0xbf10c7e4	-0.5655501
169	0xbf5c9fd6	-0.8618139
170	0xbf72391b	-0.94618386
171	0xbf4258e5	-0.7591689
172	0x3dccd17f	0.10000896
173	0xbf3626a8	-0.71152735
174	0x3e387286	0.18012437
175	0x3e2c6114	0.16833907
176	0xbd817480	-0.06321049
177	0xbf82faad	-1.023275
178	0x3dc5434a	0.09631975
179	0x3dd55b39	0.1041779
180	0x3f4e4e19	0.8058792
181	0x3f64e7c5	0.8941615
182	0xbd5ec067	-0.054382708
183	0xbe62062a	-0.22072664
184	0xbee7dadd	-0.45284167
185	0x3e943275	0.28944746
186	0x3f8118a1	1.0085641
187	0x3f1cb44d	0.6121262
188	0xbf3ef478	-0.7459178
189	0xbf45ed8b	-0.77315587
190	0x3d9d3982	0.07676984
191	0xbebeb33b	-0.37246117
192	0xbd3adb54	-0.045619324
193	0x3f3a4aa5	0.7277015
194	0xbddad97e	-0.106860146
195	0x3e99a5f3	0.30009422
196	0x3e91239f	0.2834749
197	0xbea8c562	-0.3296309
198	0x3e511a36	0.20420155
199	0x3e124f99	0.14288177

sequential_6/dense_20/MatMul f4 [8, 10]
0	0x3ec00477	0.37503406
1	0x3d9eed4f	0.07760107
2	0x3edaec4b	0.42758402
3	0x3e5df2f2	0.21674708
4	0x3f37bc7f	0.71772
5	0xbe0c352c	-0.13692158
6	0xbf615507	-0.88020366
7	0xbf9fd32f	-1.2486323
8	0xbf79ec4b	-0.9762618
9	0xbf12df14	-0.5737164
10	0x3f270d79	0.6525493
11	0xbea43a7b	-0.32075867
12	0xbec130c7	-0.37732527
13	0xbf985f4d	-1.1904083
14	0xbfc7ffbb	-1.5624918
15	0x3f51f7df	0.82018846
16	0x3ee7c5c6	0.45268077
17	0xbe4066ca	-0.18789211
18	0xbc9a646f	-0.018846719
19	0x3ee7e04e	0.45288318
20	0xbf36c399	-0.7139221
21	0x3e4d0953	0.20023088
22	0x3f24a1fc	0.6430967
23	0xbeba299d	-0.36359873
24	0x3e1234c8	0.14277947
25	0x3e205912	0.15658978
26	0x3f0a38ea	0.53993094
27	0xbef19e88	-0.47191262
28	0xbf06d74a	-0.52672255
29	0x3f383650	0.71957874
30	0xbf85c5a9	-1.0450946
31	0xbfac7735	-1.3473879
32	0x3f4fda22	0.8119222
33	0x3e4e4e89	0.20147146
34	0x3f2cf81c	0.67566085
35	0xbf1904b8	-0.59772825
36	0xbd9e13b9	-0.077186055
37	0xbf4bfec4	-0.79685616
38	0xbb9b1141	-0.0047322814
39	0xbf25834a	-0.64653456
40	0x3e8f5644	0.27995503
41	0x3f8d4bcb	1.1038755
42	0xbfd4b5fc	-1.6618037
43	0xbe47bbb4	-0.19505197
44	0xbf8802dc	-1.0625873
45	0x3e67d930	0.22641444
46	0xbf17c5ec	-0.5928638
47	0x3f26ab1a	0.6510483
48	0xbf70af93	-0.94017905
49	0x3ce19df7	0.027541144
50	0x3f1f1be5	0.6215194
51	0x3ef23581	0.47306445
52	0x3d8ca4fd	0.068674065
53	0x3f828bc0	1.0198898
54	0xbfba62b9	-1.4561378
55	0xbfa164db	-1.2608904
56	0xbf77c10a	-0.9677893
57	0x3ec8c86f	0.3921542
58	0x3d1cb8d0	0.03826219
59	0xbf542344	-0.8286631
60	0x3f560395	0.83599216
61	0x3e08f13b	0.13373272
62	0x3db251b5	0.08706991
63	0x3e58aee3	0.21160464
64	0x3f30c5f0	0.6905203
65	0xbfdaa2fd	-1.708099
66	0xbec80d89	-0.39072827
67	0xbf5ddf36	-0.8666872
68	0x3f01de52	0.5072986
69	0xbf4c3d82	-0.79781353
70	0x3e84a941	0.2591038
71	0xbf198a79	-0.5997692
72	0xbe8588e2	-0.26080996
73	0xbfa6f18b	-1.3042463
74	0x3e831483	0.25601587
75	0x3f008957	0.50209564
76	0x3f4dc2f3	0.80375594
77	0x3f100a3d	0.5626562
78	0x3eccfc42	0.40036207
79	0x3deed0df	0.11660933
