model/point_history_classifier/point_history_classifier.tflite (tflite, 6384 bytes, 6 tensors)

sequential_2/dense_6/BiasAdd/ReadVariableOp/resource f4 [24]
-0.009963123 0.23025998 -0.008218173 0.38513768 -0.0038176803 -0.0114174485 -0.010195895 -0.0042549544
-0.011615118 -0.013637942 0.011789452 -0.016455362 -0.012289156 -0.01993545 -0.029967977 -0.00939506
0.237948 -0.022720136 -0.019721974 0.2239782 -0.026060048 -0.012169877 -0.013478161 -0.008015051
00000000: 5e3c 23bc 46c9 6b3e 84a5 06bc c430 c53e
00000010: 0c32 7abb 4010 3bbc af0c 27bc 256d 8bbb
00000020: 564d 3ebc ad71 5fbc 8c28 413c 65cd 86bc
00000030: 7558 49bc ab4f a3bc 677f f5bc bded 19bc
00000040: a4a8 733e 941f babc fa8f a1bc 8b5a 653e
00000050: e27b d5bc 2a64 47bc 81d3 5cbc 8f51 03bc

sequential_2/dense_7/BiasAdd/ReadVariableOp/resource f4 [10]
0.76136625 0.954748 0.2537964 -0.46492478 -0.027523877 0.5809573 0.20582275 0.3525294
-0.07798211 1.1766351
00000000: e6e8 423f 5d6a 743f 9af1 813e 9f0a eebe
00000010: c179 e1bc 9eb9 143f 33c3 523e bc7e b43e
00000020: 16b5 9fbd fb9b 963f

sequential_2/dense_8/BiasAdd/ReadVariableOp/resource f4 [6]
0.1368836 -0.60717916 0.18609591 -0.094680436 -0.7564641 0.8468898
00000000: 372b 0c3e 1870 1bbf ed8f 3e3e d1e7 c1bd
00000010: a2a7 41bf c5cd 583f

sequential_2/dense_6/MatMul f4 [24, 32]
-0.21402447 0.23555881 0.013598345 0.7438355 0.15023577 0.682695 -0.061160438 0.70971006
-0.2148154 0.27235213 -0.5401321 0.27806237 -0.2320579 0.340147 0.14308956 0.22035936
0.10047487 -0.4543649 -0.3040178 -0.81079394 -0.5540862 -0.5571119 -0.35218108 -0.15828578
0.081996776 0.09100767 0.14113519 -0.02525643 0.42962372 0.8107134 0.045118082 0.56139594
0.059623957 0.2044769 0.4195452 -0.1178365 0.7159344 0.12529221 0.22545935 -0.2886558
-0.048453417 -0.29578742 -0.1059994 0.16907208 -0.39492583 0.23476984 -0.3856302 0.1244817
-0.2112765 0.34612596 -0.4483298 0.30531034 -0.35981992 0.14270562 -0.65971315 0.07902995
-0.3662134 -0.2781807 0.40042654 0.06832954 0.87572366 -0.35018453 0.80268353 -0.3160537
-0.20686883 0.29661584 -0.12739798 0.21142599 -0.096609384 0.15832588 0.30573615 0.034831617
0.12497044 0.20115723 0.30644983 -0.05771229 0.84711444 -0.22625297 1.0948399 0.22842002
0.505747 0.42995802 0.24541953 -0.0011890858 -0.14721803 -0.15645698 0.4626775 0.7537563
-0.45280182 -0.08085344 -0.29483128 -0.7615738 -0.15521047 -0.14572534 -0.045163624 -0.37172228
-0.06483784 0.25235194 0.24488324 -0.21000138 0.15190272 -0.36086842 0.52737826 0.17593396
0.23475456 -0.2530997 0.31822369 -0.13508575 0.12129064 -0.40624952 0.079896174 0.19560957
0.085367024 0.13083191 -0.04740214 0.23016652 -0.42220917 0.19552653 -0.42130184 -0.22247113
-0.27930754 0.019783897 0.15227127 -0.22172289 0.30962548 -0.42477185 0.3422657 -0.38606423
-0.10056104 0.072568655 -0.23947597 0.74150914 -0.13356102 0.74400836 -0.2626816 0.3170869
-0.16145484 0.32815713 -0.11257601 -0.07798062 0.18338123 0.16110511 -0.12922184 -1.0174345
-0.3033438 -0.98019135 -0.34147534 -0.96330905 -0.17616579 -0.44575366 0.29363078 0.26183555
0.74649 0.50418663 0.33973342 1.0138824 -0.042644564 0.37664533 -0.3929251 0.12612909
0.1545431 0.21340442 0.6970634 0.13401946 0.21774101 -0.46315485 0.328223 -0.23161505
0.1078829 -0.5188022 -0.11162961 0.06471137 0.23532254 -0.07241632 -0.08463263 0.1903333
0.04580745 0.1978457 0.038902547 0.65609497 0.15009035 0.86920035 0.014831866 0.61594695
0.14469177 0.44494843 0.13304459 -0.27368551 -0.23079358 -0.66501456 -0.5812744 -1.1599212
0.16287786 0.2399528 0.37770498 -0.25377366 -0.102802806 -0.30220467 0.22152722 0.56361425
0.11198671 0.75900537 -0.009387024 0.21993399 -0.06704939 0.33837873 0.21577004 0.6366541
-0.001400137 0.48423833 0.04840343 0.28480738 -0.11320353 -1.0387809 -0.33471605 -1.2494822
0.11346217 -0.60399497 -0.17776893 -0.00452366 0.2177823 0.52472216 -0.16455059 0.7986424
0.21550459 -0.04006365 -0.6331626 0.079069525 -0.014044912 -0.21319607 0.17818777 0.03491922
0.38483757 -0.4936356 0.55579996 -0.5921351 -0.22395527 -0.44423833 0.085672796 -0.6475557
-0.5734412 -0.06446148 -0.495034 -0.32836226 0.28167835 0.25772542 -0.060886398 -0.21645418
-0.00061575486 0.41052178 -0.22731619 0.41688672 0.05398425 0.34817258 0.35156807 -0.72402585
00000000: 3b29 5bbe 5436 713e 98cb 5e3c 016c 3e3f
00000010: 68d7 193e 19c5 2e3f 5e83 7abd 8faf 353f
00000020: 91f8 5bbe bd71 8b3e 1946 0abf 315e 8e3e
00000030: 96a0 6dbe bf27 ae3e 1286 123e e2a5 613e
00000040: c5c5 cd3d 84a2 e8be 39a8 9bbe 3190 4fbf
00000050: 98d8 0dbf e39e 0ebf 1451 b4be ab15 22be
00000060: eded a73d 3b62 ba3d be85 103e 93e6 cebc
00000070: a4f7 db3e ea8a 4f3f bdcd 383d a5b7 0f3f
00000080: 4038 743d 6462 513e a1ce d63e 4354 f1bd
00000090: 7a47 373f 9a4c 003e d1de 663e b1ca 93be
000000a0: 1777 46bd 7371 97be 3716 d9bd 3b21 2d3e
000000b0: b833 cabe 8167 703e 5271 c5be 43f0 fe3d
000000c0: de58 58be 6c37 b13e 7c8b e5be a351 9c3e
000000d0: 513a b8be 6c21 123e f6e2 28bf 74da a13d
000000e0: 5380 bbbe b36d 8ebe b504 cd3e 5cf0 8b3d
000000f0: 6d2f 603f 634b b3be ab7c 4d3f cad1 a1be
00000100: 6cd5 53be 08de 973e 9e74 02be 0e80 583e
00000110: 24db c5bd 2e20 223e 7389 9c3e 99ab 0e3d
00000120: 81f0 ff3d 29fc 4d3e fee6 9c3e b963 6cbd
00000130: 7edc 583f dcae 67be b723 8c3f f0e6 693e
00000140: a378 013f 7523 dc3e 424f 7b3e 19db 9bba
00000150: 53c0 16be 4236 20be 11e4 ec3e 2cf6 403f
00000160: a4d5 e7be 7d96 a5bd 20f4 96be 80f6 42bf
00000170: 7eef 1ebe 0639 15be 7efd 38bd 6252 bebe
00000180: b4c9 84bd 4634 813e acc2 7a3e 9a0a 57be
00000190: 638c 1b3e bfc3 b8be 4302 073f 0828 343e
000001a0: 8063 703e 4996 81be 37ee a23e eb53 0abe
000001b0: 3a67 f83d f0ff cfbe 9ba0 a33d e04d 483e
000001c0: e8d4 ae3d cdf8 053e bf28 42bd c6b0 6b3e
000001d0: cd2b d8be 1b38 483e e0b4 d7be 79cf 63be
000001e0: 6601 8fbe d711 a23c 00ed 1b3e 530b 63be
000001f0: 3b87 9e3e b27b d9be 733d af3e 36aa c5be
00000200: f2f2 cdbd e09e 943d 3039 75be 8bd3 3d3f
00000210: 38c4 08be 5577 3e3f 347e 86be 3759 a23e
00000220: 6b54 25be 3604 a83e 408e e6bd 4eb4 9fbd
00000230: 4ac8 3b3e bdf8 243e bb52 04be 4b3b 82bf
00000240: e14f 9bbe d2ed 7abf dbd5 aebe 6c9b 76bf
00000250: ce64 34be d339 e4be c656 963e 4f0f 863e
00000260: f819 3f3f 6012 013f 8af1 ad3e e6c6 813f
00000270: 11ac 2ebd a8d7 c03e 7b2d c9be fc27 013e
00000280: 8c40 1e3e b086 5a3e bf72 323f 663c 093e
00000290: 80f7 5e3e a222 edbe d80c a83e 7f2c 6dbe
000002a0: b6f1 dc3d 39d0 04bf 119e e4bd 6587 843d
000002b0: 64f8 703e 024f 94bd df53 adbd bce6 423e
000002c0: 98a0 3b3d 1098 4a3e 4758 1f3d d7f5 273f
000002d0: 49b1 193e ea83 5e3f 5b01 733c b3ae 1d3f
000002e0: 142a 143e 48d0 e33e d73c 083e 8220 8cbe
000002f0: 2755 6cbe 653e 2abf 66ce 14bf 4c78 94bf
00000300: 74c9 263e 30b6 753e 8c62 c13e 9fee 81be
00000310: 478a d2bd 92ba 9abe 08d8 623e 0649 103f
00000320: 4a59 e53d 2d4e 423f 08cc 19bc 6036 613e
00000330: 3151 89bd fa3f ad3e d2f2 5c3e c3fb 223f
00000340: cd84 b7ba 16ee f73e ad42 463d 46d2 913e
00000350: 41d7 e7bd c6f6 84bf e75f abbe 08ef 9fbf
00000360: db5e e83d 6a9f 1abf 0f09 36be 363b 94bb
00000370: 5302 5f3e 3154 063f f37f 28be d473 4c3f
00000380: 3cad 5c3e c819 24bd f216 22bf 34ef a13d
00000390: a11c 66bc 1250 5abe db76 363e 7507 0f3d
000003a0: 6e09 c53e cebd fcbe e848 0e3f 2a96 17bf
000003b0: 8854 65be 3573 e3be 3875 af3d 36c6 25bf
000003c0: 0bcd 12bf 6104 84bd 1975 fdbe 191f a8be
000003d0: 2538 903e 96f4 833e 0464 79bd 2aa6 5dbe
000003e0: 9c6a 21ba e92f d23e 93c5 68be 2d72 d53e
000003f0: 971e 5d3d ad43 b23e bb00 b43e c259 39bf

sequential_2/dense_7/MatMul f4 [10, 24]
-1.4908543 0.77483606 -0.47662804 0.5956726 -1.415069 -0.5519974 -0.92557335 -0.837659
-0.71678007 -0.8391315 0.038361028 -0.64940715 -1.1655469 -1.08455 -0.6893838 -0.38637385
0.9237722 -0.97288656 -0.85247654 0.7185974 -0.2960535 -0.94306064 -0.9154529 -1.7255921
-0.94842154 -0.22365786 -0.008744414 0.45557898 -1.2478749 -0.7262779 -0.69529617 -1.2165235
-0.99369335 -1.376938 0.54077995 -1.705355 0.28818816 0.09247024 -0.7313951 -0.6949343
-0.22447291 -0.09394347 -1.3802885 -0.1537594 -0.5734351 -1.4322393 0.12232181 -0.11811883
0.91230446 0.09699261 0.5678454 0.18273516 0.620147 0.66887426 1.0940841 0.451129
0.17011148 0.19871698 0.4687446 0.36452928 1.033539 0.89728576 0.4137592 0.362032
0.026810642 -0.07243799 0.38732982 0.21290681 0.14067765 0.80735236 0.83165973 1.2593741
0.47449932 0.47369748 0.58090657 0.19587001 0.28714028 -0.2849566 0.17526536 0.48761636
0.88365924 0.21332641 -1.3258694 0.45917907 -0.6853799 -0.2928844 -0.20687893 -0.22283897
0.49137756 -0.5360819 0.49124494 0.60940534 -0.40185916 0.5754581 -0.8731954 0.16199927
0.59565216 0.59446543 0.33645186 0.5192172 -0.100075014 0.8877688 0.937082 0.5773346
1.10775 0.9630686 0.45793933 0.39123318 0.5786143 0.5185177 0.2073588 0.85529673
0.55681986 0.023723314 0.8137982 0.412259 1.2515699 0.27362797 0.46178883 0.7110858
-0.4427557 0.55427605 -1.8584688 0.12030847 -0.93714505 -1.880893 -1.3937215 -1.1156374
-0.073312335 -0.46882415 -0.36142978 0.44069132 -2.2703216 -1.4114816 -2.1318789 -1.2483689
0.39759195 -1.6600451 -0.040815335 0.38375208 -1.3380808 0.17279178 -1.7457256 -2.1843805
0.9068299 0.43358162 0.6264726 0.19419017 0.40042368 0.2740435 0.5895549 0.10812951
0.39852688 0.42469838 -0.16114444 0.7666407 0.49317124 0.6851028 0.48798722 0.54056084
0.447728 0.262884 0.6753756 0.42094663 0.7676937 0.8415277 0.260024 0.40210578
0.07539285 -0.16759162 0.6428827 0.034052126 0.06712837 -0.2115408 -0.07750277 0.3972502
0.19536164 0.17154977 0.29420328 0.2935843 0.27422196 0.6216493 0.28698757 0.14967299
-0.5889363 0.50904715 0.5055485 -0.22644432 -0.043142505 0.0007158852 0.337866 0.041176792
0.098197244 0.2362722 0.76987916 0.37405488 -0.017316323 0.31771109 0.523237 0.45538774
0.15919878 0.32468152 0.6962673 0.22786221 0.2821879 -0.012234819 0.24185188 0.06468671
0.53991026 0.22406204 0.6130231 0.08362026 0.29262054 0.023449589 0.37417543 0.30058187
0.03977401 0.55541694 -0.6504928 0.44250563 -0.23678885 -0.7230943 -0.0029594963 -0.33768365
-0.9748845 -0.17169367 -0.031990893 -1.1248201 -0.31682742 -0.86843085 -0.1952135 -0.41067925
0.4207551 -1.0120939 -0.40194273 0.56778395 -0.18822746 -0.06195533 -0.6158684 -0.14794919
00000000: 50d4 bebf a85b 463f 9708 f4be 007e 183f
00000010: fb20 b5bf b44f 0dbf 60f2 6cbf d270 56bf
00000020: e67e 37bf 52d1 56bf 7420 1d3d 8c3f 26bf
00000030: a430 95bf 89d2 8abf 757b 30bf cbd2 c5be
00000040: 567c 6c3f 180f 79bf e73b 5abf 00f6 373f
00000050: 5394 97be 6c6c 71bf 1f5b 6abf 34e0 dcbf
00000060: c1cb 72bf 9106 65be bb44 0fbc a641 e93e
00000070: 5dba 9fbf 59ed 39bf eefe 31bf 0bb7 9bbf
00000080: b062 7ebf 813f b0bf 8e70 0a3f 1349 dabf
00000090: 668d 933e 0a61 bd3d b63c 3bbf 37e7 31bf
000000a0: 3adc 65be 6f65 c0bd 4bad b0bf 1b73 1dbe
000000b0: a5cc 12bf 9e53 b7bf db83 fa3d 49e8 f1bd
000000c0: c98c 693f 10a4 c63d 515e 113f ed1e 3b3e
000000d0: f4c1 1e3f 583b 2b3f f30a 8c3f 61fa e63e
000000e0: b431 2e3e 777c 4b3e 4bff ef3e 95a3 ba3e
000000f0: 024b 843f 85b4 653f 3fd8 d33e 425c b93e
00000100: fea1 db3c 5e5a 94bd 1850 c63e 3e04 5a3e
00000110: cd0d 103e a5ae 4e3f a7e7 543f 2c33 a13f
00000120: 93f1 f23e 7a88 f23e 4bb6 143f 2692 483e
00000130: 0d04 933e d5e5 91be c378 333e daa8 f93e
00000140: 7e37 623f 3d72 5a3e 17b6 a9bf 8519 eb3e
00000150: 0f75 2fbf f2f4 95be 12d8 53be e62f 64be
00000160: d795 fb3e aa3c 09bf 7584 fb3e fd01 1c3f
00000170: 7cc0 cdbe 3951 133f bc89 5fbf 23e3 253e
00000180: a97c 183f e32e 183f 6b43 ac3e 6beb 043f
00000190: 21f4 ccbd d144 633f 9be4 6f3f 33cc 133f
000001a0: c1ca 8d3f aa8b 763f 0677 ea3e b74f c83e
000001b0: 1120 143f 93bd 043f de55 543e baf4 5a3f
000001c0: bf8b 0e3f 6557 c23c 1455 503f 9d13 d33e
000001d0: 7133 a03f f718 8c3e 966f ec3e b809 363f
000001e0: e0b0 e2be 09e5 0d3f 4ee2 edbf 4a64 f63d
000001f0: bde8 6fbf 1ac1 f0bf 7765 b2bf 35cd 8ebf
00000200: c724 96bd b809 f0be 530d b9be 4ba2 e13e
00000210: f34c 11c0 6eab b4bf b470 08c0 8dca 9fbf
00000220: 2c91 cb3e 5c7c d4bf fb2d 27bd 277b c43e
00000230: 3b46 abbf 54f0 303e f073 dfbf e4cc 0bc0
00000240: 0126 683f 69fe dd3e 8260 203f cad9 463e
00000250: 5504 cd3e 6e4f 8c3e 12ed 163f 0173 dd3d
00000260: b70b cc3e 1172 d93e 0c03 25be 9142 443f
00000270: f180 fc3e e662 2f3f 76d9 f93e 3262 0a3f
00000280: 9b3c e53e bb98 863e 6ae5 2c3f 5186 d73e
00000290: 9387 443f 5c6e 573f de21 853e cfe0 cd3e
000002a0: 9167 9a3d 239d 2bbe f693 243f 3e7a 0b3d
000002b0: 997a 893d 279e 58be c6b9 9ebd 6164 cb3e
000002c0: e20c 483e beaa 2f3e d0a1 963e ae50 963e
000002d0: d266 8c3e 6924 1f3f 09f0 923e e043 193e
000002e0: 88c4 16bf ea50 023f a06b 013f 05e1 67be
000002f0: 32b6 30bd 3eaa 3b3a c6fc ac3e ffa8 283d
00000300: a31b c93d 57f1 713e cd16 453f 1f84 bf3e
00000310: f6da 8dbc 07ab a23e dcf2 053f 9528 e93e
00000320: 0105 233e a83c a63e 933e 323f b654 693e
00000330: ef7a 903e 8d74 48bc 05a8 773e 777a 843d
00000340: 8f37 0a3f 8570 653e 15ef 1c3f 1941 ab3d
00000350: 5cd2 953e 5a19 c03c ec93 bf3e dee5 993e
00000360: 13ea 223d ce2f 0e3f b286 26bf 1990 e23e
00000370: c778 72be b51c 39bf 1cf4 41bb dfe4 acbe
00000380: 0892 79bf 77d0 2fbe e208 03bd 1bfa 8fbf
00000390: 3437 a2be 7c51 5ebf 0ce6 47be 8d44 d2be
000003a0: 366d d73e 4b8c 81bf 70cb cdbe 4a5a 113f
000003b0: b3be 40be dfc4 7dbd 8da9 1dbf fe7f 17be

sequential_2/dense_8/MatMul f4 [6, 10]
1.6018875 1.6091565 -2.4421813 -1.8214314 -2.1711824 1.5126282 -1.6755968 -1.5629965
-1.1691346 1.0091037 -0.66865844 -0.64651054 -0.64903647 1.0712312 0.09009 0.29586464
0.7727929 0.63698316 0.20847028 -0.62767816 -1.1943609 1.3172616 0.6431307 0.67646635
-0.5301285 -1.1812828 -0.1520649 0.6013375 0.5523143 -1.2625053 -0.7174176 -1.0630261
0.95899945 -0.75799614 0.36484993 -0.97920054 0.2580726 -0.607531 -0.26223737 -0.31275237
0.06568688 -0.8751207 0.31333485 0.047488738 0.6200493 -1.0864716 -0.10473425 0.02040734
0.9745563 -0.857153 -0.1341344 -0.4617668 -0.29838157 -1.346337 -0.06043745 -1.4925921
0.5175587 -0.106852196 0.28529695 0.8603176
00000000: a60a cd3f d7f8 cd3f b34c 1cc0 aa24 e9bf
00000010: a7f4 0ac0 cd9d c13f f579 d6bf 4510 c8bf
00000020: 34a6 95bf 4f2a 813f 332d 2bbf b781 25bf
00000030: 4127 26bf 1b1e 893f 1b81 b83d 927b 973e
00000040: c1d5 453f 5411 233f 3c79 553e 84af 20bf
00000050: d1e0 98bf 079c a83f 37a4 243f e62c 2d3f
00000060: 80b6 07bf 4634 97bf e7b6 1bbe 41f1 193f
00000070: 7864 0d3f c699 a1bf aea8 37bf 3d11 88bf
00000080: fd80 753f 090c 42bf 9ccd ba3e e3ac 7abf
00000090: 1822 843e 2787 1bbf fa43 86be 1421 a0be
000000a0: d886 863d e907 60bf 6d6d a03e 8d83 423d
000000b0: 8dbb 1e3f 8011 8bbf e97e d6bd 4b2d a73c
000000c0: 867c 793f 616e 5bbf 875a 09be b36c ecbe
000000d0: 78c5 98be c554 acbf 428d 77bd 420d bfbf
000000e0: ba7e 043f 53d5 dabd 7112 923e c63d 5c3f
