model/point_history_classifier/point_history_classifier.tflite (tflite, 6288 bytes, 6 tensors)

sequential/dense/BiasAdd/ReadVariableOp/resource f4 [24]
-0.02105506 -0.020707631 -0.013960805 -0.03868622 -0.08186779 0.015894627 -0.021358045 0.0028584797
-0.070461825 -0.034099035 -0.023179695 -0.03286939 -0.022600615 -0.03133796 -0.2033523 -0.14741908
-0.018708602 -0.04569929 -0.05198896 -0.06656993 -0.03796318 -0.16351143 0.06348363 -0.053082455
00000000: a97b acbc 0da3 a9bc dcbb 64bc 7175 1ebd
00000010: 4daa a7bd 7335 823c 11f7 aebc 5555 3b3b
00000020: 4a4e 90bd 6eab 0bbd 58e3 bdbc 0ea2 06bd
00000030: ed24 b9bc 3c5c 00bd 963b 50be 07f5 16be
00000040: c842 99bc 2e2f 3bbd 60f2 54bd d155 88bd
00000050: 487f 1bbd 8a6f 27be b503 823d fd6c 59bd

sequential/dense_1/BiasAdd/ReadVariableOp/resource f4 [10]
-0.033549935 0.1848066 2.0403469 0.1561947 0.3437952 0.7589253 -0.12703083 0.03484253
0.5436741 0.82015663
00000000: a86b 09bd f13d 3d3e 0b95 0240 81f1 1f3e
00000010: ed05 b03e ee48 423f 5f14 02be 0ab7 0e3d
00000020: 3a2e 0b3f c9f5 513f

sequential/dense_2/BiasAdd/ReadVariableOp/resource f4 [5]
0.0760726 0.96266204 0.7516533 0.14559512 -2.0179405
00000000: f4cb 9b3d 0571 763f 5a6c 403f e316 153e
00000010: f025 01c0

sequential/dense/MatMul f4 [24, 32]
-0.31058007 -0.036457628 0.49658072 -1.1990353 -0.12073722 -2.0979702 0.35875937 -1.5740188
0.37450594 -1.0405262 0.614167 -0.68051803 0.8164749 -0.08174646 1.1349509 0.10416972
1.3351529 0.47935128 1.0506163 0.27887243 0.58372265 0.43108076 0.24446112 0.5218476
-0.15317664 0.572284 -0.4371421 0.6952715 -0.52560025 0.5835328 -0.56445545 0.2849815
0.14618641 -0.24163094 0.8303655 -0.12757292 -0.34471795 -0.5281684 -0.7272126 -0.08648192
-0.62716657 0.45959708 -0.83750623 0.9183197 -0.90185493 1.5188092 -1.1059824 1.4874893
-1.2447363 1.2591811 -0.7974362 0.91876286 -0.03614757 0.20100379 0.041781627 -0.43016344
0.5427787 -0.85042983 0.7288008 -0.8701093 0.6899452 -0.7045745 0.63390505 -0.78367156
-0.095390126 0.25931102 -0.50973827 0.78355354 -1.5728558 0.76589215 -1.0496514 0.8492242
-0.6132055 0.68459445 0.19394504 -0.2636436 0.6219332 -0.5488004 1.1174109 -1.0019659
0.9382354 -1.105823 0.8448112 -1.0860893 0.479871 -0.7678172 0.19874418 -0.5444385
-0.038528945 0.035584908 -0.29883447 0.3974005 -0.59964186 0.9322962 -0.81560326 1.0906911
-0.054635346 0.14710191 -0.2963379 0.3454726 -1.3079106 -0.45661065 -1.5895871 -0.4547939
-0.90797764 -0.35059667 -0.6450132 -0.32751313 -0.0051718564 -0.3053685 -0.14964376 -0.5501682
0.37720913 -0.43076533 0.48774567 -0.5803035 0.82104397 -0.596521 1.1894107 -0.25129068
0.82095313 -0.23696008 0.8272362 -0.13815573 0.69246036 0.6533583 0.839869 0.46719274
0.05898121 0.12397078 0.5283129 0.10951552 0.4768698 -0.16549614 0.5102391 0.56625926
0.41260678 0.16422598 0.11228035 -0.12706578 0.1352612 0.24546017 -0.3115287 0.26349255
-0.1606277 0.4862934 -0.50896895 0.72710985 -0.6480699 0.8307906 -0.65534306 1.2117
-0.84014916 1.0203384 -1.1030064 0.8620769 -0.65394646 0.9560711 -1.5034856 0.6855236
-0.2864955 0.027984023 0.20729694 -1.2865123 -0.13580106 -1.8215013 -0.809636 -1.4070107
-0.8319132 -0.97558165 -1.2975297 -0.54445314 -1.1309057 -0.30177695 -1.2060573 -0.013103934
-1.2898088 0.18817256 -0.818815 0.309682 -0.51711 0.4727834 0.091186486 0.42318425
0.5947538 0.41777804 0.7613323 0.5024323 0.36316064 0.65529776 -0.1808835 0.56002516
-0.17054802 -0.18521829 -0.25010526 -1.0393441 -1.458543 -1.5001931 -1.2865112 -1.1153506
-1.6274699 -0.78711194 -1.5189481 -0.75047934 -1.3588204 -0.41962633 -1.0999689 -0.13884781
-0.8123858 0.109224424 -0.6832058 0.23422441 -0.18895088 0.15413183 0.16874659 0.57602143
0.19678946 0.7458439 -0.3582851 0.6576136 -0.21327302 0.7302564 -0.93667376 0.9195602
0.23152864 -0.27794895 1.0300931 -1.0453045 1.0147336 -1.974172 0.45642596 -1.3539705
0.14474642 -0.7073478 -0.30665037 -0.33702323 -0.41592553 0.2213963 -0.78243774 0.27357554
-1.0503486 0.42554122 -0.86422855 0.55613524 -0.528743 0.6535175 -0.05402866 0.7707771
0.61914986 0.37991583 0.9585041 -0.0068136766 1.0628659 -0.5858018 1.5212617 -1.0969322
00000000: 5a04 9fbe 9854 15bd d43f fe3e fd79 99bf
00000010: 1345 f7bd 2545 06c0 4faf b73e 7379 c9bf
00000020: 3ebf bf3e f62f 85bf 0c3a 1d3f 6e36 2ebf
00000030: 8004 513f b06a a7bd 1246 913f ef56 d53d
00000040: 4ae6 aa3f 886d f53e 987a 863f 5ec8 8e3e
00000050: d96e 153f 9eb6 dc3e 0454 7a3e ce97 053f
00000060: 56da 1cbe 3481 123f 17d1 dfbe 50fd 313f
00000070: bd8d 06bf 6862 153f 2780 10bf 18e9 913e
00000080: e4b1 153e 1a6e 77be d592 543f 7aa2 02be
00000090: df7e b0be 0b36 07bf 9b2a 3abf 6f1d b1bd
000000a0: fd8d 20bf 4f50 eb3e cf66 56bf 0017 6b3f
000000b0: f7df 66bf 5768 c23f d590 8dbf 0d66 be3f
000000c0: 8553 9fbf d92c a13f c724 4cbf 0b34 6b3f
000000d0: 790f 14bd f0d3 4d3e 3623 2b3d 623e dcbe
000000e0: 8bf3 0a3f c5b5 59bf b092 3a3f 7cbf 5ebf
000000f0: 40a0 303f ff5e 34bf 9a47 223f b39e 48bf
00000100: e65b c3bd 6ac4 843e 357e 02bf f796 483f
00000110: 5753 c9bf 8211 443f fa5a 86bf c266 593f
00000120: 09fb 1cbf 9541 2f3f 8799 463e 4bfc 86be
00000130: 0437 1f3f 2f7e 0cbf 5207 8f3f 6b40 80bf
00000140: 3230 703f 9c8b 8dbf 8c45 583f f904 8bbf
00000150: a7b1 f53e ab8f 44bf 9883 4b3e 5260 0bbf
00000160: 87d0 1dbd 7bc1 113d d500 99be 1478 cb3e
00000170: 2182 19bf f7aa 6e3f 60cb 50bf c49b 8b3f
00000180: 50c9 5fbd e2a1 163e 9ab9 97be c9e1 b03e
00000190: 9d69 a7bf dfc8 e9be 9777 cbbf bfda e8be
000001a0: 3971 68bf 6881 b3be 961f 25bf cdaf a7be
000001b0: ad78 a9bb 4359 9cbe 373c 19be d3d7 0cbf
000001c0: 8e21 c13e 468d dcbe cdb9 f93e c58e 14bf
000001d0: f02f 523f 9ab5 18bf 9c3e 983f 2ca9 80be
000001e0: fc29 523f aaa5 72be c0c5 533f b278 0dbe
000001f0: 1545 313f 7d42 273f a801 573f e333 ef3e
00000200: 4896 713d 64e4 fd3d 843f 073f ac49 e03d
00000210: 4728 f43e d277 29be 089f 023f 5ef6 103f
00000220: 3241 d33e db2a 283e 3df3 e53d 881d 02be
00000230: e981 0a3e e959 7b3e b180 9fbe 7fe8 863e
00000240: 967b 24be 73fb f83e ca4b 02bf df23 3a3f
00000250: e9e7 25bf b1ae 543f 90c4 27bf fc18 9b3f
00000260: 0414 57bf 739a 823f 502f 8dbf 12b1 5c3f
00000270: 0969 27bf 13c1 743f 3772 c0bf 7a7e 2f3f
00000280: 8aaf 92be c03e e53c a645 543e 6fac a4bf
00000290: 6f0f 0bbe f426 e9bf 4e44 4fbf ed18 b4bf
000002a0: 43f8 54bf b8bf 79bf 7415 a6bf 4861 0bbf
000002b0: 85c1 90bf 8282 9abe 1660 9abf e2b1 56bc
000002c0: 7418 a5bf 4fb0 403e dc9d 51bf a48e 9e3e
000002d0: 5261 04bf aa10 f23e fbbf ba3d 9bab d83e
000002e0: c941 183f 01e7 d53e ace6 423f 679f 003f
000002f0: 31f0 b93e 98c1 273f 8639 39be cf5d 0f3f
00000300: 24a4 2ebe dda9 3dbe cc0d 80be 3a09 85bf
00000310: 89b1 babf 5406 c0bf 66ac a4bf cfc3 8ebf
00000320: ef50 d0bf 2b80 49bf e46c c2bf 6a1f 40bf
00000330: d4ed adbf 43d9 d6be c8cb 8cbf 1f2e 0ebe
00000340: 84f8 4fbf 0eb1 df3d 93e6 2ebf 86d8 6f3e
00000350: 577c 41be bcd4 1d3e e8cb 2c3e 2476 133f
00000360: 2d83 493e a0ef 3e3f 2571 b7be 5d59 283f
00000370: 3e64 5abe 15f2 3a3f dac9 6fbf 4c68 6b3f
00000380: d815 6d3e 534f 8ebe 17da 833f 8acc 85bf
00000390: cae2 813f abb1 fcbf aab0 e93e e84e adbf
000003a0: 6838 143e bf14 35bf 4701 9dbe 4f8e acbe
000003b0: 31f4 d4be b6b5 623e d74d 48bf 1812 8c3e
000003c0: d371 86bf 8ae0 d93e 153e 5dbf e15e 0e3f
000003d0: b45b 07bf ec4c 273f 284d 5dbd a651 453f
000003e0: 9b80 1e3f 5484 c23e 8660 753f 4345 dfbb
000003f0: fd0b 883f 1bf7 15bf b4b8 c23f 4668 8cbf

sequential/dense_1/MatMul f4 [10, 24]
-0.19992122 -0.05296241 -0.25500014 -0.110234074 0.31074977 0.97406983 0.88546664 0.30160826
0.40452656 0.2633423 -0.13178827 -0.036247756 0.2999613 -0.27189866 -1.084126 -0.06591179
1.1583445 1.38717 0.74029684 -0.1298879 -0.75731325 1.1161685 0.06432751 -0.06435307
1.8780761 0.15852092 0.78107524 1.1702286 0.84443504 0.20869668 0.30604535 -0.02285593
0.17657061 0.9622831 1.8128072 0.52793264 0.34022057 1.3711722 0.69960815 1.3362716
0.07166909 0.7341019 0.76244944 0.92138064 1.0999612 0.106890164 -0.22641966 0.5643782
-0.80936784 -0.72564715 -1.0020229 -0.753059 -0.7643208 -0.5371725 -0.695808 -0.5236363
-0.9999017 -0.8591701 -0.85781354 -0.8948166 -0.8027559 -1.04224 -1.2711205 -2.241485
-1.4123576 -0.99648154 -1.0720667 -0.66932935 -0.80784094 -2.5180314 -0.33430892 -1.4970113
0.92421925 2.3748891 2.0445693 1.6250367 0.8215505 0.19491357 0.45230496 0.76965207
1.0082622 1.2572037 1.3938683 1.8861248 1.8154511 1.2056711 -0.20760998 0.7177886
1.9747882 0.99080175 1.404843 0.8893681 0.63864297 0.60079426 0.80848444 0.87063015
-2.31911 -0.1749809 0.28915963 0.50069255 -0.2948254 -0.1565146 -0.16168976 -0.02450835
-0.17514847 0.9182776 -2.310923 0.84570044 0.058335405 -1.4403795 -0.056193158 0.6091939
-0.015697984 -0.018304447 -0.046370335 0.2818864 0.059852418 -0.06834502 -0.12331603 -0.38616136
-2.9259298 -5.028186 -5.590683 -3.6907651 -2.2567396 -0.37038803 -0.70236105 -0.019805668
-4.41895 -3.9299634 -2.2870796 -4.5900793 -5.2028723 -4.719333 0.17284837 -1.6610634
-5.853038 -4.1275415 -3.0247192 -1.2615086 -3.916627 -2.635332 -0.07822892 -4.0949345
-0.24613005 0.053088404 -0.057459127 0.27741036 -0.314094 -1.5211501 -1.6639853 0.8957706
0.77711564 -0.2417551 0.0742747 0.14569409 0.009488911 -0.039461754 1.0151237 -0.021263009
0.65258163 0.14547591 0.64962053 0.3680233 0.64324164 1.0848233 0.8289883 0.01795851
0.24701989 0.05227512 0.5642695 0.6000869 0.5924729 0.34900567 0.62613845 -0.24423909
0.8470304 0.81755114 0.228771 0.6628016 -0.004008316 0.40308833 0.5407217 1.1662265
0.31252986 1.0835662 0.73001254 0.61481947 0.12233597 0.9104506 -0.2611958 0.73265314
-0.44446364 -0.22271924 0.8627764 -0.24840094 -0.21825975 -2.5168102 -0.5883353 -2.511362
-0.2305433 0.2579841 -0.5453194 -0.32696053 -2.3333523 0.09584659 0.7676716 -0.1980094
-0.08741625 0.38793418 -0.16160873 0.31079105 0.49387485 0.20965612 -3.2009244 -0.58778507
1.241297 2.0249672 2.215221 1.0710484 2.5264149 -0.3291788 0.05530775 0.44475538
0.9199113 0.9437668 1.442121 1.1762462 0.7858192 1.074094 0.13929312 0.33666793
0.8261775 0.9278026 1.2167331 2.674722 0.57914203 0.25138816 0.3737418 0.86077106
00000000: 26b8 4cbe 1def 58bd 618f 82be 67c2 e1bd
00000010: 981a 9f3e a45c 793f f1ad 623f 666c 9a3e
00000020: 1b1e cf3e cdd4 863e 81f3 06be 8778 14bd
00000030: 8794 993e 4d36 8bbe a4c4 8abf c3fc 86bd
00000040: a244 943f c98e b13f 1884 3d3f 5501 05be
00000050: 48df 41bf 9cde 8e3f 24be 833d 8bcb 83bd
00000060: cc64 f03f 4f53 223e 8cf4 473f 0dca 953f
00000070: e52c 583f 95b4 553e fab1 9c3e 5c3c bbbc
00000080: edce 343e 2f58 763f 110a e83f 9826 073f
00000090: 6431 ae3e 9282 af3f 8519 333f f30a ab3f
000000a0: 3ec7 923d 1aee 3b3f e32f 433f 9adf 6b3f
000000b0: 87cb 8c3f 3be9 da3d 8eda 67be 177b 103f
000000c0: bb32 4fbf 03c4 39bf 4942 80bf 7ac8 40bf
000000d0: 87aa 43bf 2384 09bf 7920 32bf 070d 06bf
000000e0: 8ff9 7fbf 92f2 5bbf ab99 5bbf b312 65bf
000000f0: 6981 4dbf 1f68 85bf 14b4 a2bf 7e74 0fc0
00000100: 22c8 b4bf 6a19 7fbf 7b39 89bf 2b59 2bbf
00000110: aace 4ebf 6d27 21c0 8a2a abbe 119e bfbf
00000120: a299 6c3f 2ffe 1740 39da 0240 3401 d03f
00000130: 2251 523f 6c97 473e 8494 e73e eb07 453f
00000140: bc0e 813f 0dec a03f 476a b23f 8a6c f13f
00000150: b460 e83f 6e53 9a3f b697 54be fec0 373f
00000160: dcc5 fc3f 2fa5 7d3f e5d1 b33f a1ad 633f
00000170: 1b7e 233f a7cd 193f d6f8 4e3f 9ee1 5e3f
00000180: 4c6c 14c0 312e 33be bb0c 943e 632d 003f
00000190: 5bf3 96be 5d45 20be 0092 25be bcc5 c8bc
000001a0: 1f5a 33be 3e14 6b3f 2ae6 13c0 d37f 583f
000001b0: 1bf1 6e3d 5b5e b8bf cc2a 66bd 22f4 1b3f
000001c0: 0f99 80bc 35f3 95bc d2ee 3dbd 6a53 903e
000001d0: cf27 753d 79f8 8bbd 1d8d fcbd f1b6 c5be
000001e0: 6f42 3bc0 e6e6 a0c0 e0e6 b2c0 7f35 6cc0
000001f0: 6c6e 10c0 80a3 bdbe efcd 33bf 7f3f a2bc
00000200: 0a68 8dc0 8584 7bc0 835f 12c0 eee1 92c0
00000210: ee7d a6c0 c704 97c0 2aff 303e ba9d d4bf
00000220: 164c bbc0 d214 84c0 0095 41c0 1d79 a1bf
00000230: 04aa 7ac0 48a9 28c0 7c36 a0bd b409 83c0
00000240: 8409 7cbe 3a73 593d 435a 6bbd bb08 8e3e
00000250: eed0 a0be 0cb5 c2bf 78fd d4bf 3951 653f
00000260: 0df1 463f a68e 77be 551d 983d d530 153e
00000270: 6177 1b3c a6a2 21bd 93ef 813f c32f aebc
00000280: 970f 273f a3f7 143e 884d 263f 8d6d bc3e
00000290: 7cab 243f 7ddb 8a3f 9438 543f ba1d 933c
000002a0: c8f2 7c3e 701e 563d f773 103f 4c9f 193f
000002b0: 4eac 173f dfb0 b23e 9c4a 203f d019 7abe
000002c0: fcd6 583f 084b 513f f242 6a3e 5ead 293f
000002d0: 3158 83bb 9861 ce3e bd6c 0a3f e946 953f
000002e0: ea03 a03e 4cb2 8a3f 1ae2 3a3f cf64 1d3f
000002f0: 488b fa3d 4a13 693f 75bb 85be 288f 3b3f
00000300: bd90 e3be 8310 64be eade 5c3f d15c 7ebe
00000310: 7c7f 5fbe 6b13 21c0 249d 16bf 28ba 20c0
00000320: 8b13 6cbe 7e16 843e 0d9a 0bbf 5f67 a7be
00000330: a555 15c0 384b c43d 2086 443f fac2 4abe
00000340: 4a07 b3bd 4f9f c63e c27c 25be 0120 9f3e
00000350: 2add fc3e 18b0 563e f2db 4cc0 1579 16bf
00000360: d2e2 9e3f 1099 0140 2ec6 0d40 1d18 893f
00000370: c8b0 2140 208a a8be 618a 623d fab6 e33e
00000380: 4f7f 6b3f b39a 713f 6c97 b83f 3c8f 963f
00000390: 722b 493f ea7b 893f dba2 0e3e bd5f ac3e
000003a0: 5e80 533f 7984 6d3f e9bd 9b3f a52e 2b40
000003b0: a742 143f f3b5 803e 165b bf3e 7e5b 5c3f

sequential/dense_2/MatMul f4 [5, 10]
-1.1310064 -3.8885243 1.9935514 -4.2128224 0.7592038 3.392342 -4.425171 -4.805809
-2.545828 -2.6158543 -2.2175157 0.97388077 -2.4734323 0.42678186 2.0598981 -0.9121392
-2.6208909 -0.348811 -1.4365928 0.91420376 0.9598125 -0.5193711 -2.1717694 0.66977984
-1.6227282 -0.80029726 0.38753712 -0.43326408 2.0925071 0.793204 0.062152274 0.50533706
-1.5093775 0.06910413 0.3094244 0.25757843 0.5678007 0.81901634 -0.79374385 0.75733876
0.05309154 0.46248767 1.3961413 0.5244891 -0.5721839 -2.2753754 0.5018326 0.7446098
-0.31757477 0.30019468
00000000: d1c4 90bf 95dd 78c0 b12c ff3f 71cf 86c0
00000010: 2e5b 423f 221c 5940 009b 8dc0 30c9 99c0
00000020: d9ee 22c0 286a 27c0 c7eb 0dc0 4050 793f
00000030: b74c 1ec0 2783 da3e 5fd5 0340 f481 69bf
00000040: adbc 27c0 5b97 b2be 46e2 b7bf 4209 6a3f
00000050: 46b6 753f 81f5 04bf 45fe 0ac0 b176 2b3f
00000060: 8fb5 cfbf 48e0 4cbf 446b c63e cad4 ddbe
00000070: a3eb 0540 6b0f 4b3f 6293 7e3d c55d 013f
00000080: 4833 c1bf 7786 8d3d e06c 9e3e 52e1 833e
00000090: 635b 113f 0eab 513f cc32 4bbf f4e0 413f
000000a0: 8476 593d 2fcb ec3e c2b4 b23f eb44 063f
000000b0: a57a 12bf c09f 11c0 1a78 003f bf9e 3e3f
000000c0: 2999 a2be 1eb3 993e
